saved_models/model_CinCECGTorso_5_02_2_50.pt (torch, 129803 bytes, 12 tensors)

Controller.fc.weight f4 [1, 51]
0	0x3d8608a6	0.06544618
1	0x3e23411e	0.15942809
2	0xbdbe6a27	-0.09297591
3	0x3de97431	0.11399115
4	0x3bef64d2	0.00730572
5	0xbd1007ca	-0.03516368
6	0xbdfbc841	-0.12294055
7	0x3dd0c41a	0.101936534
8	0x3e023cf9	0.12718572
9	0xbda451b2	-0.08023395
10	0x3e026b0f	0.12736152
11	0x3d1fb640	0.038992167
12	0x3d307e22	0.04308904
13	0xbd095776	-0.033530675
14	0x3da7d2d1	0.08194507
15	0x3ccf2948	0.02528824
16	0x3e4abf4e	0.1979954
17	0x3d98d461	0.07462383
18	0xbd9af106	-0.07565503
19	0x3d40acc3	0.04703976
20	0xbd99582c	-0.074875206
21	0xbc74d49c	-0.014943268
22	0xbc9c3a8f	-0.019070892
23	0x3dba9ded	0.09112153
24	0xbe2b210d	-0.16711827
25	0xbb761518	-0.0037549194
26	0xbdc0be18	-0.094112575
27	0xbcca0e74	-0.024665095
28	0x3d1305a4	0.03589405
29	0xbdb2d506	-0.08732037
30	0x3e139c15	0.1441501
31	0xbd75825a	-0.059938766
32	0x3e0583e3	0.13038592
33	0xbce39f95	-0.027786056
34	0xbca4e638	-0.020129308
35	0x3e1159d4	0.14194423
36	0x3d0644de	0.03278052
37	0x3e241d5e	0.16026828
38	0x3d8254a5	0.06363801
39	0xbda37c4e	-0.079826936
40	0x3c7b5f7e	0.015342591
41	0xbda957d5	-0.08268706
42	0x3c6df148	0.014522858
43	0x3d9a4797	0.07533186
44	0x3dd2bf96	0.10290448
45	0xbdf6f9b5	-0.120593466
46	0x3dc4b7ee	0.09605394
47	0x3da4a635	0.08039514
48	0x3c96e212	0.018418346
49	0xbda50c40	-0.08058977
50	0xbd837d83	-0.06420424

BaselineNetwork.fc.weight f4 [1, 51]
0	0xbd638795	-0.055549223
1	0x3d2e4dd8	0.042554706
2	0x3ddbdad4	0.107350975
3	0x3dd4c16b	0.10388454
4	0xbca4f46d	-0.020136083
5	0x3d1a0c2b	0.03760926
6	0x3e3d72d7	0.18500839
7	0xbe319eac	-0.17345685
8	0x3c9b6f4e	0.018973973
9	0xbe181a13	-0.14853697
10	0x3da5d9ce	0.080981836
11	0xbdf4f716	-0.119611904
12	0x3db4044b	0.08789881
13	0x3ca39b0b	0.019971391
14	0x3d746468	0.059666067
15	0xbdf5620d	-0.11981592
16	0xbe1fa2e5	-0.15589483
17	0xbe13275d	-0.14370485
18	0x3e3f5176	0.18683419
19	0x3c84ef0c	0.016227268
20	0x3e22ea88	0.15909779
21	0xbe0ad044	-0.1355601
22	0xbe4cdfb9	-0.20007218
23	0xbe1f07d0	-0.15530324
24	0xbd246a18	-0.04014024
25	0x3c57c807	0.013170249
26	0x3dbf94ff	0.093545906
27	0x3d905d75	0.070490755
28	0xbe11d281	-0.14240457
29	0xbe1d7dae	-0.15379974
30	0x3c3b9f12	0.0114515
31	0xbdc7c3a8	-0.09754115
32	0x3ce44044	0.027862675
33	0x3c8ab389	0.016931312
34	0xbbae39d4	-0.0053169522
35	0xbe274fd7	-0.1633905
36	0xbd75b33d	-0.059985388
37	0xbd1ba9d6	-0.038003765
38	0xbc8a1b52	-0.01685873
39	0x3d0ca272	0.034334607
40	0x3e2a0aee	0.16605732
41	0x3e11da67	0.1424347
42	0xbd60d688	-0.054892093
43	0xbdcaaea5	-0.09896592
44	0x3d7bce61	0.061476115
45	0xbb78d4fc	-0.0037968745
46	0xbd924afc	-0.071432084
47	0xbe43dc82	-0.19127086
48	0xbc9bad5e	-0.019003566
49	0x3ccd50d4	0.025062956
50	0xbd9ac741	-0.07557536

RNN.weight_ih_l0 f4 [200, 1]
0	0x3da4e8ef	0.08052241
1	0xbd64ac1a	-0.05582819
2	0xbe284f7e	-0.16436574
3	0x3c119cb4	0.008887459
4	0xbe07b355	-0.13252003
5	0xbd6e9778	-0.05824992
6	0x3e634fa9	0.22198357
7	0x3dded0a0	0.10879636
8	0x3cfcd878	0.03086494
9	0xbe11aa4d	-0.14225121
10	0xbd64c122	-0.05584825
11	0xbdbf2275	-0.09332744
12	0x3dd2cd8f	0.102931134
13	0xbdb06749	-0.0861345
14	0xbe17e174	-0.14832097
15	0xbe0a7e86	-0.13524827
16	0x3da6bdb0	0.08141649
17	0xbd113f04	-0.035460487
18	0xbc803f0c	-0.015655063
19	0xbd8b8240	-0.068119526
20	0xbda5e53e	-0.08100365
21	0xbe080fc2	-0.13287261
22	0xbe0ed206	-0.13947305
23	0xbe2401b3	-0.16016273
24	0x3e4df3d2	0.20112541
25	0x3c791250	0.01520212
26	0x3e4e9d3b	0.20177166
27	0x3e085415	0.13313325
28	0xbdf4d725	-0.11955098
29	0x3d8058c4	0.06266931
30	0xbd317825	-0.04332747
31	0xbd166bcb	-0.036723893
32	0xbe0aa37d	-0.13538928
33	0xbde423bb	-0.111396275
34	0x3c97cc6c	0.018530093
35	0x3d0b4863	0.03400458
36	0xbd153e4a	-0.036436357
37	0xbd2ded93	-0.042462897
38	0x3c95d440	0.018289685
39	0xbcc0b555	-0.023523966
40	0x3d5395b6	0.051656447
41	0x3df77bba	0.12084146
42	0x3dd53be8	0.10411817
43	0x3e1bfb02	0.1523247
44	0x3e1e7bc9	0.15476908
45	0xbcc166ce	-0.023608591
46	0x3de4a66a	0.111645535
47	0x3c8f2ed4	0.017478384
48	0x3d8d2a84	0.06892875
49	0xbd282739	-0.04105303
50	0x3e51cb79	0.20487775
51	0xbdb29af0	-0.08720958
52	0x3d39ae77	0.0453324
53	0x3e06d131	0.13165738
54	0x3e03c255	0.128671
55	0xbd859354	-0.06522241
56	0x3e559bc8	0.20860207
57	0x3de35ea4	0.11102036
58	0x3dc32ff3	0.0953063
59	0xbe26f5ab	-0.16304652
60	0x3cf16304	0.02946616
61	0xbd67e4aa	-0.056614555
62	0xbd806c92	-0.06270708
63	0x3e1ed9a6	0.15512714
64	0x3cb76fb8	0.022392139
65	0xbdbfecb4	-0.093713194
66	0x3b2a8c70	0.0026023649
67	0x3cc2628a	0.023728628
68	0x3d806c59	0.06270666
69	0x3d3b14c9	0.04567412
70	0xbc2d0825	-0.010561024
71	0xbda5e6dd	-0.08100674
72	0xbe37e2dc	-0.17957634
73	0x3dfaf72e	0.12254177
74	0x3e43dcd4	0.19127208
75	0xbdd3de4b	-0.103451334
76	0x3de21075	0.11038295
77	0x3e2207dc	0.1582331
78	0x3d2fc754	0.042914703
79	0xbd2c71c8	-0.042100698
80	0x3de1c92c	0.110246986
81	0x3e1027df	0.1407771
82	0x3e048198	0.12940061
83	0x3c0ba857	0.008524022
84	0xbd8611fa	-0.065463975
85	0xbcb09633	-0.021555996
86	0xbd05f28f	-0.032702025
87	0xbd73c1bd	-0.059510935
88	0x3daec9bb	0.08534571
89	0x3e4c59f8	0.19956195
90	0x3d7521de	0.05984675
91	0x3d7727b4	0.0603406
92	0x3c98199a	0.018566895
93	0x3cb18c46	0.021673333
94	0x3d85e7c9	0.0653835
95	0x3e000345	0.12501247
96	0xbdfd13df	-0.12357306
97	0x3cc26dce	0.023734
98	0x3ddee047	0.10882621
99	0x3e0e4f91	0.1389754
100	0xbdbcfc77	-0.09227841
101	0xbe021ac3	-0.12705521
102	0xbded6fc8	-0.11593586
103	0xbd1cf688	-0.038321048
104	0xbd9acd17	-0.07558649
105	0x3db2a985	0.087237395
106	0x3c18fe6e	0.0093380045
107	0xbca7a2e6	-0.020463418
108	0xbe0bac6e	-0.13639995
109	0xbd64fb28	-0.055903584
110	0xbd96a562	-0.07355763
111	0x3e60aa32	0.21939924
112	0xbd8ae678	-0.0678224
113	0x3b9df5c4	0.0048205573
114	0x3e1137ff	0.14181517
115	0xbe0b5249	-0.13605608
116	0xbbe6bd7a	-0.0070416303
117	0x3e3ac4a5	0.18239076
118	0xbd80aff0	-0.062835574
119	0xbd85dcd3	-0.065362595
120	0xbe368028	-0.17822325
121	0x3e0755d4	0.13216335
122	0x3e3faf0f	0.18719123
123	0x3d9d0acf	0.07668077
124	0xbc62458a	-0.013810525
125	0xbe2fb4b8	-0.17158782
126	0xbd02c45c	-0.031925544
127	0x3c89cdaf	0.01682171
128	0x3da8c3ed	0.08240495
129	0x3e180e89	0.14849295
130	0x3d82f317	0.06394022
131	0x3e009433	0.12556534
132	0x3dafbaf6	0.08580582
133	0xbd905dfe	-0.070491776
134	0xbdbe533d	-0.0929322
135	0xbe5db594	-0.21651298
136	0x3c032837	0.008005193
137	0xbe20ccdf	-0.15703152
138	0xbddf74c0	-0.1091094
139	0x3a97ad48	0.0011572028
140	0xbddf8fba	-0.109160855
141	0xbc68295c	-0.014170017
142	0xbd754186	-0.05987694
143	0xbd0db863	-0.034599673
144	0xbd97212c	-0.07379374
145	0xbb796158	-0.0038052406
146	0xbe068de1	-0.1314006
147	0xbe09371e	-0.13399932
148	0xbdec2f6d	-0.11532483
149	0x3c94e3fe	0.018175121
150	0x3d081c3f	0.033230063
151	0xbdc0cb70	-0.094138026
152	0x3d33a49d	0.04385816
153	0xbc47fe28	-0.012206592
154	0x3d6e13b4	0.05812426
155	0x3e0d4021	0.13793994
156	0x3e37d23f	0.17951296
157	0xbcdd5f56	-0.027022999
158	0x3db8e07c	0.09027192
159	0xbd93f78b	-0.072249494
160	0x3db5c953	0.0887629
161	0x3dd50e67	0.10403138
162	0x3d78a20a	0.060701407
163	0x3d14ea9a	0.036356546
164	0xbdf39226	-0.1189311
165	0xbe253617	-0.16133915
166	0x3e18c1b6	0.14917645
167	0xbdfa7e6e	-0.12231146
168	0x3da9ae00	0.08285141
169	0x3e0ce3bc	0.13758749
170	0x3e1a69d7	0.15079437
171	0xbddc1f71	-0.107481845
172	0xbe51b216	-0.2047809
173	0xbcc89710	-0.024486095
174	0x3e21f9d4	0.15817958
175	0xbdc019f1	-0.09379948
176	0x3d37092e	0.04468649
177	0x3b4e4d9c	0.0031479364
178	0xbd60412a	-0.054749645
179	0xbdc1b94e	-0.09459172
180	0xbd98b925	-0.074571885
181	0xbc54b29b	-0.012982036
182	0xbe1ce055	-0.15319951
183	0x3e12aaeb	0.14323013
184	0x3dc0a7c0	0.09406996
185	0x3d23d645	0.039999265
186	0xbdddd0e1	-0.10830856
187	0x3c8152e3	0.015786594
188	0xbe5cd7c6	-0.21566686
189	0xbd6ac914	-0.05732067
190	0x3e03337e	0.12812611
191	0x3c2c5f52	0.010520773
192	0xbd7d8e06	-0.061903022
193	0x3cdafd25	0.026732037
194	0xbcb16452	-0.021654282
195	0x3d292b9f	0.041301366
196	0x3da49f76	0.08038227
197	0x3d436db4	0.047712043
198	0x3d116174	0.03549333
199	0xbd465db9	-0.048429225

RNN.weight_hh_l0 f4 [200, 50]
0	0xbdbbea97	-0.09175604
1	0x3e0c02e3	0.13672976
2	0xbd81c73b	-0.06336828
3	0x3c6073bd	0.013699469
4	0xbd799e92	-0.06094224
5	0xbc2a1779	-0.010381573
6	0x3e1b4a3c	0.15165037
7	0x3dae7597	0.08518522
8	0xbde0b7e8	-0.10972577
9	0x3d0b5db2	0.0340249
10	0x3dd977a2	0.10618521
11	0x3cca25c3	0.02467621
12	0x3de3f636	0.111309454
13	0x3df37f3a	0.11889501
14	0xbd6bac4a	-0.057537355
15	0x3d45406c	0.04815714
16	0xbdf46972	-0.119341746
17	0xbd2b9167	-0.041886713
18	0x3e002505	0.12514122
19	0x3dbfe506	0.09369855
20	0xbde96a93	-0.113972805
21	0xbd57cf3a	-0.05268786
22	0xbd8716c6	-0.065961406
23	0xbe1814d4	-0.14851695
24	0xbe067306	-0.13129815
25	0xbd8670cb	-0.06564482
26	0x3d98b0ac	0.074555725
27	0x3d337cb7	0.04382011
28	0xbdf43aa9	-0.11925251
29	0xbdc4f72e	-0.09617458
30	0x3dd20b00	0.10256004
31	0xbd97e3ee	-0.07416521
32	0xbbf64b1a	-0.007516277
33	0x3d10e471	0.03537411
34	0xbded6899	-0.11592216
35	0xbd3e4cfe	-0.046460144
36	0x3cabc09a	0.020965863
37	0xbcca7b68	-0.024717048
38	0xbd76acfd	-0.06022357
39	0xbe1677f3	-0.14694194
40	0xbdca3e24	-0.09875134
41	0xbde0e834	-0.10981789
42	0x3deb9502	0.1150303
43	0xbd51cdd5	-0.051221687
44	0xbd9a94a6	-0.07547884
45	0x3d667727	0.056265976
46	0x3d5e9716	0.054343306
47	0x3d4049fc	0.046945557
48	0x3dfa7093	0.12228503
49	0x3d9fb30b	0.077978216
50	0xbe312460	-0.17299032
51	0x3b6017a8	0.0034193788
52	0x3e1113eb	0.14167754
53	0xbc43f0aa	-0.011959234
54	0xbdfe0f7d	-0.12405298
55	0x3e23ea18	0.16007268
56	0xbd6e2f39	-0.058150504
57	0xbdb5363e	-0.088482365
58	0xbe21ca4b	-0.15799825
59	0xbb0b0d94	-0.002121781
60	0x3ddc4d45	0.107569255
61	0x3d903cf3	0.07042875
62	0x3c874513	0.01651243
63	0xbde44492	-0.11145891
64	0xbdac775d	-0.08421204
65	0xbd1f2bb3	-0.038860034
66	0x3e0d0e21	0.13774921
67	0x3e056c3a	0.13029566
68	0xbdea6048	-0.114441454
69	0xbd3f4bc6	-0.046703123
70	0xbe08f21d	-0.13373609
71	0xbdb00de6	-0.08596401
72	0xbcabc69e	-0.020968731
73	0x3e1b8ac8	0.1518966
74	0x3ddec794	0.1087791
75	0xbd895b60	-0.067068815
76	0x3dd04262	0.101689115
77	0xbdf1ca1b	-0.11806127
78	0x3dffdd6e	0.12493406
79	0x3e1dee67	0.15422975
80	0xbc9cdefd	-0.019149298
81	0x3d9193fa	0.071083024
82	0xbe2de626	-0.16982326
83	0xbd0ad655	-0.03389581
84	0x3dbdbaf3	0.09264173
85	0x3c83ba9f	0.016080199
86	0xbb8adc07	-0.004237655
87	0xbd87d196	-0.06631772
88	0x3c87b9e8	0.01656814
89	0x3d976dc1	0.07393981
90	0x3d0c1514	0.03419979
91	0xbd78a8be	-0.0607078
92	0xbde1b6eb	-0.11021217
93	0x3bef8a1e	0.007310166
94	0x3c0074d3	0.007840353
95	0xbd913833	-0.07090797
96	0xbd2d6a5d	-0.042337764
97	0x3ddb4f38	0.10708469
98	0xbb8d56d0	-0.0043133274
99	0x3d9ac913	0.07557883
100	0x3cb165e6	0.021655034
101	0xbd9f649a	-0.0778286
102	0xbe436953	-0.19083147
103	0xbdcad01b	-0.09902974
104	0xbbe41d6e	-0.006961516
105	0xbc0d641f	-0.008629828
106	0xba97ccec	-0.0011581457
107	0xbc816342	-0.0157944
108	0x3e4abc0f	0.19798301
109	0x3c2cce7f	0.010547279
110	0x3d7c86d1	0.06165201
111	0xbdf83b3e	-0.121206746
112	0xbc902bce	-0.017599013
113	0x3c01b619	0.007916951
114	0xbe14127b	-0.14460175
115	0xbd1b9cb8	-0.037991256
116	0xbd5a446b	-0.053287905
117	0xbdeedd48	-0.116633
118	0xbd335348	-0.043780595
119	0x3e167f8c	0.14697093
120	0x3e260eae	0.16216537
121	0x3da25c66	0.0792778
122	0x3cd33395	0.025781432
123	0xbe433554	-0.19063312
124	0xbcbb0a5c	-0.022832088
125	0x3d855be0	0.065116644
126	0x3caf994b	0.0214354
127	0x3d0e0ef7	0.03468224
128	0xbddcaef9	-0.10775561
129	0x3d150338	0.036380023
130	0xbd5bcc3a	-0.053661563
131	0x3e0db900	0.13840103
132	0xbca4c0ff	-0.020111559
133	0xbd80a2c5	-0.06281046
134	0xbdabc1d3	-0.083865784
135	0x3d64e24b	0.055879872
136	0xbdd55a33	-0.10417595
137	0x3e143cca	0.14476314
138	0x3d4b2de8	0.049604326
139	0x3d8f691a	0.070024684
140	0x3e375afa	0.17905799
141	0xbe04e316	-0.12977251
142	0xbe1f3402	-0.15547183
143	0x3e24a1d2	0.16077355
144	0x3e2ef2ea	0.17084852
145	0xbd7eca47	-0.062204625
146	0x3cf59ce6	0.029982042
147	0xbdc52737	-0.0962662
148	0xbd904202	-0.0704384
149	0xbd03c68b	-0.032171767
150	0x3bba11d4	0.005678395
151	0xbb68f36c	-0.0035545481
152	0xbdbc5b00	-0.091970444
153	0x3de46ef2	0.11153974
154	0x3cadb840	0.021206021
155	0xbd3f8255	-0.046755154
156	0x3a0cb5b0	0.000536765
157	0x3d3fa30c	0.046786353
158	0xbb9b36cb	-0.0047367564
159	0xbdee3d0b	-0.11632737
160	0x3c91b034	0.017784216
161	0xbcfbb190	-0.030724317
162	0xbe169e2f	-0.1470878
163	0xbdb05a72	-0.08611001
164	0x3e20baef	0.1569631
165	0x3db4521c	0.088047236
166	0x3df02e76	0.11727612
167	0x3e0c7bcb	0.13719098
168	0x3d895b40	0.06706858
169	0xbd672650	-0.056433022
170	0xbdec471f	-0.11537003
171	0x3e22ea77	0.15909754
172	0xbd0e4e16	-0.034742437
173	0xbd3ea522	-0.0465442
174	0xbd7fc71d	-0.06244575
175	0xbc184b44	-0.0092952885
176	0x3d842ac9	0.06453473
177	0xbdaab3e9	-0.083350964
178	0xbce6f666	-0.028193664
179	0x3d4f8010	0.05065924
180	0xbd459284	-0.04823543
181	0xbd753e64	-0.059873953
182	0x3dbdfb85	0.09276489
183	0xbd64933c	-0.055804476
184	0x3dc25eea	0.0949076
185	0x3dcef6bf	0.10105657
186	0x3d82b384	0.06381896
187	0x3c6f65a8	0.014611639
188	0xbbc5b884	-0.006033959
189	0xbc0bd8a1	-0.008535535
190	0xbd303072	-0.04301495
191	0xbc9c118e	-0.01905134
192	0x3d2eda62	0.042688735
193	0x3dd3dfef	0.10345446
194	0xbd929343	-0.07156994
195	0xbd4adf66	-0.049529456
196	0xbd83a5cf	-0.0642811
197	0xbdd80801	-0.105484016
198	0xbc303a48	-0.010756083
199	0x3da1d621	0.0790217
200	0x3e335723	0.17513709
201	0x3e09680d	0.13418598
202	0xbe09d4d2	-0.13460091
203	0xbe142f86	-0.14471254
204	0xbd9edace	-0.077565774
205	0xbdc0bb5a	-0.094107345
206	0x3da3c2c1	0.07996131
207	0xbd801ed1	-0.06255878
208	0x3dd4a03f	0.10382127
209	0xbe3431e9	-0.17597164
210	0xbd62cf80	-0.05537367
211	0xbe33a379	-0.17542829
212	0x3e41a5fc	0.18910974
213	0xbe4ef208	-0.20209515
214	0x3e067474	0.13130361
215	0x3c0425e0	0.008065671
216	0xbdb19838	-0.086716115
217	0x3cd01569	0.025400834
218	0x3d5c3292	0.053759165
219	0x3e218cb3	0.15776329
220	0x3e0f18f9	0.1397437
221	0xbd64cf03	-0.055861484
222	0x3d03f862	0.0322193
223	0x3d5de032	0.054168887
224	0xbd175fd1	-0.036956612
225	0x3d5a64ac	0.053318664
226	0xbd00255f	-0.03128564
227	0x3b2580b8	0.0025253724
228	0xbbf7b486	-0.007559362
229	0x3e3428c1	0.17593671
230	0x3e24b2b9	0.16083802
231	0xbd25218a	-0.04031519
232	0xbe3833f3	-0.17988567
233	0xbd873c4b	-0.06603297
234	0xbe287025	-0.1644903
235	0x3e18b38d	0.14912243
236	0xbcd7d63c	-0.026347272
237	0x3d485dc6	0.048917554
238	0xbd8a5c65	-0.06755904
239	0xbd3650bc	-0.044510588
240	0x3e4c53f1	0.19953896
241	0xbd6f61e2	-0.058442958
242	0x3c45d54a	0.012074778
243	0x3e34b6f5	0.17647918
244	0x3e38323c	0.17987913
245	0x3cb00ba6	0.02148993
246	0x3d0ab556	0.03386434
247	0x3dd15d64	0.10222891
248	0x3ce99b09	0.02851631
249	0x3db91d95	0.090388454
250	0x3c265ea7	0.010154403
251	0xbd8d3974	-0.06895724
252	0x3d38e1ed	0.045137335
253	0x3c07c1d7	0.008285961
254	0x3df5e07a	0.12005706
255	0x3dcdaa12	0.10042204

RNN.bias_ih_l0 f4 [200]
0	0x3da6daf7	0.08147233
1	0x3ceba138	0.028763399
2	0xbab13550	-0.0013519917
3	0xbdd599ed	-0.1042975
4	0xbe262c57	-0.16227852
5	0xbda8f824	-0.08250454
6	0xbdbc1ee7	-0.09185582
7	0xbd974070	-0.07385337
8	0xbe1ced9e	-0.15325019
9	0x3c9b9846	0.018993508
10	0x3d92e603	0.071727775
11	0xbba62090	-0.0050697997
12	0x3c05be50	0.00816305
13	0x3cf3e515	0.02977232
14	0x3dbeb769	0.093123265
15	0xbdf3facf	-0.11913072
16	0x3e090201	0.1337967
17	0x3d093dbb	0.033506136
18	0xbdcd01c8	-0.10010105
19	0x3d8529be	0.06502102
20	0x3d1b0e94	0.0378557
21	0xbda00114	-0.07812706
22	0x3dbd102a	0.09231599
23	0x3d144b55	0.036204655
24	0x3dc291a1	0.09500433
25	0xbd48e2e2	-0.049044497
26	0xbdb00b4d	-0.085959055
27	0x3e1dd285	0.15412338
28	0xbbf08ae2	-0.007340775
29	0x3d64da96	0.055872522
30	0x3d18dda8	0.037320763
31	0x3d3f303c	0.04667686
32	0xbd983c7d	-0.07433412
33	0xbd3903c3	-0.045169603
34	0x3cac2fe7	0.021018935
35	0x3b5cdeb8	0.0033702087
36	0x3e0a3ebf	0.13500498
37	0x3dbe4d87	0.09292131
38	0x3d31a359	0.04336867
39	0x3e31cccb	0.17363279
40	0xb869c600	-5.573593e-05
41	0xbd988744	-0.07447675
42	0x3de32737	0.11091464
43	0xbd0c924e	-0.034319215
44	0xbdee8929	-0.11647255
45	0x3e0eba1d	0.13938184
46	0xbda72769	-0.08161814
47	0xbdaf60fe	-0.08563422
48	0x3da62937	0.0811333
49	0xba35b01d	-0.0006930845
50	0xbdd6d6d3	-0.10490193
51	0xbcacff94	-0.021117963
52	0x3cf8fdf3	0.03039453
53	0xbd66b800	-0.05632782
54	0x3c01984c	0.007909846
55	0xbd40aa26	-0.047037266
56	0xbd7900a6	-0.060791634
57	0xbe13b900	-0.1442604
58	0xbd7037ea	-0.058647074
59	0x3ddabba5	0.106803216
60	0xbd1364ca	-0.03598479
61	0xbe00e8a2	-0.12588742
62	0x3cec6e1e	0.028861102
63	0x3db63f8b	0.088988386
64	0xbd451549	-0.048116002
65	0x3dbe7630	0.09299886
66	0x3e2deb3a	0.16984263
67	0x3da65686	0.08121972
68	0xbe08fcd9	-0.13377704
69	0xbe19dcb9	-0.15025605
70	0xbdcb107b	-0.09915253
71	0xbdd10023	-0.10205104
72	0xbe00c1ae	-0.12573883
73	0x3ca82b64	0.020528503
74	0xbd5e1f67	-0.054229166
75	0x3e1e4e00	0.15459442
76	0xbdc5f747	-0.09666305
77	0xbe008180	-0.125494
78	0xbd2b8dee	-0.0418834
79	0x3da0743e	0.078346714
80	0x3d1f2530	0.038853824
81	0xbd236a91	-0.03989655
82	0x3df04430	0.11731756
83	0xbdf5d765	-0.12003974
84	0xbd45bc90	-0.04827553
85	0xbd826215	-0.06366364
86	0xbd914c64	-0.070946485
87	0xbc7d6925	-0.015466963
88	0xbe305f1d	-0.17223783
89	0x3c83034e	0.015992787
90	0xbc4aadd1	-0.012370543
91	0xbe20b82d	-0.15695257
92	0xbdec1f54	-0.11529413
93	0xbdfc883d	-0.12330673
94	0xbd41818e	-0.047242694
95	0xbd973938	-0.073839605
96	0x3e22153b	0.15828411
97	0xbdcad1c0	-0.09903288
98	0x3dac8a0e	0.08424769
99	0xbe2485d9	-0.16066684
100	0x3c831658	0.016001865
101	0xbe31c144	-0.17358881
102	0x3d01bbf6	0.031673394
103	0x3df5d2a8	0.1200307
104	0xbe0c1509	-0.136799
105	0x3d27461e	0.040838353
106	0xbce057de	-0.027385648
107	0xbe05a6be	-0.13051888
108	0xbc5e180f	-0.013555541
109	0x3e1088ee	0.14114735
110	0xbdeb3c59	-0.1148612
111	0x3de43036	0.11142008
112	0xbca4f57a	-0.020136584
113	0x3dd5c4b6	0.1043791
114	0xbd9cef6a	-0.07662852
115	0x3d67119f	0.05641329
116	0x3d9094b0	0.0705961
117	0x3d88116a	0.066439465
118	0xbdc9994f	-0.098436944
119	0xbcbfe6a8	-0.023425415
120	0xbd03c7b0	-0.03217286
121	0xbddb9aed	-0.10722909
122	0x3d913973	0.07091036
123	0x3d8c2f19	0.06844921
124	0x3e07d6e5	0.1326557
125	0xbd9f04d4	-0.07764593
126	0x3dcb0c5a	0.09914465
127	0xbe1c4b23	-0.15263037
128	0x3cab2b94	0.020894803
129	0xbdf4e1f2	-0.11957158
130	0xbda8ee64	-0.082485944
131	0x3ddcaed7	0.107755356
132	0x3d0e7194	0.034776285
133	0x3c7e1c7f	0.015509724
134	0x3d96edb0	0.07369554
135	0x3dbfb105	0.09359936
136	0x3dc831d6	0.097751305
137	0xbe2e10fa	-0.16998664
138	0x3c67f85e	0.014158336
139	0x3d630346	0.055423044
140	0xbe32986f	-0.17440961
141	0x3dcad89b	0.099045955
142	0x3e08684f	0.1332104
143	0xbddef91a	-0.10887356
144	0xbcb3c730	-0.021945566
145	0xbe0f2065	-0.13977201
146	0x3c0e8be6	0.008700347
147	0xbc3f1b46	-0.011664217
148	0xbdcff36f	-0.10153853
149	0x3d722848	0.059120446
150	0x3bb7c8c6	0.005608651
151	0x3d646aa6	0.05576577
152	0x3d50fb78	0.05102107
153	0xbd0132b8	-0.03154251
154	0xbe484e9a	-0.19561234
155	0x3d5746f1	0.05255789
156	0xbd66b008	-0.05632022
157	0x3db25632	0.08707847
158	0xbdb409aa	-0.08790906
159	0x3d95f808	0.07322699
160	0x3cbfc148	0.023407593
161	0xbd87bebe	-0.06628178
162	0xbd7192b2	-0.05897779
163	0x3de96dc5	0.1139789
164	0xbda5a103	-0.08087351
165	0x3ce225d6	0.027605932
166	0x3e105428	0.14094603
167	0xbe1141c1	-0.1418524
168	0xbe2e0ce6	-0.16997108
169	0xbcade858	-0.021228954
170	0xbc8e98e9	-0.017406898
171	0xbdf170a4	-0.117890626
172	0x3d6a6a29	0.05723015
173	0xbe0b4966	-0.13602218
174	0xbd93e388	-0.072211325
175	0xbe021676	-0.1270388
176	0x3d94eee6	0.07272129
177	0x3d59aea6	0.053145073
178	0x3d3319b1	0.043725673
179	0x3d35f6b2	0.04442472
180	0x3d9648bd	0.073380925
181	0xbd80febc	-0.06298587
182	0x3e262743	0.16225915
183	0xbd69a730	-0.057044208
184	0xbd569207	-0.052385356
185	0xbd9aea0a	-0.07564171
186	0xbe021b1e	-0.12705657
187	0xbcedce74	-0.029029109
188	0xbdd6086d	-0.10450826
189	0x3d991c83	0.07476141
190	0xbcec7fe3	-0.028869575
191	0xbcdbb55e	-0.026819881
192	0x3e1c8c2a	0.15287843
193	0xbb8a532f	-0.004221342
194	0x3cc5f766	0.02416582
195	0x3d3dfbc6	0.046382688
196	0x3e09ea8c	0.13468379
197	0x3d267092	0.0406347
198	0x3d256680	0.040380955
199	0x3d624b69	0.055247698

RNN.bias_hh_l0 f4 [200]
0	0x3ceeb6e6	0.029139947
1	0x3c89fe34	0.016844846
2	0xbdd1bf0d	-0.10241518
3	0xbda49766	-0.080366895
4	0x3d5769f0	0.052591264
5	0xbde6b8a8	-0.11265689
6	0xbdca0acb	-0.0986534
7	0xbcf9b038	-0.030479535
8	0xbc8268de	-0.015919145
9	0xbd0d100d	-0.034439135
10	0x3dbf00d5	0.093263306
11	0x3da2881e	0.079361185
12	0x3dfdff03	0.12402155
13	0xbdbdd7fd	-0.09269712
14	0x3d85c9d5	0.06532637
15	0x3d6af263	0.057360064
16	0xbd38dba9	-0.04513136
17	0xbcdfc7ec	-0.02731701
18	0xbcf1fa90	-0.029538423
19	0xbc86ea03	-0.016469007
20	0x3de93016	0.11386125
21	0x3dda9ffc	0.10675046
22	0x3dce3c62	0.10070111
23	0x3cd58ff1	0.026069613
24	0x3d915e7f	0.07098102
25	0x3d4bf84c	0.04979734
26	0xbd2917c0	-0.041282415
27	0x3e0a8b1d	0.1352963
28	0xbcd1789e	-0.02557021
29	0x3d3e273e	0.046424143
30	0xbca2e40a	-0.019884128
31	0x3dbe5369	0.09293253
32	0x3d8d4142	0.068972126
33	0xbc945c9e	-0.01811057
34	0xbe594340	-0.2121706
35	0x3cee03c5	0.029054532
36	0xbd131a58	-0.035913795
37	0x3e329e49	0.17443193
38	0xbe1f8f68	-0.15582049
39	0xba840d10	-0.0010074694
40	0xbd1298a0	-0.035790086
41	0xbe1387a8	-0.14407218
42	0x3d9c6bdd	0.07637761
43	0xbd775d31	-0.06039161
44	0x3d5fd88e	0.054649882
45	0x3d835d70	0.06414306
46	0xbd07907a	-0.033096768
47	0xbd0e56aa	-0.034750618
48	0x3d72324f	0.05913001
49	0xbdad2602	-0.08454515
50	0xbde1584d	-0.1100317
51	0xbd8531ae	-0.06503616
52	0xbcd7265c	-0.026263408
53	0xbdb6e481	-0.089303024
54	0x3c81c3ce	0.015840437
55	0x3d79cb5c	0.060984954
56	0x3df57ecc	0.11987075
57	0x3de18136	0.11010973
58	0xbdceea76	-0.101033136
59	0xbd911a1a	-0.070850566
60	0x3e147ae1	0.145
61	0xbd02d83c	-0.0319445
62	0xbd838b0b	-0.06423005
63	0xbda1ce99	-0.079007335
64	0x3db754bc	0.08951709
65	0xbe01152e	-0.12605736
66	0x3daabbdc	0.083366126
67	0xbe2a6c94	-0.16642982
68	0x3d25e0f9	0.040497754
69	0xbc2f224c	-0.010689329
70	0x3e0613db	0.13093512
71	0xbd8ecdd0	-0.06972849
72	0x3d1c411e	0.038148038
73	0x3d907577	0.07053655
74	0xbdadb810	-0.08482373
75	0xbd83fd8a	-0.06444843
76	0xbd85a5d3	-0.06525769
77	0x3d9c2fb6	0.07626288
78	0xbdd892c3	-0.105748676
79	0xbda969f2	-0.082721606
80	0xbe4cc1eb	-0.19995849
81	0xbdb9c2bd	-0.090703465
82	0x3cb9efa9	0.022697287
83	0xbe56ef8e	-0.2098982
84	0xbdc0305b	-0.09384223
85	0x3e013778	0.12618816
86	0xbd0eee4a	-0.03489522
87	0xbc1d8ca5	-0.009616052
88	0x3c8a699c	0.016896062
89	0xbdaa07ce	-0.0830227
90	0xbd99d3d6	-0.075111076
91	0xbd39055c	-0.045171127
92	0x3d0c8a2d	0.034311462
93	0xbe015314	-0.12629348
94	0x3dde9efb	0.10870167
95	0xbc619951	-0.013769464
96	0x3d580342	0.052737482
97	0x3d219fcc	0.039459035
98	0x3dcd8c84	0.10036567
99	0xbc7bbc70	-0.015364751
100	0xbe028445	-0.1274577
101	0xbe30c319	-0.17261924
102	0x3ca8c363	0.02060098
103	0x3d6f9bb5	0.058498103
104	0x3db32283	0.08746817
105	0x3d4c8fda	0.049941875
106	0xbe22a8a8	-0.1588465
107	0xbc8468a6	-0.016163182
108	0xbd74bf8a	-0.05975298
109	0xbd9bb7c6	-0.076034114
110	0xbb1fb1ec	-0.0024367524
111	0xbca5a4c2	-0.020220164
112	0xbe0e3f63	-0.13891368
113	0x3db34788	0.08753878
114	0x3dbdd696	0.09269445
115	0xbe03a0f0	-0.12854362
116	0x3e30f150	0.17279553
117	0x3d01eab5	0.031717975
118	0x3cf19a0a	0.029492397
119	0xbddf8881	-0.10914708
120	0xbdc3b5cc	-0.095561594
121	0x3d1955ca	0.03743533
122	0xbc5c423a	-0.013443524
123	0xbd8dc3d1	-0.06922115
124	0xbc33c322	-0.010971816
125	0x3def5926	0.116869256
126	0x3e258b20	0.16166353
127	0xbe23df8c	-0.16003245
128	0xbde29b21	-0.11064745
129	0x3dfe2de2	0.12411095
130	0x3d19ed46	0.037579797
131	0xbc26c85b	-0.010179604
132	0x3d859641	0.06522799
133	0x3dbd88fc	0.09254643
134	0xbd9b6d75	-0.07589237
135	0xbe338816	-0.17532381
136	0xbcefb60c	-0.029261611
137	0x3ceaf9e0	0.028683603
138	0x3c765b2e	0.015036387
139	0x3e0f3dd4	0.1398843
140	0x3c43898d	0.01193465
141	0xbc934f90	-0.017982274
142	0x3dc16363	0.09442785
143	0xbd804668	-0.06263429
144	0xbde8c96a	-0.11366542
145	0xbe373bf2	-0.17893961
146	0xbe20b352	-0.15693405
147	0xbd6ff0e6	-0.058579348
148	0xbe1e7a9a	-0.15476456
149	0x3b8adee0	0.0042379946
150	0x3d569c09	0.0523949
151	0x3e17bd6e	0.14818355
152	0xbd1f82f0	-0.03894323
153	0x3d71b088	0.059006244
154	0xbc73fe8f	-0.0148922345
155	0xbd829102	-0.06375314
156	0xbd0cc295	-0.034365255
157	0xbdcb9adc	-0.099416465
158	0xbe3b8622	-0.18312886
159	0xbc4b477e	-0.012407182
160	0xbd1c042d	-0.03808992
161	0x3d189e13	0.037260126
162	0x3d9b8414	0.07593551
163	0x3e04590d	0.12924595
164	0xbc1e1902	-0.009649517
165	0xbc565286	-0.013081199
166	0x3e058776	0.13039955
167	0xbb8be840	-0.0042696297
168	0x3c5c5eb5	0.013450314
169	0xbde56c66	-0.11202316
170	0xbd834bba	-0.06410928
171	0x3dbffc2e	0.09374271
172	0x3d84262c	0.06452593
173	0xbd6d9b9a	-0.05800972
174	0x3c811e0c	0.015761398
175	0xbe0a9698	-0.1353401
176	0x3d394e3b	0.045240622
177	0xbdb90ad4	-0.090352684
178	0x3d847117	0.06466883
179	0xbe1eac7f	-0.1549549
180	0x3d23207c	0.0398259
181	0x3de434e0	0.111428976
182	0xbc2f5ad0	-0.010702804
183	0xbe146094	-0.14489967
184	0x3d2a1285	0.041521568
185	0xbcfbb350	-0.030725151
186	0x3d2f1090	0.042740405
187	0x3df3e26f	0.11908423
188	0x3bf8d774	0.0075940434
189	0xbd82e77a	-0.06391807
190	0x3e263c69	0.16233982
191	0x3cd6d728	0.026225641
192	0xbd896f11	-0.06710637
193	0xbd3104b9	-0.043217395
194	0xbd369c5b	-0.044582706
195	0x3dbc1106	0.091829345
196	0x3dc2bf0b	0.09509095
197	0xbb452b14	-0.003008549
198	0x3e0f0cbf	0.13969706
199	0x3df2db94	0.118582875

RNN.weight_ih_l1 f4 [200, 50]
0	0x3d60b4f2	0.054860063
1	0x3dccee9b	0.10006448
2	0x3d19cbd4	0.0375479
3	0xbcf2f646	-0.029658448
4	0xbd012651	-0.031530682
5	0x3dcfad65	0.10140494
6	0x3e14d447	0.14534102
7	0x3e101233	0.14069442
8	0xbddce2de	-0.10785459
9	0xbe0b39e9	-0.1359631
10	0xbdbbb790	-0.09165871
11	0xbda61709	-0.08109862
12	0x3c9b5162	0.018959705
13	0x3cd9321d	0.026513154
14	0x3d823f4c	0.06359729
15	0xbd27ac5d	-0.040935863
16	0xbd8d8729	-0.069105454
17	0xbda817ca	-0.082076624
18	0xbd93526f	-0.07193457
19	0x3d32d8b7	0.043663707
20	0xbdf5dc19	-0.12004871
21	0x3dbdb89c	0.09263727
22	0x3e20f93f	0.1572008
23	0x3dc95921	0.09831453
24	0x3d586040	0.052826166
25	0xbe01f4f4	-0.12691098
26	0xbd3cf2cc	-0.046129987
27	0xbdc15dab	-0.09441694
28	0x3d732217	0.059358682
29	0xbd7b390c	-0.0613337
30	0x3e3be853	0.18350343
31	0xbdb37ca0	-0.08764005
32	0x3ceaeb12	0.028676543
33	0xbe2ce3c8	-0.16883767
34	0xbd468ea4	-0.048475876
35	0xbd1f4de4	-0.03889264
36	0x3d3e6604	0.04648401
37	0xbdaf7802	-0.085678115
38	0x3d777859	0.060417507
39	0xbd9e1b56	-0.07720058
40	0x3d006330	0.031344593
41	0xbde0ab63	-0.109701894
42	0xbe22abdf	-0.15885876
43	0xbc65c638	-0.01402431
44	0x3e171b5f	0.14756535
45	0x3e3e3b6e	0.18577358
46	0xbdb0e727	-0.08637839
47	0xbcb2038c	-0.021730207
48	0x3d3d23ef	0.046176847
49	0x3dc55342	0.09635021
50	0xbce718a8	-0.02821
51	0xbd0f56e8	-0.03499499
52	0x3c35bd86	0.011092549
53	0x3d0e989d	0.034813512
54	0xbe53f7c8	-0.2069999
55	0xbdc3748e	-0.095437154
56	0xbd698066	-0.057007216
57	0xbe0df944	-0.13864619
58	0xbe39e698	-0.18154371
59	0xbd36197f	-0.04445791
60	0x3dac48aa	0.08412297
61	0x3df59010	0.11990368
62	0xbdb70a38	-0.08937496
63	0x3c67ac20	0.014140159
64	0x3e3c9777	0.18417154
65	0xbca3fae6	-0.020017099
66	0x3e0856da	0.13314381
67	0x3d0441b2	0.032289214
68	0xbe3d760c	-0.18502063
69	0xbdf53002	-0.119720474
70	0xbd04c484	-0.032413974
71	0xbd17b81d	-0.03704082
72	0xbdb4a73d	-0.08820961
73	0x3e5dfc54	0.21678287
74	0xbe05b4df	-0.13057278
75	0x3c96e35c	0.01841896
76	0x3dc49b1c	0.09599897
77	0xbda7f5a3	-0.08201148
78	0x3e0c7122	0.13715032
79	0x3d352a92	0.04423005
80	0xbe1d3478	-0.15352046
81	0xbdd81718	-0.1055128
82	0xbcf234cc	-0.029566191
83	0xbd9f3982	-0.077746406
84	0x3da4f740	0.08054972
85	0x3dbc2cc3	0.09188225
86	0x3b350a74	0.0027624639
87	0xbd08bc6b	-0.033382814
88	0xbd0a7951	-0.033807103
89	0x3d914cc2	0.070947185
90	0xbdf68181	-0.1203642
91	0xbd34100d	-0.04396062
92	0x3e25f8e4	0.16208225
93	0x3d286903	0.041115772
94	0x3dadcb40	0.084860325
95	0x3d8562c3	0.06512978
96	0xbd4a72ad	-0.04942577
97	0x3d71831b	0.058962923
98	0xbd4070f8	-0.046982735
99	0x3da0dc16	0.07854478
100	0x3b12afda	0.0022382648
101	0x3e36518e	0.17804548
102	0xbdb127b1	-0.08650149
103	0xbd114c28	-0.03547302
104	0xbd7b0f28	-0.06129375
105	0xbc7f91c5	-0.015598719
106	0xbb07ebda	-0.0020739944
107	0x3d007262	0.031359084
108	0x3d655668	0.055990607
109	0xbc3b4ca2	-0.011431845
110	0xbbadfd7a	-0.005309758
111	0xbd3562bd	-0.044283617
112	0xbccd73c8	-0.025079623
113	0xbe31b50c	-0.1735422
114	0xbc43ca07	-0.011950023
115	0x3be8ba5f	0.0071022953
116	0xbe40703b	-0.18792813
117	0xbe00c3f2	-0.12574747
118	0xbd96346c	-0.073342174
119	0x3dbe1e2e	0.092831
120	0x3da9f719	0.08299083
121	0x3e33d19e	0.17560431
122	0xbd188887	-0.037239578
123	0xbe099780	-0.13436699
124	0x3d3be108	0.045868903
125	0x3d17988b	0.03701071
126	0x3d36eb58	0.044658035
127	0x3db0858d	0.08619223
128	0xbd8bc5a1	-0.06824804
129	0xbdf5efd0	-0.12008631
130	0x3e1566b0	0.14589953
131	0xbd016fef	-0.03160089
132	0x3d694d47	0.056958463
133	0x3d08d2b2	0.03340406
134	0xbe2dde35	-0.16979297
135	0xbd5b7b18	-0.05358419
136	0xbdd66527	-0.10468512
137	0x3e0e899c	0.13919681
138	0xbc71155a	-0.014714563
139	0xbd5294da	-0.051411487
140	0x3db91f43	0.09039166
141	0xbcf61ddf	-0.03004354
142	0xbe0c4a73	-0.13700275
143	0x3d94e121	0.072695024
144	0x3e25794e	0.16159555
145	0x3e0e4e39	0.13897027
146	0x3dc6513a	0.096834615
147	0xbd21038a	-0.039310016
148	0x3e0aed6f	0.13567136
149	0xbde95c6a	-0.1139458
150	0x3e13be78	0.14428127
151	0x3dd0069b	0.1015751
152	0xbd85b4ab	-0.065286
153	0x3c07e7d1	0.008295015
154	0xbcff1df9	-0.031142222
155	0xbcda57a1	-0.026653113
156	0x3d045f4c	0.032317445
157	0x3d2f7548	0.042836457
158	0x3d92ade0	0.0716207
159	0x3da81022	0.08206202
160	0xbdc709b2	-0.09718646
161	0x3ddfec39	0.10933728
162	0x3bfd0866	0.0077219484
163	0x3db6b927	0.08922034
164	0x3c0c6ec2	0.008571329
165	0x3d4e2948	0.050332338
166	0xbdbd112d	-0.09231792
167	0xbdb393b0	-0.087684035
168	0xbdb94c0b	-0.09047707
169	0xbce26095	-0.027633945
170	0x3b512978	0.0031915586
171	0x3e4d2324	0.20032936
172	0x3df17ea0	0.1179173
173	0x3b84c194	0.0040513966
174	0xbe293a37	-0.16526113
175	0x3ddbdeef	0.107358806
176	0x3d570c09	0.052501712
177	0xbc96dac0	-0.018414855
178	0x3d200474	0.039066747
179	0xbe0624ea	-0.13100019
180	0xbced2fba	-0.028953422
181	0xbbf1eb36	-0.0073827757
182	0xbdcb4256	-0.09924762
183	0xbda74574	-0.08167544
184	0xbd35feec	-0.044432566
185	0x3d4720b9	0.04861519
186	0x3e30b9a8	0.17258322
187	0x3dd65b36	0.10466616
188	0xbdf18bf9	-0.11794276
189	0xbdb29278	-0.08719343
190	0x3de87783	0.1135092
191	0xbe4f8459	-0.2026533
192	0xbd6f135c	-0.058368072
193	0x3db32f55	0.08749262
194	0xbd42397a	-0.047418095
195	0x3e2c465d	0.16823716
196	0xbd7218db	-0.059105735
197	0xbdb00754	-0.08595148
198	0xbd9ce924	-0.076616555
199	0xbd4ea011	-0.05044562
200	0x3bc2070c	0.00592125
201	0x3d27e34f	0.040988263
202	0xbd245cb5	-0.040127475
203	0x3e164684	0.14675337
204	0xbde19dca	-0.11016424
205	0x3e193045	0.1495982
206	0x3c35c851	0.011095122
207	0xbda8a9bc	-0.08235499
208	0x3d1a5565	0.037679095
209	0x3d2d32d6	0.04228481
210	0xbe23cfea	-0.15997282
211	0x3de5f824	0.1122897
212	0x3dcb59ad	0.09929214
213	0xbd989db0	-0.074519515
214	0xbd9cce6f	-0.076565616
215	0xbe21eb41	-0.15812398
216	0x3dbd78cd	0.092515565
217	0x3e20f96e	0.1572015
218	0x3d552102	0.05203343
219	0xbc216869	-0.0098515535
220	0xbd808a06	-0.06276326
221	0xbc5aa1ec	-0.013344269
222	0xbd89d343	-0.06729748
223	0x3d69be17	0.05706605
224	0xbca18380	-0.019716024
225	0x3d87ac04	0.06624606
226	0x3d2f62f9	0.042818997
227	0x3aad295c	0.0013211179
228	0xbdc0296d	-0.09382901
229	0xbcd5f1ae	-0.026116218
230	0xbc22336b	-0.009899954
231	0xbd956f27	-0.07296591
232	0xbcc3f939	-0.02392255
233	0x3bb0ff1c	0.005401505
234	0xbdb7cd15	-0.08974663
235	0x3dd62b6d	0.104575016
236	0x3e2d3937	0.16916357
237	0x3d509607	0.050924327
238	0xbe05ae21	-0.13054706
239	0xbba335ad	-0.004980764
240	0x3ce6b7ad	0.028163755
241	0x3ddfb579	0.10923285
242	0x3ce5864a	0.028018136
243	0xbe0379f1	-0.12839486
244	0xbd1fb6e5	-0.03899278
245	0xbde364ea	-0.11103232
246	0x3d9ff602	0.07810594
247	0x3dbf133e	0.09329842
248	0xbdba78c2	-0.09105064
249	0xbd5ab4ce	-0.053395085
250	0x3d390d19	0.045178507
251	0x3e05ea7b	0.13077728
252	0xbe1c2056	-0.1524671
253	0x3be75dbe	0.0070607355
254	0x3da6a4f0	0.08136928
255	0xbe2d0259	-0.16895427

RNN.weight_hh_l1 f4 [200, 50]
0	0xbd90c8d2	-0.070695534
1	0x3d861e58	0.06548756
2	0xbd9813b5	-0.07425634
3	0xbcdc97b2	-0.026927803
4	0xbd0d8c22	-0.03455747
5	0xbdcbb426	-0.0994647
6	0x3d4263de	0.047458522
7	0xbb83dff2	-0.004024499
8	0xbde7f12e	-0.11325298
9	0xbd94fd82	-0.07274915
10	0xbb1a2d7e	-0.002352565
11	0x3e0235bc	0.1271581
12	0x3dcbfdba	0.09960504
13	0xbdadc3fd	-0.084846474
14	0xbd1b02c5	-0.037844438
15	0x3e109d73	0.14122562
16	0xbdceefd2	-0.10104336
17	0xbd5dd20b	-0.05415539
18	0xbe0f35f5	-0.13985427
19	0x3cac252d	0.02101382
20	0xbe1d02de	-0.15333125
21	0xbdbfe00f	-0.09368908
22	0xbdd367e2	-0.103225484
23	0xbda06e7d	-0.07833574
24	0x3d57deaf	0.052702602
25	0xbb641e8c	-0.0034808246
26	0xbd1de002	-0.03854371
27	0x3d4d2e52	0.050093003
28	0x3d6d2163	0.05789317
29	0xbc7b6710	-0.015344396
30	0x3d9e2dbb	0.07723566
31	0xbc81f49c	-0.01586371
32	0x3e3cc149	0.18433107
33	0x3de370a0	0.11105466
34	0xbdb211e4	-0.086948186
35	0x3d7ca6f6	0.061682664
36	0xbc2898a3	-0.010290298
37	0x3c03e7c3	0.008050862
38	0x3d239f34	0.03994675
39	0xbe3e31bb	-0.18573658
40	0x3de28d21	0.110620745
41	0x3cee5bec	0.029096566
42	0x3dd72643	0.10505345
43	0x3cb6c830	0.022312254
44	0xbb94c390	-0.0045399144
45	0x3cbfccaf	0.02341303
46	0xbc64be54	-0.013961393
47	0xbe098844	-0.13430887
48	0x3dc154e1	0.094400175
49	0x3ca33486	0.019922506
50	0xbda65373	-0.081213854
51	0xbdd1f8b9	-0.10252518
52	0xbda82668	-0.082104504
53	0xbd1bc334	-0.038027957
54	0x3ddbfd04	0.10741618
55	0x3c6f526a	0.014607051
56	0x3df4919f	0.119418375
57	0x3e39c307	0.18140803
58	0xbe0c8f27	-0.13726483
59	0x3d95eeb7	0.07320922
60	0xbe44632b	-0.19178455
61	0xbd16cdcf	-0.036817368
62	0x3d9fe2a0	0.07806897
63	0x3d145bdb	0.036220413
64	0x3db9ec34	0.09078255
65	0x3e464bc2	0.19364837
66	0x3cf35825	0.029705117
67	0xbdb207e5	-0.08692912
68	0xbde16c9f	-0.11007046
69	0xbc12aa20	-0.008951694
70	0xbac53370	-0.0015045237
71	0xbbf77848	-0.0075521804
72	0xbd1b9bfc	-0.037990555
73	0x3e01de37	0.12682424
74	0x3d83a760	0.064284086
75	0x3de0e582	0.10981275
76	0x3e3df944	0.18552119
77	0xbdbb15a8	-0.0913499
78	0x3df5f30b	0.120092474
79	0xbde91bc0	-0.11382246
80	0x3d06ffec	0.03295891
81	0xbd1fa8ab	-0.038979214
82	0x3de05b09	0.109548636
83	0x3e12c951	0.14334609
84	0xbe0f2dec	-0.13982362
85	0x3de1072e	0.109876975
86	0x3e2d91a7	0.16950093
87	0xbd50bacc	-0.050959393
88	0xbcb53535	-0.022120098
89	0xbdce7b7d	-0.10082147
90	0x3dc69313	0.09696021
91	0xbde7bce8	-0.11315328
92	0x3c06f9b4	0.008238245
93	0x3c9cd603	0.019145017
94	0x3e42dc06	0.19029245
95	0x3b6a4894	0.0035748826
96	0x3e2b2f5a	0.16717282
97	0xbdfae350	-0.12250388
98	0xbcb1a3a4	-0.021684475
99	0x3c23c90e	0.009996666
100	0x3ddfd1b1	0.10928667
101	0xbe100ec3	-0.14068131
102	0xbd49d891	-0.0492788
103	0xbd5ba346	-0.053622507
104	0xbe3ede93	-0.18639593
105	0xbcb3e211	-0.021958383
106	0xbc8d1254	-0.017220654
107	0xbdd7d930	-0.10539472
108	0x3e05fb56	0.13084158
109	0xbdc3895c	-0.095476836
110	0xbd3a9da4	-0.045560494
111	0x3bf85353	0.0075782924
112	0xbca557fc	-0.020183556
113	0xbc0ed261	-0.00871715
114	0xbd8cb17f	-0.06869792
115	0xbd8a2584	-0.06745437
116	0xbe20b292	-0.15693119
117	0xbe380d08	-0.17973721
118	0xbda39ffc	-0.07989499
119	0xbda2e91f	-0.079546206
120	0x3de46be4	0.11153391
121	0x3aa3e700	0.0012504756
122	0x3d545986	0.05184319
123	0xbcef36ea	-0.02920099
124	0xbd216241	-0.039400343
125	0xbd4ad6ee	-0.04952138
126	0x3c7937d0	0.015211061
127	0x3c860f04	0.016364582
128	0xbcd0a759	-0.025470423
129	0x3d9a54b8	0.0753569
130	0xbe3e3246	-0.18573865
131	0xbdfd8596	-0.12378995
132	0xbe377272	-0.17914751
133	0x3da2ff2a	0.07958825
134	0xbe22b29c	-0.15888447
135	0xbe02234a	-0.12708774
136	0x3dfd2316	0.12360208
137	0xbdedcf25	-0.11611775
138	0x3bde7167	0.006788421
139	0x3e1d7923	0.15378241
140	0x3e306581	0.1722622
141	0x3e31d4fd	0.17366405
142	0x3e1554f1	0.14583184
143	0xbcafcb5f	-0.02145928
144	0x3d52c51c	0.05145751
145	0x3e4a68c6	0.1976653
146	0xbe06b14f	-0.13153575
147	0xbd184dc1	-0.037183527
148	0x3e2a070b	0.16604249
149	0xbd691906	-0.05690863
150	0x3ddf6120	0.10907197
151	0x3d39048a	0.045170344
152	0x3d044f7a	0.032302357
153	0xbc4194dc	-0.011815276
154	0xbd5f7424	-0.05455412
155	0x3e3ec4e9	0.18629803
156	0xbd8b5099	-0.06802482
157	0x3cbc8c64	0.023016162
158	0xbd3abea7	-0.045591976
159	0x3d8bf5c1	0.06833983
160	0xbce2ab58	-0.027669594
161	0xbc9244f2	-0.017855141
162	0x3e0506e7	0.12990914
163	0x3d223242	0.03959871
164	0xbdc4c223	-0.09607341
165	0x3dc098ba	0.0940413
166	0x3dbee203	0.09320452
167	0x3cd7cea3	0.02634365
168	0x3d1b0d41	0.037854437
169	0xbd626e8b	-0.055281203
170	0xbd6b4f6e	-0.057448797
171	0x3d8b9bf8	0.06816858
172	0x3d0a15cc	0.033712193
173	0x3db09831	0.08622778
174	0xbd351154	-0.04420598
175	0xbadbb250	-0.0016761515
176	0x3d48c034	0.049011424
177	0xbda5be50	-0.0809294
178	0xbd0936f6	-0.03349968
179	0xbb736cb8	-0.003714366
180	0xbdc61566	-0.0967205
181	0x3dd0b2ae	0.101903304
182	0xbe18ed13	-0.14934187
183	0x3c9d2fd6	0.019187849
184	0xbdcd5718	-0.100263774
185	0x3d865d2e	0.06560741
186	0xbda8777f	-0.08225917
187	0xbd452775	-0.048133332
188	0x3d92cfed	0.07168565
189	0xbdd88576	-0.10572331
190	0xbbac78d8	-0.005263429
191	0x3e1b0484	0.15138441
192	0x3e2717eb	0.16317718
193	0xbd920455	-0.071297325
194	0xbd341627	-0.04396644
195	0xbd1d283a	-0.03836844
196	0xbd36074a	-0.044440545
197	0xbbc92970	-0.006138973
198	0x3e0d354b	0.13789861
199	0x3ddec548	0.10877472
200	0x3e0a8b3c	0.13529676
201	0xbd537cba	-0.05163262
202	0xbd927851	-0.07151855
203	0x3de97870	0.11399925
204	0xbd42d150	-0.047562897
205	0xbc35af44	-0.01108915
206	0x3d86e647	0.06586891
207	0x3dc8374b	0.09776171
208	0x3cd59b60	0.026075065
209	0xbe1e8ec7	-0.15484153
210	0x3df68b15	0.120382465
211	0x3d418990	0.04725033
212	0xbd9ac40d	-0.07556925
213	0xbd94f2cc	-0.07272872
214	0xbe324725	-0.17409952
215	0x3c23c1d6	0.009994945
216	0xbda45d74	-0.08025637
217	0xbe33f1a4	-0.17572647
218	0x3d9f773c	0.07786414
219	0xbd1e0988	-0.03858331
220	0x3b8d3db4	0.004310334
221	0xbdb803e6	-0.089851186
222	0xbdad7cb6	-0.08471052
223	0xbe057290	-0.13031983
224	0x3b84b6ed	0.0040501268
225	0xbdd955f3	-0.10612097
226	0xbb723538	-0.003695799
227	0xbdd8f71a	-0.10594006
228	0xbd012cea	-0.031536974
229	0x3dc17ae0	0.09447265
230	0xbe01cc36	-0.12675557
231	0xbce2b446	-0.027673852
232	0xbd88d6ec	-0.06681618
233	0xbc0bc8a4	-0.008531723
234	0xbe0feb60	-0.14054632
235	0x3c6982a0	0.014252335
236	0xbd2975a1	-0.041371945
237	0xbc796cf0	-0.015223727
238	0xbda3cf96	-0.07998578
239	0xbd4f1948	-0.05056122
240	0x3902c2f0	0.00012470386
241	0x3e00f3d2	0.1259301
242	0x3e2bb8d9	0.16769733
243	0xbcded294	-0.02720002
244	0x3d189a17	0.037256327
245	0xbd8dd9af	-0.069262855
246	0xbd9a7c49	-0.07543237
247	0xbe26fbb2	-0.16306952
248	0x3b04c7d2	0.0020260704
249	0xbc7078b4	-0.014677215
250	0x3df6417e	0.120242104
251	0xbc094a6d	-0.008379561
252	0x3e09b182	0.1344662
253	0xbb83bdc1	-0.004020423
254	0x3dac6246	0.08417182
255	0xbd96f6c5	-0.07371286

RNN.bias_ih_l1 f4 [200]
0	0x3da31eb0	0.079648376
1	0xbbf5f268	-0.0075057037
2	0xbe441fdf	-0.19152783
3	0x3d41d85e	0.047325484
4	0x3dc6683f	0.09687852
5	0xbc29622e	-0.010338349
6	0x3cc357c3	0.023845559
7	0xbdca0812	-0.098648205
8	0xbe1b1b19	-0.15147056
9	0x3d75e655	0.060034115
10	0xbd8a78ee	-0.06761347
11	0xbdd1beee	-0.10241495
12	0x3e3b345a	0.1828169
13	0xbd9af951	-0.075670846
14	0xbc969342	-0.018380765
15	0xbcffedc9	-0.031241314
16	0xbe3f41d7	-0.1867746
17	0x3d27d873	0.040977906
18	0xbd62ca30	-0.055368602
19	0x3cc77491	0.024347575
20	0x3d073061	0.033005122
21	0xbc94cb73	-0.018163418
22	0xbe1985b1	-0.14992405
23	0x3d210a97	0.03931674
24	0x3e1bd929	0.15219559
25	0x3ce9bd7c	0.028532736
26	0x3ddf5cfc	0.10906407
27	0x3e0a2ed5	0.13494428
28	0xbcd97959	-0.02654712
29	0x3e03c6c0	0.12868786
30	0x3d96d54d	0.07364903
31	0x3e0f3a5b	0.13987105
32	0xbe4d8201	-0.20069124
33	0xb9f99228	-0.00047601876
34	0x3e20f3b8	0.15717971
35	0x3e0a5407	0.13508616
36	0x3d496e30	0.04917735
37	0xbdf0f4e0	-0.11765456
38	0x3dc93c44	0.09825948
39	0xbdb5af9c	-0.088713855
40	0x3e58c842	0.21170142
41	0xbc970beb	-0.0184383
42	0x38a0ad00	7.661618e-05
43	0xbd7e2a8d	-0.0620523
44	0xbd46beb5	-0.048521716
45	0x3e2164f2	0.15761164
46	0x3e00bc6e	0.1257188
47	0x3e001ada	0.12510243
48	0x3d7830d0	0.060593426
49	0xbd9194ff	-0.07108497
50	0x3c272f6e	0.010204179
51	0xbe07099f	-0.13187264
52	0xbd9f4fd1	-0.07778896
53	0x3c620e91	0.013797418
54	0xbdcf8b1b	-0.10133954
55	0xbda074dd	-0.0783479
56	0x3cfb4aa6	0.030675244
57	0xbe4177ba	-0.18893328
58	0xbd8f4883	-0.069962524
59	0xbded9908	-0.11601454
60	0xbc6c663b	-0.0144286705
61	0xbd258d61	-0.040418033
62	0x3e22e7f4	0.15908796
63	0x3bdea4a4	0.006794529
64	0xbe41eb29	-0.18937363
65	0xbe376de3	-0.17913012
66	0x3dad37a4	0.08457878
67	0xbcd06de9	-0.025443034
68	0xbdb75723	-0.08952167
69	0xbcd1b7a8	-0.02560027
70	0xbdc93ca0	-0.098260164
71	0xb958fa40	-0.0002069259
72	0x3bfb410e	0.007667667
73	0x3cf560e6	0.029953431
74	0x3e21c750	0.15798688
75	0x3e0000ee	0.12500355
76	0xbbbbc7c2	-0.0057306
77	0x3dd3fbe9	0.103507824
78	0xbdb091a3	-0.08621528
79	0x3d383a4e	0.04497748
80	0xbd571f96	-0.052520357
81	0x3e32375b	0.17403929
82	0x3d836730	0.06416166
83	0x3d795773	0.060874414
84	0xbd3c8bf8	-0.046031922
85	0xbd48e096	-0.049042307
86	0xbdbd9cdc	-0.09258434
87	0x3d070cb7	0.03297111
88	0xbd36808a	-0.04455618
89	0xbe301235	-0.17194445
90	0xbde720c8	-0.112855494
91	0xbe4e26e7	-0.20132028
92	0xbd714f9d	-0.058913816
93	0x3dd08bc7	0.101829104
94	0xbdaa9f9c	-0.08331224
95	0x3ca04d7a	0.019568194
96	0xbdbae0a0	-0.09124875
97	0x3e296eb9	0.16546144
98	0xbda4659c	-0.08027193
99	0xbc8cd390	-0.017190725
100	0xbd6cd4b2	-0.05782003
101	0x3d20a749	0.039222036
102	0xbd0a6420	-0.033786893
103	0xbd28dfe9	-0.041229162
104	0x3e035579	0.12825574
105	0x3d3b7bd9	0.045772407
106	0xbc28c068	-0.0102997795
107	0x3dc4a2eb	0.09601387
108	0x3e3dca07	0.18534099
109	0x3d9c1dfb	0.07622906
110	0x3df4768b	0.11936673
111	0x3d01a81a	0.031654455
112	0xbddda387	-0.10822206
113	0xbda006f3	-0.078138255
114	0xbcb27cbf	-0.021788
115	0xbe26fc76	-0.16307244
116	0xbdb5c928	-0.08876258
117	0x3e2abf92	0.16674641
118	0x3d682752	0.056678124
119	0x3d88c7df	0.066787474
120	0xbda4e16b	-0.080508076
121	0xbe068cd9	-0.13139667
122	0xbcbd2339	-0.023088085
123	0xbdff4c4d	-0.12465725
124	0xbe2aa446	-0.16664228
125	0x3d7cfda9	0.061765347
126	0x3b4bc537	0.003109289
127	0x3e5d7690	0.21627259
128	0x3c995ce5	0.018721053
129	0xbc6bb4c7	-0.014386362
130	0x3d624006	0.05523684
131	0x3d85a6e4	0.065259725
132	0xba26e8f0	-0.0006367108
133	0xbde4efcf	-0.11178552
134	0xbd1e569a	-0.03865681
135	0x3dc1011f	0.09424042
136	0xbd90a10a	-0.07061966
137	0xbd55047e	-0.052006237
138	0x3e0adff2	0.13561991
139	0x3cd56986	0.026051294
140	0xbe260db7	-0.1621617
141	0xbda086e5	-0.07838229
142	0x3d8fae60	0.07015681
143	0xbd91c86d	-0.07118306
144	0xbdad8ea5	-0.08474473
145	0xbd850baf	-0.06496369
146	0x3db41b91	0.087943204
147	0x3e37b5bd	0.17940421
148	0xbd55a024	-0.052154675
149	0x3dc247cb	0.0948635
150	0x3b8068b8	0.0039187334
151	0x3e4785f2	0.1948469
152	0xbdf80bbe	-0.12111615
153	0xbd4726ad	-0.04862087
154	0xbd88f90b	-0.06688126
155	0x3d6dc874	0.058052495
156	0xbdcb658b	-0.09931477
157	0xbc4ca5e7	-0.012490726
158	0x3d113940	0.03545499
159	0xbd88f89c	-0.066880435
160	0xbcf2d459	-0.02964227
161	0xbda87ed1	-0.08227313
162	0x3d473bd6	0.04864105
163	0xbe0f0545	-0.13966854
164	0xbe59be7e	-0.21264073
165	0xbda5f1fc	-0.081027955
166	0xbdb65c6e	-0.08904348
167	0x3d953f66	0.07287483
168	0xbe328f26	-0.1743742
169	0x3e237e38	0.15966117
170	0x3d397935	0.045281608
171	0xbe0d372d	-0.13790579
172	0xbd95ae6d	-0.0730866
173	0xbe058e81	-0.13042642
174	0x3e201edd	0.15636773
175	0x3c9f38b4	0.019436218
176	0x3debfe1b	0.11523076
177	0xbd61b5f4	-0.055105165
178	0xbdbcb164	-0.09213522
179	0x3d8f645f	0.07001566
180	0x3dea8aee	0.1145228
181	0x3d389bf2	0.045070596
182	0x3d17faa1	0.037104253
183	0x3b14f39d	0.0022728213
184	0xbd3574bf	-0.04430079
185	0x3e137feb	0.14404266
186	0xbdecc3fb	-0.11560818
187	0xbd92807b	-0.07153412
188	0x3d9161c5	0.07098726
189	0xbd0d2ccb	-0.034466546
190	0x3e20e312	0.1571162
191	0xbe583e39	-0.21117486
192	0xbe3b3eb0	-0.18285632
193	0x3dc54b90	0.09633553
194	0x3dc334f6	0.09531586
195	0x3d71a3e7	0.0589942
196	0x3df37562	0.11887623
197	0x3c9f4d88	0.01944615
198	0x3e214245	0.15747936
199	0xbe0b683e	-0.13613984

RNN.bias_hh_l1 f4 [200]
0	0xbe1c16fa	-0.1524314
1	0x3dca8223	0.09888103
2	0xbe142836	-0.14468464
3	0xbc747e98	-0.01492276
4	0x3df6c9b3	0.1205019
5	0x3d8d71bc	0.06906459
6	0xbe439632	-0.19100264
7	0xbdbf38ea	-0.09337027
8	0x3d95f355	0.073218025
9	0xbc4a288e	-0.012338771
10	0x3c038f0a	0.008029709
11	0xbc2407f1	-0.010011659
12	0x3e35c018	0.17749059
13	0xbd32dab6	-0.04366561
14	0xbe092e1f	-0.133965
15	0x3dc1b3ff	0.0945816
16	0xbdd19ba6	-0.10234766
17	0x3e13c334	0.14429933
18	0xbe190747	-0.14944182
19	0x3d1660fc	0.036713585
20	0xbdd290e2	-0.102815405
21	0x3d9ab630	0.07554281
22	0xbdeed110	-0.11660969
23	0xbe00647b	-0.1253833
24	0xbdac9fb4	-0.084288985
25	0xbd41be5a	-0.047300674
26	0x3d198411	0.037479464
27	0x3d9f503f	0.077789776
28	0x3da00384	0.078131706
29	0x3dec2a40	0.11531496
30	0xbb81302c	-0.00394251
31	0x3c46b74f	0.012128665
32	0xbcd228f8	-0.025654301
33	0x3e3f0d3d	0.18657394
34	0xbd1cc02f	-0.038269218
35	0x3d456e29	0.04820076
36	0xbe379182	-0.179266
37	0xbdf3b7d3	-0.11900296
38	0x3d4443c0	0.047916174
39	0xbd658aba	-0.056040503
40	0xbc8794c8	-0.016550437
41	0xbe4408b6	-0.19143948
42	0xbb6d1320	-0.003617473
43	0x3da0124e	0.07815991
44	0xbdc9ee29	-0.098598786
45	0xbd62134e	-0.05519419
46	0xbdf0862c	-0.11744341
47	0x3e1a7c5e	0.15086505
48	0x3c7de214	0.015495796
49	0x3d82b43f	0.063820355
50	0x3e1bad78	0.15202892
51	0xbdbc632d	-0.09198604
52	0xbe364d2a	-0.17802873
53	0xbe255afd	-0.1614799
54	0x3d60abb0	0.054851234
55	0xbe3aea03	-0.18253331
56	0xbdaf1b72	-0.08550157
57	0x3d0bc974	0.034127668
58	0xbe234f06	-0.15948114
59	0xbdd7a042	-0.105286136
60	0xbda35b4d	-0.079763986
61	0xbe196568	-0.1498009
62	0x3e3cfdc4	0.18456179
63	0x3d86a8e0	0.06575179
64	0x3d1b63e8	0.037937075
65	0x3d368b1c	0.04456626
66	0x3d1c7ca7	0.038204815
67	0x3c9e7903	0.019344812
68	0xbc806cd8	-0.0156769
69	0x3b2b45f8	0.0026134234
70	0xbb664884	-0.0035138438
71	0x3e00577a	0.1253337
72	0x3e03fe10	0.12889886
73	0xbd50f375	-0.05101343
74	0x3e32c0f8	0.17456424
75	0x3a0afba8	0.0005301782
76	0x3db9d811	0.090744145
77	0x3db04939	0.08607716
78	0x3c889fed	0.016677821
79	0xbbc3e751	-0.005978503
80	0xbd99d3cc	-0.075111
81	0x3c8bae58	0.017050907
82	0xbe0774dd	-0.13228174
83	0x3e0d5e5e	0.1380553
84	0x3ce233ca	0.027612586
85	0x3dc45b1e	0.09587692
86	0xbe07c885	-0.13260086
87	0x3ca9bcb6	0.020719867
88	0xbd99b11f	-0.07504486
89	0xbc2104a7	-0.009827769
90	0x3aadee3d	0.0013269853
91	0x3d3eb6c4	0.046561018
92	0x3cfaf30e	0.030633476
93	0xbe053f2c	-0.1301238
94	0xbdb67cfa	-0.08910556
95	0x3dbf3c3e	0.09337662
96	0x3d2a329c	0.04155217
97	0xbd813bd8	-0.063102424
98	0xbd5cc390	-0.05389744
99	0xbcdbed48	-0.026846543
100	0xbd5efbf8	-0.054439515
101	0x3e3d730d	0.1850092
102	0x3c4af61d	0.01238778
103	0x3e22b99d	0.15891118
104	0x3e073412	0.13203457
105	0x3cf312ae	0.029671993
106	0xbc1a3438	-0.009411864
107	0x3dce9bb3	0.10088291
108	0xbd396e5f	-0.045271274
109	0xbdf7d399	-0.12100906
110	0xbde1f727	-0.11033469
111	0x3e2e03c6	0.16993627
112	0xbd59b70c	-0.053153083
113	0xbca271a9	-0.019829588
114	0x3d75fb30	0.060054004
115	0x3d5a1f38	0.05325243
116	0xbbaca910	-0.0052691773
117	0x3e4da4ac	0.20082349
118	0xbd26f53e	-0.040761225
119	0xbdb2104b	-0.08694514
120	0x3e1bd257	0.15216957
121	0xbbace6e4	-0.0052765477
122	0xbdb1efb7	-0.086883
123	0x3d1e44ae	0.038639717
124	0xbe3da5b8	-0.18520248
125	0x3e1a907a	0.15094176
126	0xbe2d0c39	-0.16899194
127	0xbc22d927	-0.0099394685
128	0xbd1be3a6	-0.0380589
129	0x3e453861	0.19259788
130	0x3e08a2fc	0.13343424
131	0x3d9b68fe	0.07588385
132	0x3d1c33d1	0.038135353
133	0xbe155bb7	-0.14585768
134	0x3e56f94f	0.20993541
135	0x3e247d8d	0.16063519
136	0xbc63eea0	-0.013911873
137	0x3d9c694e	0.07637273
138	0x3d10e170	0.035371244
139	0xbb833b6e	-0.0040048873
140	0xbe411e27	-0.18859158
141	0x3deab3cf	0.11460077
142	0xbd8d32e2	-0.06894471
143	0xbd952ef5	-0.07284347
144	0x3da2820b	0.0793496
145	0xbe0a654f	-0.13515209
146	0x3b6e65f4	0.0036376687
147	0x3dcda8fc	0.10041997
148	0xbe1ae35a	-0.1512579
149	0x3d27c7ce	0.040962033
150	0x3cbfe326	0.023423743
151	0x3e09be8f	0.13451599
152	0xbe4dd430	-0.20100474
153	0xbe3be466	-0.18348846
154	0x3df01a1f	0.11723732
155	0xbc1610ac	-0.009159248
156	0xbded2e0b	-0.115810476
157	0xbde88982	-0.113543525
158	0x3dd64f01	0.104642875
159	0x3dc133a4	0.09433678
160	0xbd9f20d8	-0.07769936
161	0x3de15367	0.11002236
162	0x3e15c079	0.14624204
163	0x3b818552	0.0039526606
164	0xbdaab3cf	-0.08335077
165	0xbdbb8446	-0.091560885
166	0x3d80cf70	0.062895656
167	0x3e1e8fb0	0.154845
168	0xbb377e68	-0.0027998928
169	0x3e1f7b8c	0.15574473
170	0xbde1edb6	-0.11031668
171	0x3b3c1040	0.002869621
172	0x3da60ad5	0.08107535
173	0x3dd175dd	0.10227559
174	0x3dc7b8eb	0.09752067
175	0x3d76b960	0.06023538
176	0x3ce5e5d8	0.0280637
177	0x3d589588	0.05287698
178	0x3d07d4c0	0.03316188
179	0x3e151632	0.14559248
180	0x3d4bdaab	0.049769085
181	0xbd66be02	-0.05633355
182	0xbd6bbb43	-0.057551634
183	0x3d1eb170	0.038743436
184	0x3e4e1f6c	0.20129174
185	0xbd921a45	-0.07133917
186	0x3c8ebaa8	0.017422989
187	0x3d22f7c8	0.039787084
188	0x3d970d7d	0.073756196
189	0xbd057613	-0.032583307
190	0x3d82208f	0.06353866
191	0xbe4b18fb	-0.19833748
192	0xbcc6237e	-0.024186846
193	0xbe08ace9	-0.1334721
194	0xbe14c07d	-0.14526553
195	0xbd6b4d1b	-0.05744658
196	0x3d6b8d50	0.057507813
197	0x3e321574	0.17390996
198	0x3d664171	0.056214754
199	0xbdda071a	-0.10645886
