saved_models/model_Coffee_5_02_2_50.pt (torch, 129323 bytes, 12 tensors)

Controller.fc.weight f4 [1, 51]
0.08438034 0.044364195 0.033558674 0.10426511 -0.07551585 0.08200723 -0.009742894 0.063087605
0.105687015 -0.12702207 0.1444155 0.011086051 0.18106484 0.08403814 0.05062224 -0.026588619
0.030053008 -0.05802476 -0.079907976 0.004156648 -0.08960468 0.021150611 -0.0944026 0.111099064
-0.028262915 -0.12024042 0.03055171 -0.1515137 -0.010944298 -0.20562218 0.13513038 -0.18059273
0.1180266 0.09361205 -0.11683734 0.0038259625 0.04450318 0.03623031 -0.043150216 -0.0006008232
0.097299434 -0.042890556 0.046814047 0.15882304 0.06141495 0.016677087 0.11059217 -0.05664102
0.14204785 -0.107150875 -0.22595869
00000000: 9acf ac3d 3bb7 353d d274 093d f288 d53d
00000010: 0ea8 9abd 68f3 a73d a9a0 1fbc 1334 813d
00000020: 6f72 d83d 1312 02be a8e1 133e 45a2 353c
00000030: 1069 393e 301c ac3d 4459 4f3d 60d0 d9bc
00000040: ba31 f63c 5fab 6dbd cba6 a3bd 7e34 883b
00000050: a982 b7bd 0c44 ad3c 2656 c1bd e887 e33d
00000060: a187 e7bc 9c40 f6bd 9447 fa3c 6826 1bbe
00000070: b64f 33bc 9f8e 52be 9e5f 0a3e 4ded 38be
00000080: eeb7 f13d adb7 bf3d 6a48 efbd 00bd 7a3b
00000090: f748 363d 3c66 143d 48be 30bd 9080 1dba
000000a0: ed44 c73d 02ae 2fbd 16c0 3f3d 82a2 223e
000000b0: 3e8e 7b3d 639e 883c 267e e23d 6a00 68bd
000000c0: fe74 113e eb71 dbbd b761 67be

BaselineNetwork.fc.weight f4 [1, 51]
-0.1505896 0.18181795 -0.0036914384 0.037159342 0.113854185 -0.054345153 0.056392148 -0.049472935
0.029170565 -0.07078645 0.018747136 -0.009368664 -0.021363372 -0.10486587 0.1819654 -0.01988287
-0.02033832 -0.018789731 0.10988683 0.0884249 0.14657971 -0.109120734 -0.08015369 -0.11817975
-0.15230866 0.13793927 -0.017348785 0.1963608 -0.03155445 -0.012764302 0.13172498 0.02324244
0.10465734 -0.094397865 0.15984106 -0.05320086 -0.0929243 0.09892768 0.10870917 -0.07079279
0.012482051 0.08216426 -0.1329128 -0.04792043 0.1542107 -0.101521455 -0.031783625 -0.075178504
-0.15211385 0.011153657 0.019354178
00000000: 2934 1abe 7c2e 3a3e 0fec 71bb 6534 183d
00000010: 622c e93d 0699 5ebd 74fb 663d 22a4 4abd
00000020: 1cf7 ee3c 7cf8 90bd 9893 993c 067f 19bc
00000030: 3d02 afbc ebc3 d6bd 2355 3a3e 67e1 a2bc
00000040: 8c9c a6bc ecec 99bc 590c e13d 1d18 b53d
00000050: fe18 163e b17a dfbd 9e27 a4bd 3a08 f2bd
00000060: cdf6 1bbe f43f 0d3e 0a1f 8ebc ce12 493e
00000070: 3d3f 01bd 5d21 51bc eae2 063e ee66 be3c
00000080: 9656 d63d ab53 c1bd 60ad 233e 25e9 59bd
00000090: 184f bebd 989a ca3d eaa2 de3d cffb 90bd
000000a0: 8481 4c3c bc45 a83d 4b1a 08be 3648 44bd
000000b0: 69e9 1d3e 7bea cfbd 8c2f 02bd 30f7 99bd
000000c0: bcc3 1bbe d4bd 363c a78c 9e3c

RNN.weight_ih_l0 f4 [200, 1]
0.046821885 -0.079054214 -0.048798136 -0.09808772 -0.11073358 -0.148647 0.14871842 0.04501227
0.015484421 -0.063431285 -0.077687025 -0.0831181 0.035531487 -0.1000641 -0.03862276 -0.10187106
0.08054109 -0.08862121 0.025650904 -0.021965474 -0.07723619 -0.008977901 0.013541522 -0.10152991
0.1276708 -0.0014421549 0.18566093 0.04188102 -0.10755881 0.06403265 -0.015531288 0.01862333
-0.09812811 -0.062301885 0.11724174 0.014962545 0.06636854 -0.06123916 0.12619431 -0.09677271
0.01850726 0.10783207 0.07947075 0.13052294 0.1767678 -0.11823729 0.053696968 -0.046394944
0.0621087 -0.031184167 0.12540476 -0.09728474 0.14339823 0.002136927 -0.025294064 -0.13502043
0.113206595 0.04426172 0.04241427 -0.06061721 0.086693674 -0.0930694 -0.06827995 0.13311827
0.05277188 -0.16953063 0.013844322 0.002710726 0.12149328 0.033620626 -0.05642835 0.020544324
-0.044918608 0.069665715 0.10302706 -0.11146614 0.04901976 0.032678265 0.028924802 -0.13190489
0.09958412 0.14393646 0.09806177 0.04898127 0.03793422 0.07288055 -0.04359948 0.026119042
0.14861533 0.10216923 -0.015419174 0.03838049 -0.017010463 0.0018624831 0.09234443 -0.009986289
-0.12302118 -0.14659879 0.12496698 0.1280659 -0.08281244 -0.08782244 -0.008475759 -0.13135827
-0.022586223 0.07589733 0.08807655 0.04899986 -0.20162195 -0.0033790674 0.04484627 0.12435705
0.032374416 -0.018510308 0.041729763 -0.04816793 -0.015171682 0.11971252 -0.13280118 -0.108957864
-0.07435985 0.023745444 0.039899323 0.122698344 -0.09952067 -0.11482182 -0.04943156 0.099198475
0.07180097 0.06934275 0.04894301 -0.014885014 -0.062721655 -0.032172788 -0.043469645 -0.05707501
0.044011764 -0.0035656223 -0.10498523 -0.06870787 -0.09650541 -0.018621586 -0.08155699 0.038868893
-0.123713285 0.08653137 -0.037377007 -0.079113066 0.013115242 0.0037686527 0.0017285722 -0.11648374
0.14963692 -0.11717752 0.085750274 0.0011254586 0.11177468 -0.08869076 0.07413264 0.0018257806
0.06878694 0.097418785 -0.0061046258 0.023976497 -0.010062613 -0.13163197 0.14803131 -0.17714015
0.12307277 0.17949714 0.15373883 0.04039234 -0.05477761 0.04167028 0.09017832 -0.114416204
0.032748874 -0.083261386 0.00030507566 -0.099732034 -0.03444784 0.027346082 -0.117354274 0.19398604
0.19534074 0.021221714 -0.0022278763 -0.0067543965 -0.11180747 -0.12949042 0.09488021 0.00054880325
-0.0808773 0.0063480884 0.0025187656 -0.055009313 0.024020288 -0.014983292 0.027299102 0.005772913
00000000: 4ec8 3f3d 2de7 a1bd 8ee0 47bd 37e2 c8bd
00000010: 4ac8 e2bd eb36 18be a449 183e c95e 383d
00000020: 5eb2 7d3c 43e8 81bd 601a 9fbd d339 aabd
00000030: 7789 113d 68ee ccbd e632 1ebd c6a1 d0bd
00000040: baf2 a43d 097f b5bd d821 d23c f0f0 b3bc
00000050: 022e 9ebd 0c18 13bc 43dd 5d3c eaee cfbd
00000060: 22bc 023e b006 bdba e61d 3e3e 6f8b 2b3d
00000070: cb47 dcbd 8d23 833d f276 7ebc f48f 983c
00000080: 64f7 c8bd 4330 7fbd 701c f03d 7625 753c
00000090: 3bec 873d ead5 7abd 1539 013e c530 c6bd
000000a0: 8a9c 973c 0fd7 dc3d 90c1 a23d cea7 053e
000000b0: 9e02 353e 6426 f2bd 5af1 5b3d a008 3ebd
000000c0: b165 7e3d f075 ffbc 1b6a 003e 393d c7bd
000000d0: fcd6 123e b00b 0c3b 7f35 cfbc cc42 0abe
000000e0: dcd8 e73d c74b 353d 96ba 2d3d c049 78bd
000000f0: 748c b13d 2b9b bebd 5cd6 8bbd 2850 083e
00000100: 5427 583d 7099 2dbe 4cd3 623c 70a6 313b
00000110: 78d1 f83d c8b5 093d 6a21 67bd 924c a83c
00000120: 93fc 37bd e6ac 8e3d daff d23d 5c48 e4bd
00000130: f2c8 483d a5d9 053d b5f3 ec3c 1312 07be
00000140: c2f2 cb3d 1464 133e 9cd4 c83d 96a0 483d
00000150: ea60 1b3d 6642 953d 5e95 32bd 9af7 d53c
00000160: 9e2e 183e 1a3e d13d b4a0 7cbc dc34 1d3d
00000170: 8759 8bbc 901e f43a 141f bd3d 889d 23bc
00000180: 87f2 fbbd fe1d 16be b0ee ff3d b523 033e
00000190: 9299 a9bd 40dc b3bd e9dd 0abc c882 06be
000001a0: be06 b9bc 0f70 9b3d 7a61 b43d 14b4 483d
000001b0: fc75 4ebe 5873 5dbb b9b0 373d e9ae fe3d
000001c0: 099b 043d eea2 97bc d4ec 2a3d bc4b 45bd
000001d0: a692 78bc d62b f53d 08fd 07be 4d25 dfbd
000001e0: fa49 98bd ce85 c23c 796d 233d 4549 fb3d
000001f0: 7ed1 cbbd b427 ebbd bf78 4abd 9228 cb3d
00000200: 630c 933d 9203 8e3d 7778 483d 46e0 73bc
00000210: 3674 80bd 9dc7 03bd 3a0d 32bd 7cc7 69bd
00000220: ae45 343d 37ad 69bb 7f02 d7bd b6b6 8cbd
00000230: a1a4 c5bd 4c8c 98bc 5a07 a7bd fd34 1f3d
00000240: 645d fdbd 5c37 b13d a218 19bd 0806 a2bd
00000250: 50e1 563c 80fb 763b 4291 e23a 078f eebd
00000260: 6c3a 193e c5fa efbd d79d af3d 2084 933a
00000270: 20ea e43d 80a3 b5bd dbd2 973d 084f ef3a
00000280: 2be0 8c3d 8083 c73d 5009 c8bb 5c6a c43c
00000290: a8dd 24bc 88ca 06be 8595 173e 3a64 35be
000002a0: 940d fc3d 19ce 373e b66d 1d3e 7072 253d
000002b0: 7d5e 60bd 75ae 2a3d 69af b83d 0b53 eabd
000002c0: af23 063d f284 aabd 90f2 9f39 4f40 ccbd
000002d0: 2e19 0dbd e404 e03c 7057 f0bd 47a4 463e
000002e0: 6707 483e 29d9 ad3c 9001 12bb fc53 ddbb
000002f0: 51fb e4bd 2399 04be 8e50 c23d 90dd 0f3a
00000300: ffa2 a5bd a003 d03b e011 253b 7251 61bd
00000310: 32c6 c43c 7b7c 75bc 5ea2 df3c b42a bd3b

RNN.weight_hh_l0 f4 [200, 50]
-0.08391265 0.136913 -0.082845494 0.042444084 0.002426263 -0.01760517 0.13897379 0.078803726
-0.092206255 0.054358847 0.16900395 -0.0052321944 0.11155637 0.13189213 0.0005231239 0.06105169
-0.119993486 -0.06326465 0.13692498 0.10305611 -0.030353244 -0.10016985 -0.07511269 -0.17016467
-0.10863978 -0.03754535 0.07922495 0.030480638 -0.089304596 -0.18554074 0.08779876 -0.14044347
-0.03283774 0.04931965 -0.087259084 0.016211256 -0.0056350995 -0.07732709 -0.10377431 -0.12837192
-0.08579316 -0.09997837 0.13064387 -0.05118422 -0.068348005 0.040070496 0.054909997 0.0827363
0.12761265 0.053925246 -0.13775714 0.029297007 0.103620954 -0.030637156 -0.102641106 0.14292207
-0.0334343 -0.06142781 -0.1493716 0.040595893 0.1430699 0.027356483 0.051341377 -0.12578155
-0.09935323 -0.060975038 0.13656808 0.08563536 -0.10130302 -0.028918898 -0.031261325 -0.095807
-0.013217054 0.08614006 0.09510408 -0.15250346 0.089583606 -0.08235356 0.08827907 0.082219064
0.0129472595 0.03935579 -0.19989944 -0.043456033 0.09201543 0.027637977 -0.005443738 0.002929858
0.017598048 0.05306439 0.044912066 -0.06721952 -0.13070759 0.035387333 0.006992004 -0.05073499
-0.01655058 0.075803414 0.034163833 0.03345674 0.027770098 -0.057108216 -0.19235045 -0.13617596
-0.14252897 0.0005925307 0.02972931 0.015091839 0.18639316 -0.011199495 0.050691433 -0.0016734265
0.016570508 -0.020572102 -0.0122811515 -0.17015095 -0.06792265 -0.101680614 -0.051265273 0.14333381
0.057692546 0.083436504 0.03438873 -0.16472028 -0.12419962 -0.036624536 0.0023728749 0.05114551
0.026716102 0.1422035 -0.047641363 0.14004463 -0.044562362 -0.059120685 -0.08898614 -0.04090949
0.031975955 0.04965494 0.003197989 0.041997302 0.19706286 -0.12974271 -0.171261 0.18343617
0.16935799 -0.039807886 0.06626676 -0.20857489 -0.039030075 -0.03133321 0.042023733 0.03737159
-0.009515609 0.16362886 0.091890275 -0.15708348 -0.0152149955 0.030750744 0.06984673 -0.044530153
0.13126032 -0.1504961 -0.102900214 -0.07099704 0.13500631 0.2114225 0.1528529 0.050516374
0.11570505 -0.025968175 0.002094742 0.020243775 -0.12307871 -0.12780218 -0.024690012 0.038928054
0.091850005 -0.06188782 -0.118533716 -0.0590292 -0.088743724 -0.15608957 0.0043186992 0.0069055352
0.1575008 0.19936974 0.023422351 0.103654854 -0.016094072 0.02278037 -0.005644583 0.031593364
0.06685499 0.13863516 -0.06105751 -0.074776456 -0.025166279 -0.029693797 0.051557515 0.13960133
0.12816203 0.08607203 -0.113722235 -0.057649195 0.04681466 -0.09514405 0.026124934 -0.1157549
0.06910503 -0.04120645 -0.017692445 -0.19792947 0.14495014 -0.14691502 0.07228148 0.069028705
-0.027686123 0.026148848 0.011230058 0.10692098 0.1807539 -0.16082115 0.038020246 0.00651195
0.037838366 0.0070803356 0.025259707 -0.050535154 -0.10214001 0.05455436 0.113721974 -0.03875889
-0.19419964 -0.0020504445 -0.107965805 0.1755298 -0.10273845 0.0102084465 -0.03807214 0.017519914
0.14519387 0.0043957555 0.068635404 0.12942114 0.12059136 -0.034270957 -0.019189782 0.113557786
0.00485113 0.062328584 0.020806741 -0.08272007 0.066161714 0.038742777 0.03741748 0.14887895
00000000: 65da abbd ec32 0c3e e6aa a9bd d9d9 2d3d
00000010: f001 1f3b b838 90bc 254f 0e3e d963 a13d
00000020: a2d6 bcbd 62a7 5e3d 5f0f 2d3e d472 abbb
00000030: ab77 e43d bb0e 073e 4022 093a 5611 7a3d
00000040: 25bf f5bd e690 81bd 1036 0c3e 150f d33d
00000050: 5ea7 f8bc da25 cdbd afd4 99bd a63f 2ebe
00000060: 887e debd 27c9 19bd b140 a23d 88b2 f93c
00000070: 54e5 b6bd 64fe 3dbe d6cf b33d 6ad0 0fbe
00000080: de80 06bd 6703 4a3d e4b4 b2bd 78cd 843c
00000090: a4a6 b8bb aa5d 9ebd a087 d4bd ee73 03be
000000a0: 53b4 afbd 76c1 ccbd 82c7 053e 8ba6 51bd
000000b0: 0afa 8bbd f620 243d 4ee9 603d a671 a93d
000000c0: e4ac 023e b8e0 5c3d 3510 0dbe 4700 f03c
000000d0: 3937 d43d c6fa fabc 8035 d2bd 2a5a 123e
000000e0: 68f2 08bd ba9b 7bbd def4 18be e147 263d
000000f0: ea80 123e b41a e03c 564b 523d e1cc 00be
00000100: b579 cbbd f6c0 79bd 81d8 0b3e 9761 af3d
00000110: f577 cfbd 53e7 ecbc e00b 00bd 7636 c4bd
00000120: 588c 58bc 336a b03d eec5 c23d de29 1cbe
00000130: 9c77 b73d fca8 a8bd a8cb b43d 7862 a83d
00000140: be20 543c 8933 213d 70b2 4cbe f4fe 31bd
00000150: 9672 bc3d 0a69 e23c 6261 b2bb dc02 403b
00000160: c829 903c 0c5a 593d b7f5 373d 63aa 89bd
00000170: 36d8 05be 4ff2 103d 2e1d e53b 7ecf 4fbd
00000180: 1595 87bc d23e 9b3d 60ef 0b3d ef09 093d
00000190: 1e7e e33c 4eea 69bd 84f7 44be b671 0bbe
000001a0: 1df3 11be 1054 1b3a e28a f33c c343 773c
000001b0: d9dd 3e3e 167e 37bc d2a1 4f3d e056 dbba
000001c0: e0be 873c d386 a8bc e236 49bc 0d3c 2ebe
000001d0: 081b 8bbd ed3d d0bd 89fb 51bd 19c6 123e
000001e0: 054f 6c3d c2e0 aa3d 32db 0c3d 6fac 28be
000001f0: 5f5c febd 9c03 16bd 3c82 1b3b f47d 513d
00000200: badb da3c cb9d 113e 9723 43bd dc67 0f3e
00000210: 0687 36bd 8828 72bd 5e3e b6bd b690 27bd
00000220: 38f9 023d fa62 4b3d 5a95 513b 5d05 2c3d
00000230: d9ca 493e 46db 04be 0b5f 2fbe b1d6 3b3e
00000240: 2e6c 2d3e 980d 23bd deb6 873d a894 55be
00000250: 00de 1fbd 4157 00bd 1421 2c3d f412 193d
00000260: 5be7 1bbc 538e 273e f830 bc3d 7eda 20be
00000270: 5148 79bc fce8 fb3c cd0b 8f3d 4065 36bd
00000280: 1b69 063e a61b 1abe 59bd d2bd e566 91bd
00000290: 183f 0a3e 247f 583e 7885 1c3e 42ea 4e3d
000002a0: c5f6 ec3d 36bb d4bc f047 093b 46d6 a53c
000002b0: b110 fcbd 93de 02be b542 cabc 0673 1f3d
000002c0: db1b bc3d 157e 7dbd cec1 f2bd 9ac8 71bd
000002d0: 45bf b5bd f2d5 1fbe e083 8d3b d447 e23b
000002e0: e447 213e 9527 4c3e 3be0 bf3c ff48 d43d
000002f0: b7d7 83bc e69d ba3c 32f6 b8bb 0b68 013d
00000300: 45eb 883d 60f6 0d3e 7117 7abd 6624 99bd
00000310: 8329 cebc 6840 f3bc f92d 533d a7f3 0e3e
00000320: e83c 033e 8846 b03d 34e7 e8bd 9021 6cbd
00000330: bbc0 3f3d e2da c2bd f503 d63c e810 edbd
00000340: f086 8d3d 18c8 28bd bfef 90bc 06ae 4abe
00000350: cf6d 143e e470 16be 5008 943d ec5e 8d3d
00000360: 02ce e2bc 1c36 d63c 47fe 373c 63f9 da3d
00000370: 8d17 393e 4dae 24be 1ebb 1b3d 3262 d53b
00000380: 67fc 1a3d 2902 e83b 72ed ce3c f3fd 4ebd
00000390: c82e d1bd 6574 5f3d 11e7 e83d a4c1 1ebd
000003a0: 45dc 46be c060 06bb 2d1d ddbd 15be 333e
000003b0: 8968 d2bd 5441 273c 88f1 1bbd ec85 8f3c
000003c0: b4ad 143e 450a 903b b890 8c3d fa86 043e
000003d0: 9af8 f63d b45f 0cbd e433 9dbc fc90 e83d
000003e0: 3af6 9e3b 424c 7f3d e672 aa3c 2469 a9bd
000003f0: cb7f 873d bfb0 1e3d 1243 193d b973 183e

RNN.bias_ih_l0 f4 [200]
-0.0142957475 -0.029037412 -0.030768111 -0.14922507 -0.118858874 -0.013729343 -0.14369352 -0.1298962
-0.08132352 -0.03168704 0.06650044 0.015331857 -0.056350168 -0.019396912 0.0623917 -0.095100686
0.01963199 0.10237517 -0.094524704 0.016662689 0.0021738154 -0.13372779 0.06732996 0.029379098
0.08898474 -0.06378522 -0.1889397 0.08940733 -0.013033719 0.051267445 -0.064049125 0.018376771
-0.09019786 -0.0709634 0.028891683 -0.05426234 0.0980881 0.031311043 0.090731114 0.116948776
-0.093547046 -0.114603 0.06930807 -0.086957745 -0.15684254 0.06964834 -0.14854391 -0.091238566
-0.024319567 -0.04684002 -0.100125924 -0.044779554 0.018700726 -0.07802885 0.14014892 -0.015990976
-0.054276876 -0.15747726 -0.06894103 0.05229146 -0.047920838 -0.053210925 -0.024780447 0.07842305
-0.06227972 0.17444858 0.049056455 0.11698992 -0.13850862 -0.17707784 -0.13356027 -0.096798845
-0.15232733 0.038301036 0.005127864 0.084096305 -0.15235528 -0.12733163 -0.046276465 0.11889138
0.047306366 -0.0694056 0.14366637 -0.12179986 -0.104937255 -0.0904984 -0.073160246 -0.07557793
-0.121382274 -0.033597134 -0.058384456 -0.17060055 -0.11841026 -0.15299736 -0.108769044 -0.11023552
0.107686155 -0.050659366 0.056670096 -0.17511997 0.084029615 -0.12256837 -0.023307178 0.048786785
-0.16471568 0.07672809 0.027890852 -0.06544851 -0.02358619 0.07160711 -0.15232743 0.1539564
0.040583666 0.0449266 -0.05419211 0.019694462 -0.052432142 0.13673821 -0.09213841 0.03581747
-0.07639225 -0.020928137 0.110107526 0.087890536 0.07863293 -0.09841878 -0.010912561 -0.0754275
0.098451324 -0.04169616 -0.09807702 0.10722434 0.06721904 -0.04327143 0.053245533 0.057364978
0.10599858 -0.15669665 0.061413467 -0.010213914 -0.070347406 0.034695808 0.07150845 -0.058022637
0.042443383 -0.05628703 0.068545915 -0.005881279 -0.074941516 -0.010421763 -0.08984351 -0.0017750831
0.021663561 -0.07490212 -0.15203755 0.1248217 -0.108235255 0.030146372 -0.014890596 0.02285801
0.017063498 -0.04427899 -0.12294263 0.07146005 -0.11151815 0.051375534 0.027204912 -0.07358459
-0.16439997 -0.06785282 -0.054849885 -0.17315046 0.03368585 -0.14330286 -0.08245601 -0.14282636
-0.030496258 -0.012047975 0.03820782 0.04279854 -0.027901754 -0.089558415 0.146626 -0.07126709
-0.045162532 -0.13330577 -0.16218081 -0.08986347 -0.05162867 0.018558972 -0.12149883 -0.06725505
0.11089647 -0.05689549 -0.017245762 -0.018288616 0.06772771 0.037889138 -0.06477262 0.009273231
00000000: b638 6abc dedf edbc 680d fcbc 75ce 18be
00000010: 486c f3bd 0af1 60bc 6524 13be 8203 05be
00000020: f28c a6bd 45ca 01bd 6231 883d 7832 7b3c
00000030: 6fcf 66bd 46e6 9ebc 708e 7f3d 26c4 c2bd
00000040: 44d3 a03c 13aa d13d 2b96 c1bd 3180 883c
00000050: 9276 0e3b f0ef 08be 4ae4 893d 6fac f03c
00000060: a23d b63d d3a1 82bd 6979 41be 311b b73d
00000070: 618b 55bc d0fd 513d 302c 83bd e28a 963c
00000080: a8b9 b8bd 4255 91bd 40ae ec3c 3042 5ebd
00000090: 6ae2 c83d 0240 003d 3cd1 b93d d782 ef3d
000000a0: 9895 bfbd fab4 eabd 64f1 8d3d e716 b2bd
000000b0: 559b 20be caa3 8e3d e51b 18be 49db babd
000000c0: d439 c7bc 52db 3fbd d20e cdbd c46a 37bd
000000d0: 4432 993c 97cd 9fbd 3383 0f3e 82ff 82bc
000000e0: 6e51 5ebd b841 21be f430 8dbd 922f 563d
000000f0: a448 44bd b3f3 59bd 5d00 cbbc 449c a03d
00000100: 0519 7fbd a6a2 323e 6cef 483d 6998 ef3d
00000110: 34d5 0dbe e553 35be 06c4 08be 793e c6bd
00000120: b2fb 1bbe 8ce1 1c3d a407 a83b af3a ac3d
00000130: 0603 1cbe 3963 02be 648c 3dbd 537d f33d
00000140: 52c4 413d 8624 8ebd 471d 133e 3472 f9bd
00000150: 58e9 d6bd 3a57 b9bd 0ad5 95bd 9ac8 9abd
00000160: 4597 f8bd 269d 09bd 8a24 6fbd e9b1 2ebe
00000170: 1481 f2bd 57ab 1cbe 4ec2 debd 29c3 e1bd
00000180: 8f8a dc3d 3280 4fbd e71e 683d a652 33be
00000190: b817 ac3d 2005 fbbd b2ee bebc a7d4 473d
000001a0: 3aab 28be 9e23 9d3d 5b7b e43c de09 86bd
000001b0: d337 c1bc c0a6 923d b9fb 1bbe bfa6 1d3e
000001c0: 0f3b 263d f404 383d 8cf8 5dbd 4856 a13c
000001d0: 16c3 56bd 1a05 0c3e 10b3 bcbd 57b5 123d
000001e0: 8a73 9cbd 7c71 abbc 0e80 e13d f4ff b33d
000001f0: 4d0a a13d c98f c9bd 99ca 32bc bc79 9abd
00000200: d9a0 c93d 98c9 2abd 9bdc c8bd 6f98 db3d
00000210: 23aa 893d 623d 31bd fd17 5a3d 8af7 6a3d
00000220: c915 d93d 1675 20be b08c 7b3d 4358 27bc
00000230: 4d12 90bd 311d 0e3d 0673 923d 25a9 6dbd
00000240: 1dd9 2d3d 3b8d 66bd cd61 8c3d beb7 c0bb
00000250: f07a 99bd 0bc0 2abc e0ff b7bd e8a9 e8ba
00000260: c877 b13c 4866 99bd bbaf 1bbe 85a2 ff3d
00000270: 72aa ddbd 86f5 f63c b0f7 73bc b940 bb3c
00000280: c0c8 8b3c e35d 35bd 58c9 fbbd a659 923d
00000290: a163 e4bd 276f 523d d6dc de3c 84b3 96bd
000002a0: 7758 28be 6bf6 8abd 46aa 60bd 5b4e 31be
000002b0: 2dfa 093d fcbd 12be b2de a8bd 1341 12be
000002c0: 4ad3 f9bc df64 45bc ce7f 1c3d 864d 2f3d
000002d0: 3892 e4bc 676a b7bd 2025 163e 7bf4 91bd
000002e0: 59fc 38bd 4f81 08be ba12 26be 570a b8bd
000002f0: 9678 53bd fc08 983c 61d4 f8bd 04bd 89bd
00000300: b01d e33d 3f0b 69bd fc46 8dbc 02d2 95bc
00000310: d3b4 8a3d a431 1b3d 82a7 84bd c0ee 173c

RNN.bias_hh_l0 f4 [200]
-0.06662812 -0.04095596 -0.1318313 -0.12529446 0.09601091 -0.043881696 -0.1504911 -0.08652235
0.056007534 -0.08511968 0.08803597 0.09976285 0.05950834 -0.14186636 0.03459481 0.0813901
-0.1592961 0.041552022 -0.023962077 -0.06482735 0.07817937 0.051149726 0.07571508 0.019244058
0.06496144 0.03505662 -0.14426306 0.07058027 -0.031263158 0.041819066 -0.12125401 0.064632446
0.05310839 -0.043904368 -0.20429787 -0.028578017 -0.07283069 0.11282168 -0.10845804 -0.057691492
-0.12928139 -0.18419842 0.03477104 -0.11303013 0.014279886 -0.0055904463 -0.100022525 -0.04035496
-0.04632286 -0.13069208 -0.10525569 -0.088697754 -0.03795721 -0.11100406 0.1480795 0.09203125
0.12638551 0.09689288 -0.1113271 -0.12536232 0.13306394 0.040731996 -0.11787159 -0.08957267
0.07535337 -0.04460763 -0.03742005 -0.13065962 0.03576618 -0.037511103 0.096527345 -0.06447629
0.011559549 0.08830909 -0.025466701 -0.13494655 -0.12094993 0.07442526 -0.110141724 -0.042176947
-0.19150597 -0.12021252 0.049046095 -0.21165834 -0.15050395 0.09935339 -0.037108973 -0.06972702
0.06775165 -0.13261262 -0.12112499 -0.058819104 0.03119532 -0.15598412 0.047175318 -0.050165385
0.0021395274 0.087832555 0.07278807 -0.02981787 -0.059429962 -0.12159878 -0.03437959 -0.012745832
0.059551507 0.08583161 -0.103570014 0.04890719 -0.06978362 -0.14557435 -0.039902996 0.022316147
-0.07819342 0.028086275 0.11513086 -0.16526246 0.049767278 0.102016725 0.035790928 -0.04990418
-0.13978098 0.12373628 0.02575365 -0.049779825 -0.06499459 0.09609641 0.05160632 -0.08282959
-0.03309093 0.20198639 0.021988716 -0.010710627 0.09767074 0.03376527 -0.096342385 -0.21155816
-0.021014323 0.04197361 0.062291518 0.07424733 0.11599686 -0.08233243 0.032725915 -0.011783363
-0.04927647 -0.09545463 -0.09708848 -0.05279641 -0.12816755 -0.06530422 -0.043057255 0.0906427
-0.06830074 0.015646629 0.028682563 0.0085106725 -0.08628031 -0.15634856 -0.11011042 -0.06277616
-0.044434004 0.05926292 0.011970665 0.08672713 -0.040294163 0.010688404 0.016658437 0.063998185
0.019021433 -0.15864703 -0.10155227 0.038482867 0.04098164 -0.06529042 0.0055167116 -0.15112767
-0.057976924 -0.15554573 0.05915097 -0.15658106 -0.06145677 0.08485642 -0.026335942 -0.15912254
0.04874439 -0.08838923 0.0076161698 0.058249865 0.060473617 -0.12012052 0.06971056 -0.014209526
-0.10908834 -0.09589155 -0.08599428 0.027158042 0.028134841 -0.0057541206 0.034543484 0.07260841
00000000: 5374 88bd 70c1 27bd c9fe 06be 314d 00be
00000010: 5ea1 c43d 4bbd 33bd 571a 1abe a132 b1bd
00000020: 2868 653d 3a53 aebd 344c b43d 7750 cc3d
00000030: 04bf 733d 6a45 11be 4ab3 0d3d daaf a63d
00000040: 841e 23be 7432 2a3d 1e4c c4bc 34c4 84bd
00000050: 811c a03d 6082 513d 8210 9b3d b7a5 9d3c
00000060: 810a 853d 8897 0f3d b2b9 13be 638c 903d
00000070: cc0d 00bd 784a 2b3d 0654 f8bd 045e 843d
00000080: 2f88 593d 11d5 33bd 7633 51be 721c eabc
00000090: 4228 95bd 0e0f e73d 401f debd ea4d 6cbd
000000a0: 5762 04be 839e 3cbe 146c 0e3d 577c e7bd
000000b0: 2ff6 693c 1030 b7bb 9cd8 ccbd 3e4b 25bd
000000c0: 0abd 3dbd 25d4 05be 4c90 d7bd 2ba7 b5bd
000000d0: 0579 1bbd 1956 e3bd 27a2 173e e17a bc3d
000000e0: 346b 013e c66f c63d 76ff e3bd fb5e 00be
000000f0: ea41 083e 98d6 263d a966 f1bd e071 b7bd
00000100: de52 9a3d 7eb6 36bd c445 19bd a3cb 05be
00000110: 8f7f 123d 3ea5 19bd 21b0 c53d 250c 84bd
00000120: 4364 3d3c 65db b43d 8b9f d0bc 6e2f 0abe
00000130: 99b4 f7bd 456c 983d fc91 e1bd bcc1 2cbd
00000140: 241a 44be fb31 f6bd 8fe4 483d f7bc 58be
00000150: b51d 1abe ca79 cb3d 94ff 17bd 0acd 8ebd
00000160: 61c1 8a3d 9acb 07be 6110 f8bd 4dec 70bd
00000170: 548d ff3c 4dba 1fbe e83a 413d 387a 4dbd
00000180: 5037 0c3b 8ee1 b33d e911 953d 9b44 f4bc
00000190: d56c 73bd c808 f9bd 9dd1 0cbd e5d3 50bc
000001a0: 48ec 733d 7cc8 af3d 841c d4bd e852 483d
000001b0: b7ea 8ebd 7111 15be 5371 23bd 5ad0 b63c
000001c0: df23 a0bd 3015 e63c bac9 eb3d 903a 29be
000001d0: c6d8 4b3d 25ee d03d 8299 123d 5368 4cbd
000001e0: bf22 0fbe 7269 fd3d 52f9 d23c eee5 4bbd
000001f0: e21b 85bd 32ce c43d 2661 533d 8fa2 a9bd
00000200: 5b8a 07bd 85d5 4e3e ae21 b43c a07b 2fbc
00000210: 9907 c83d 744d 0a3d 284f c5bd b4a2 58be
00000220: 3b26 acbc 85ec 2b3d 6425 7f3d fc0e 983d
00000230: c38f ed3d e89d a8bd 9c0b 063d 020f 41bc
00000240: 20d6 49bd b87d c3bd 53d6 c6bd 0c41 58bd
00000250: 5b3e 03be 38be 85bd ce5c 30bd e1a2 b93d
00000260: 42e1 8bbd 5c2d 803c b2f7 ea3c 5970 0b3c
00000270: bbb3 b0bd d619 20be 9281 e1bd ca90 80bd
00000280: 6e00 36bd adbd 723d 9c20 443c fe9d b13d
00000290: 7e0b 25bd 6a1e 2f3c 4677 883c 7b11 833d
000002a0: d6d2 9b3c 5e74 22be a3fa cfbd 36a0 1d3d
000002b0: 5ddc 273d fcb6 85bd 88c5 b43b 36c1 1abe
000002c0: 3679 6dbd 6147 1fbe 4a48 723d c956 20be
000002d0: 18ba 7bbd 34c9 ad3d 79be d7bc 05f1 22be
000002e0: 33a8 473d 6a05 b5bd 1091 f93b 6997 6e3d
000002f0: 2fb3 773d bf01 f6bd 69c4 8e3d 12cf 68bc
00000300: b569 dfbd ca62 c4bd c51d b0bd 8b7a de3c
00000310: 0a7b e63c 108d bcbb 787d 0d3d b8b3 943d

RNN.weight_ih_l1 f4 [200, 50]
0.08504839 0.13546531 0.02724402 -0.056357354 -0.066207014 0.091028504 0.18087918 0.17316283
-0.024466569 -0.13080068 -0.08955463 -0.036875952 0.06659947 -0.0065257773 0.09850527 -0.02786353
-0.07897069 -0.14391229 -0.05465469 0.062949106 -0.13052207 0.07947424 0.17228246 0.055938065
0.020054154 -0.17288822 -0.06487882 -0.060503084 0.07816188 -0.02717096 0.19955383 -0.09338601
0.012703484 -0.14535096 -0.020926649 -0.053986166 0.06964881 -0.040058125 0.06859129 -0.10699064
0.06480993 -0.10165139 -0.18272617 0.015747897 0.17687805 0.21534237 0.021251041 -0.071537286
0.0936795 0.07420549 0.041594177 0.033704825 -0.031291716 0.011827898 -0.14865497 -0.22498205
0.007990061 -0.07471596 -0.08778924 -0.0001357618 0.17116116 0.05203159 -0.021416191 -0.034722522
0.15281627 0.043066982 0.09212481 -0.105496034 -0.12585914 -0.054254405 0.10545705 -0.052801725
-0.119483 0.15608609 -0.15331233 -0.01988535 0.039383795 -0.014331257 0.08139096 -0.034429897
-0.06437409 -0.16506217 -0.14568558 -0.14067765 0.08642322 0.20755349 -0.052329324 0.08406516
-0.03252105 0.01978584 -0.0596959 -0.087859005 0.11661375 0.10777938 0.1261078 0.12122309
0.016262745 0.0847019 0.07041857 0.024822474 -0.054283287 0.12716718 -0.08262638 -0.027048945
-0.16047867 0.1144597 -0.0366103 -0.003990113 0.015584096 -0.0018033166 -0.054805957 0.08174146
-0.086693466 -0.13193977 0.056809902 -0.11152051 -0.17235076 0.009024197 -0.09490412 0.06864332
-0.050825432 0.18453766 -0.022404205 -0.11357319 -0.0012878682 -0.06600703 0.067227736 0.05542456
0.020413779 0.0033816877 0.12692094 -0.005835431 0.12760979 0.038890824 -0.16138732 -0.18367215
-0.04773929 0.0118760485 -0.007955585 -0.028706165 0.0372837 -0.020695489 -0.11270592 0.026678065
0.14237928 0.11162804 0.036205463 -0.16072042 -0.008481026 -0.11041151 0.16978237 0.13592236
-0.09620688 -0.023794245 -0.13101318 0.01640947 0.06946178 0.07652526 0.07965556 0.063778944
-0.0744055 0.21114583 0.04732132 0.0581662 0.057681985 -0.05101602 -0.12573919 -0.07604621
-0.10798792 -0.0033564772 -0.03178687 0.19316144 0.1401 0.03716721 -0.21180764 0.027646404
0.017557617 0.015006654 0.12080504 -0.04231656 0.008679902 -0.046315603 -0.16042016 -0.08692915
-0.049299363 -0.0055046612 0.20710547 0.053486593 -0.1635579 -0.12298143 0.14974065 -0.2131183
-0.08796248 0.12699988 -0.03696017 0.20215194 -0.019149993 -0.17917463 -0.079361156 -0.085530974
0.10705611 0.09955079 -0.12769566 0.065415695 -0.09286343 0.07836117 0.106143154 0.012405644
0.16037685 -0.009625316 -0.07126885 0.08768868 0.19095941 -0.1643633 0.025241936 -0.12852138
0.036334515 0.037478305 0.16919193 0.09928645 0.007832386 0.042439766 -0.06568025 0.08764235
-0.11539541 -0.045520134 -0.05569705 0.10266442 -0.062947296 0.034301948 0.12380314 -0.12370035
-0.10520326 -0.13831535 -0.1781715 0.09223499 0.14395958 0.09275959 -0.13806427 -0.06033899
0.08094379 0.002400437 -0.030361144 -0.028302534 0.06611418 -0.055337813 0.09469979 0.03230875
0.008468494 -0.18295853 0.06699558 0.1371754 -0.15568687 -0.0015396867 0.035047013 -0.05172672
00000000: da2d ae3d 6bb7 0a3e da2e df3c f8d6 66bd
00000010: 8b97 87bd 276d ba3d 6438 393e 9951 313e
00000020: 1d6e c8bc 9df0 05be 6b68 b7bd 3d0b 17bd
00000030: 4e65 883d 30d6 d5bb 22bd c93d 0f42 e4bc
00000040: 63bb a1bd be5d 13be 99dd 5fbd 76eb 803d
00000050: 94a7 05be 64c3 a23d d06a 303e 501f 653d
00000060: 9c48 a43c 9c09 31be 30df 84bd 15d2 77bd
00000070: 5613 a03d a295 debc d757 4c3e 2a41 bfbd
00000080: 4622 503c e2d6 14be 5d6e abbc 9920 5dbd
00000090: 09a4 8e3d fd13 24bd 9779 8c3d e91d dbbd
000000a0: 12bb 843d 9b2e d0bd 921c 3bbe bc01 813c
000000b0: 851f 353e b682 5c3e aa16 ae3c 2482 92bd
000000c0: 0adb bf3d 0cf9 973d a85e 2a3d 120e 0a3d
000000d0: be2b 00bd cdc9 413c 0239 18be b261 66be
000000e0: bfe8 023c ae04 99bd d8ca b3bd 485b 0eb9
000000f0: df44 2f3e 141f 553d 0271 afbc 3439 0ebd
00000100: de7b 1c3e 0167 303d efab bc3d 4e0e d8bd
00000110: 38e1 00be de39 5ebd def9 d73d 9f46 58bd
00000120: 81b3 f4bd 08d5 1f3e e8fd 1cbe 9ae6 a2bc
00000130: e750 213d a6cd 6abc 4eb0 a63d 5d06 0dbd
00000140: 90d6 83bd 0f06 29be 9a2e 15be cd0d 10be
00000150: a8fe b03d e788 543e 4657 56bd 5b2a ac3d
00000160: cb34 05bd ea15 a23c b083 74bd 6cef b3bd
00000170: 31d3 ee3d 70bb dc3d 6722 013e d043 f83d
00000180: 7339 853c 3178 ad3d 9c37 903d 8058 cb3c
00000190: 2758 5ebd 1d38 023e 0538 a9bd c095 ddbc
000001a0: 8554 24be d969 ea3d aff4 15bd 7ebf 82bb
000001b0: 7054 7f3c 445d ecba 367c 60bd 1168 a73d
000001c0: 588c b1bd 381b 07be 80b1 683d dd64 e4bd
000001d0: b87c 30be 3ada 133c 175d c2bd de94 8c3d
000001e0: 542e 50bd 71f7 3c3e 0689 b7bc 1099 e8bd
000001f0: b0cd a8ba b22e 87bd b2ae 893d dd04 633d
00000200: cc3a a73c 4e9f 5d3b 90f7 013e 2537 bfbb
00000210: 24ac 023e fc4b 1f3d b842 25be 8d14 3cbe
00000220: 468a 43bd c293 423c 2458 02bc 3129 ebbc
00000230: cbb6 183d 9689 a9bc 5dd2 e6bd f58b da3c
00000240: e0cb 113e 3e9d e43d 2e4c 143d e593 24be
00000250: 00f4 0abc 6e1f e2bd 6edb 2d3e 3b2f 0b3e
00000260: 1d08 c5bd 26ec c2bc 5228 06be 276d 863c
00000270: fa41 8e3d 47b9 9c3d 7422 a33d 899e 823d
00000280: e961 98bd 9d36 583e 00d4 413d ae3f 6e3d
00000290: f243 6c3d 2df6 50bd c6c1 00be 1ebe 9bbd
000002a0: c528 ddbd 58f8 5bbb f332 02bd 1dcc 453e
000002b0: 6076 0f3e a53c 183d 1ae4 58be b67a e23c
000002c0: fed4 8f3c 78de 753c a268 f73d 2154 2dbd
000002d0: 2636 0e3c 6eb5 3dbd 2f45 24be e907 b2bd
000002e0: 21ee 49bd 7260 b4bb 7513 543e c214 5b3d
000002f0: b97b 27be b0dd fbbd 9d55 193e af3b 5abe
00000300: ac25 b4bd 420c 023e 8c63 17bd eb00 4f3e
00000310: 72e0 9cbc 8e79 37be 1a88 a2bd dd2a afbd
00000320: 3c40 db3d 49e1 cb3d a7c2 02be aaf8 853d
00000330: 2f2f bebd d27b a03d 9561 d93d 0b41 4b3c
00000340: d439 243e 80b3 1dbc 67f5 91bd 1f96 b33d
00000350: dd8a 433e da4e 28be 2dc8 ce3c 1c9b 03be
00000360: 80d3 143d da82 193d a640 2d3e b256 cb3d
00000370: 6853 003c 52d5 2d3d 5e83 86bd d57d b33d
00000380: 6e54 ecbd 5273 3abd 9722 64bd b941 d23d
00000390: 83ea 80bd 3380 0c3d 808c fd3d 9c56 fdbd
000003a0: cf74 d7bd 8aa2 0dbe 9772 36be b3e5 bc3d
000003b0: 246a 133e bdf8 bd3d b860 0dbe 0426 77bd
000003c0: dcc5 a53d a650 1d3b efb7 f8bc b7da e7bc
000003d0: df66 873d e7a9 62bd f7f1 c13d 2e56 043d
000003e0: 70bf 0a3c 7b59 3bbe fb34 893d b577 0c3e
000003f0: 616c 1fbe 50cf c9ba 758d 0f3d 66df 53bd

RNN.weight_hh_l1 f4 [200, 50]
-0.048592918 0.024796734 -0.0051610786 -0.046657503 -0.058920573 -0.011152306 0.094317324 -0.069822736
-0.07530163 -0.1591553 0.034553465 0.102968454 0.13735738 -0.031206585 -0.107979916 0.059897855
-0.13336097 -0.1003422 -0.06964327 0.045764938 -0.11787238 -0.100826405 -0.15614058 -0.1056106
0.102888845 -0.04414115 0.03007185 -0.018189996 -0.03741447 -0.043471508 0.046512917 -0.035737842
0.14072391 0.18957104 -0.16359751 0.017643344 0.052318428 -0.092752166 -0.055661548 -0.059419278
0.17340043 0.113260716 0.14565805 0.056353346 -0.08260561 0.010791457 -0.020706702 -0.21684046
0.12702478 -0.004459831 -0.12216809 -0.10412899 -0.031697806 -0.03400518 0.1239281 -0.019196603
0.12783763 0.13359752 -0.094221786 -0.025856508 -0.088535175 -0.02413218 0.0786577 0.040441718
0.15017939 0.1589324 0.032098994 -0.08634124 -0.09522277 -0.07213698 0.003535306 0.0009135697
-0.061902333 0.12636064 0.06766336 0.15623938 0.14157687 -0.087370664 0.08182694 -0.10545843
0.07001512 0.041971173 0.09253697 0.15025856 -0.13132808 0.10575442 0.124059744 -0.08970952
-0.03898059 -0.016813472 0.10718039 -0.10263264 -0.008434104 0.016294193 0.09234696 0.01161836
0.22205883 -0.12557703 -0.020609118 0.096604146 0.10589859 -0.10316531 -0.06884494 -0.042447828
-0.17330863 -0.017784823 -0.047826633 -0.09385838 0.15628208 -0.06910291 -0.06777656 0.0152277015
-0.06259411 -0.01490639 -0.09089628 -0.07689081 -0.105017856 -0.15489285 -0.084118925 0.014625818
0.14052795 -0.06792317 0.06240577 -0.039351586 -0.06765152 -0.04615113 -0.016758347 0.048130322
-0.014629282 0.100120634 -0.18903823 -0.12598456 -0.16972779 0.032969255 -0.12598845 -0.08432908
0.12637335 -0.0811003 0.016675593 0.13207883 0.14343582 0.17008461 0.14134605 -0.07476622
0.085492864 0.104369394 -0.16787954 -0.008016226 0.13104686 -0.08572304 0.066924475 0.01078875
0.083348505 -0.053866 -0.08250348 0.16814043 -0.02817763 -0.0047109183 -0.08018539 0.017339738
0.019684527 -0.0071468693 0.16364448 0.058968246 -0.059040356 0.0772885 0.060702205 -0.0062419865
0.015883703 -0.035757314 -0.106197156 0.12166894 -0.013043481 0.12541723 -0.01062559 -0.034987513
0.09768799 -0.115669526 -0.0720949 -0.04375573 -0.055520233 0.0688747 -0.1344821 0.057291996
-0.14106666 0.029096307 0.010462267 -0.11252944 0.04698894 -0.04124321 0.03271431 0.14173898
0.118548274 -0.016109891 -0.1058781 0.002019317 0.05126135 -0.039761502 0.17237484 0.06809976
-0.0026381798 -0.040816713 -0.09369871 0.020325694 -0.00850589 -0.15125813 0.029331451 0.13555205
-0.066544466 -0.11296621 0.07593488 0.16635564 -0.069172285 -0.114095695 -0.055269573 0.057803266
-0.0800616 -0.15662287 -0.07363097 -0.1172068 -0.09560598 0.000109769404 -0.06315738 -0.039730705
-0.010058129 -0.099363334 0.0064686406 -0.107199684 0.038224403 0.081079684 0.0077040195 -0.036130697
0.032990787 -0.02694461 -0.118759714 0.014991699 0.03061038 -0.011758929 -0.048669036 -0.07947682
-0.034857787 0.017352268 0.03291384 0.0110135 0.070664056 -0.0540585 0.045500312 -0.14623442
-0.001351627 -0.010555029 0.14213394 -0.015370985 0.12590022 0.019258015 0.07876421 -0.059643954
00000000: 5e09 47bd 8522 cb3c 441e a9bb f01b 3fbd
00000010: b356 71bd 29b8 36bc 7129 c13d 39ff 8ebd
00000020: be37 9abd 9bf9 22be ef87 0d3d 20e1 d23d
00000030: 6aa7 0c3e f4a4 ffbc 9324 ddbd 7457 753d
00000040: c78f 08be 3680 cdbd 21a1 8ebd 0474 3b3d
00000050: 1367 f1bd 137e cebd 51e3 1fbe 5f4a d8bd
00000060: 63b7 d23d 5acd 34bd 3e59 f63c 3003 95bc
00000070: ea3f 19bd 2e0f 32bd 5484 3e3d d861 12bd
00000080: ee19 103e e91e 423e 1b86 27be c688 903c
00000090: d94b 563d d9f4 bdbd 5dfd 63bd a161 73bd
000000a0: e28f 313e 3cf5 e73d 6227 153e c4d2 663d
000000b0: 212d a9bd a7ce 303c 1aa1 a9bc 6d0b 5ebe
000000c0: c912 023e c623 92bb 4333 fabd 9441 d5bd
000000d0: 8fd5 01bd 0449 0bbd 04ce fd3d 3242 9dbc
000000e0: dee7 023e cacd 083e 5af7 c0bd 07d1 d3bc
000000f0: ee51 b5bd d9b0 c5bc 4a17 a13d 37a6 253d
00000100: a0c8 193e 2dbf 223e 3c7a 033d add3 b0bd
00000110: 2804 c3bd 8ebc 93bd 98b0 673b a07c 6f3a
00000120: 4d8d 7dbd af64 013e 1693 8a3d 37fd 1f3e
00000130: 87f9 103e 64ef b2bd e294 a73d 97fa d7bd
00000140: 1664 8f3d f7e9 2b3d 0684 bd3d 61dd 193e
00000150: de7a 06be c695 d83d 0913 fe3d a0b9 b7bd
00000160: 1caa 1fbd 68bc 89bc 6481 db3d 1031 d2bd
00000170: 322f 0abc 667b 853c 6720 bd3d ef5a 3e3c
00000180: 6463 633e 4497 00be 74d4 a8bc 65d8 c53d
00000190: 5ce1 d83d 5648 d3bd 93fe 8cbd c6dd 2dbd
000001a0: d177 31be 7ab1 91bc dce5 43bd d338 c0bd
000001b0: 6908 203e d485 8dbd 70ce 8abd 9c7d 793c
000001c0: 5731 80bd ee39 74bc d427 babd ee78 9dbd
000001d0: 9a13 d7bd 3b9c 1ebe 8b46 acbd 20a1 6f3c
000001e0: 8fe6 0f3e 4e1b 8bbd 319d 7f3d 212f 21bd
000001f0: e18c 8abd f808 3dbd cd48 89bc 4d24 453d
00000200: a8af 6fbc 0c0c cd3d 3d93 41be 1902 01be
00000210: 1fcd 2dbe c50a 073d 1e03 01be bab4 acbd
00000220: 0468 013e ea17 a6bd 419b 883c ac3f 073e
00000230: d7e0 123e a92a 2e3e 05bd 103e 081f 99bd
00000240: e216 af3d 9fbf d53d 9de8 2bbe 7d56 03bc
00000250: 2631 063e 908f afbd b30f 893d 4cc3 303c
00000260: 9fb2 aa3d 98a2 5cbd 96f7 a8bd 012d 2c3e
00000270: c6d4 e6bc 0c5e 9abb 3d38 a4bd 110c 8e3c
00000280: 7241 a13c 4930 eabb 6b92 273e b088 713d
00000290: 4dd4 71bd 6f49 9e3d e0a2 783d 9489 ccbb
000002a0: 8a1e 823c 4376 12bd e57d d9bd 912d f93d
000002b0: 53b4 55bc 606d 003e f416 2ebc 114f 0fbd
000002c0: a410 c83d 25e4 ecbd 7ea6 93bd 3539 33bd
000002d0: 2f69 63bd 2e0e 8d3d adb5 09be 03ab 6a3d
000002e0: c773 10be 615b ee3c ee69 2b3c d675 e6bd
000002f0: 7a77 403d a4ee 28bd 71ff 053d 0624 113e
00000300: 70c9 f23d e4f8 83bc 9ed6 d8bd 8456 043b
00000310: 6cf7 513d f5dc 22bd 0883 303e e377 8b3d
00000320: 50e5 2cbb 6d2f 27bd 1ce5 bfbd 1282 a63c
00000330: 4a5c 0bbc 69e3 1abe 8348 f03c 28ce 0a3e
00000340: 7748 88bd d45a e7bd bf83 9b3d 2259 2a3e
00000350: 33aa 8dbd 01ab e9bd 5962 62bd 1ec3 6c3d
00000360: 56f7 a3bd bf61 20be d6cb 96bd 1e0a f0bd
00000370: 11cd c3bd 0034 e638 a858 81bd aabc 22bd
00000380: daca 24bc 017f cbbd e4f6 d33b 828b dbbd
00000390: 3191 1c3d 1b0d a63d 0072 fc3b c8fd 13bd
000003a0: 5921 073d f1ba dcbc 4b38 f3bd be9f 753c
000003b0: 9fc2 fa3c 86a8 40bc 2f59 47bd bec4 a2bd
000003c0: 0ac7 0ebd 5826 8e3c aad0 063d f871 343c
000003d0: 51b8 903d 726c 5dbd 895e 3a3d 7abe 15be
000003e0: 1429 b1ba 00ef 2cbc 8f8b 113e 95d6 7bbc
000003f0: fdeb 003e fcc2 9d3c 214f a13d 384d 74bd

RNN.bias_ih_l1 f4 [200]
0.052042227 -0.09126986 -0.13675372 0.015879408 -0.026875308 -0.013845155 0.10788098 -0.15128611
-0.23113269 0.15080264 0.017738298 -0.18726222 0.10817799 -0.13080978 0.058642562 -0.049336147
-0.13882042 -0.05642266 -0.05605903 0.009024862 0.044867568 -0.07751957 -0.20285997 -0.026925053
0.070243776 -0.08001865 -0.009796298 0.04401885 -0.03680744 0.06258531 -0.06567548 0.117989466
-0.20439507 -0.14075941 0.06951743 0.045568105 0.06559327 -0.10396596 0.08029143 -0.024201613
0.0870969 -0.030300234 0.001705247 -0.1377666 0.010725017 0.039425705 0.14886 0.045430236
-0.0056776265 -0.1140517 -0.116598494 -0.1413461 -0.0504239 -0.011489295 -0.06753726 -0.060729556
-0.038915515 -0.18110712 -0.06339624 -0.11441287 -0.026406802 -0.036807895 0.101637274 0.0144570675
-0.089687355 -0.21147028 0.065190084 -0.065951295 -0.14415185 0.022474717 -0.09541603 -0.13340561
-0.08717101 -0.046109084 0.0992254 0.09908884 -0.06525339 0.042221174 -0.068728216 0.06767423
-0.052973673 0.19478771 0.08067592 0.0067975395 0.022041466 -0.100151256 -0.04516144 0.016862957
-0.014456522 -0.13734673 -0.06206048 -0.18131506 -0.06293942 0.024193097 -0.1059408 -0.048800774
0.00337921 0.10949141 -0.1173808 -0.014382294 -0.0006411434 -0.07048191 -0.11021542 -0.12132846
-0.029781368 -0.010644028 -0.106611654 0.024303235 0.043877717 0.19778165 0.03116149 -0.038831137
-0.017824616 0.0024625426 -0.11165017 -0.119304255 -0.039879944 0.04840144 0.028532052 0.1559821
-0.13739799 -0.09012502 0.022609737 -0.046660755 -0.07811255 -0.07925405 0.09337417 0.10289562
0.09412888 -0.1281376 -0.021625966 -0.06985494 0.037854403 -0.0029798355 -0.14395085 -0.007569265
0.015754107 -0.01923894 -0.013590071 -0.1088693 -0.032294184 -0.13644902 0.041718345 0.011066462
0.02766265 0.005661079 -0.028331902 0.08444584 0.031780697 0.0020182137 -0.025203656 0.10853349
-0.0644148 -0.07953892 -0.18167691 0.054713756 -0.016357731 -0.063191324 -0.047311187 0.023866933
0.055689596 -0.1664673 -0.021649178 -0.19482951 -0.13742444 -0.10009099 -0.04106982 -0.014496514
-0.17509478 0.1445737 0.057852782 -0.19322221 -0.12623431 -0.19450025 0.080539994 -0.08533656
-0.00024279114 -0.13407582 -0.10350392 0.0048861327 -0.025280925 0.024439229 0.032812517 -0.13307345
-0.12521605 0.061397087 -0.09997095 -0.05740294 0.056647684 0.030888159 0.032913383 -0.22185427
-0.1804157 0.024024267 0.15822661 -0.054831393 0.14333916 -0.05650868 0.09192566 -0.17944118
00000000: 3b2a 553d b1eb babd 2b09 0cbe 8815 823c
00000010: 9b29 dcbc cad6 62bc b4f0 dc3d bfea 1abe
00000020: 0cae 6cbe 026c 1a3e e84f 913c abc1 3fbe
00000030: 6c8c dd3d 00f3 05be 2f33 703d b314 4abd
00000040: f126 0ebe 721b 67bd 279e 65bd 04dd 133c
00000050: 0ec7 373d 95c2 9ebd 86ba 4fbe ee91 dcbc
00000060: f8db 8f3d d1e0 a3bd a780 20bc 1c4d 343d
00000070: 66c3 16bd ba2c 803d de80 86bd 76a4 f13d
00000080: f14c 51be 3c23 10be 285f 8e3d 9fa5 3a3d
00000090: c455 863d 1bec d4bd d56f a43d 7642 c6bc
000000a0: dc5f b23d 3238 f8bc 9882 df3a b012 0dbe
000000b0: fbb7 2f3c d97c 213d c16e 183e 0e15 3a3d
000000c0: 620b babb f093 e9bd 31cb eebd 08bd 10be
000000d0: 4b89 4ebd 993d 3cbc fa50 8abd 8ebf 78bd
000000e0: e065 1fbd 2574 39be e3d5 81bd 4b51 eabd
000000f0: 1453 d8bc e0c3 16bd 3427 d03d 56dd 6c3c
00000100: 01ae b7bd aa8b 58be 6182 853d 7911 87bd
00000110: 8b9c 13be e61c b83c 7b69 c3bd 7b9b 08be
00000120: b786 b2bd e1dc 3cbd b036 cb3d 17ef ca3d
00000130: 92a3 85bd 1cf0 2c3d 61c1 8cbd c998 8a3d
00000140: ecfa 58bd 6e76 473e 6b39 a53d e5bd de3b
00000150: 4e90 b43c 1a1c cdbd 34fb 38bd 2f24 8a3c
00000160: 0cdb 6cbc 9fa4 0cbe 2133 7ebd a8aa 39be
00000170: 62e6 80bd 9a30 c63c 7df7 d8bd 52e3 47bd
00000180: bc75 5d3b 083d e03d 5865 f0bd b7a3 6bbc
00000190: 6812 28ba d258 90bd 9fb8 e1bd 0e7b f8bd
000001a0: 0ef8 f3bc 4a64 2ebc 3657 dabd 9417 c73c
000001b0: 1fb9 333d 4687 4a3e 6246 ff3c 660d 1fbd
000001c0: ee04 92bc 9c62 213b d8a8 e4bd ca55 f4bd
000001d0: 2759 23bd 9740 463d 0dbc e93c c6b9 1f3e
000001e0: 0fb2 0cbe 7793 b8bd 0e38 b93c 591f 3fbd
000001f0: 79f9 9fbd f34f a2bd f53a bf3d f0ba d23d
00000200: a4c6 c03d 8136 03be f028 b1bc 1b10 8fbd
00000210: 380d 1b3d 5849 43bb da67 13be 9907 f8bb
00000220: c20e 813c fb9a 9dbc e4a8 5ebc def6 debd
00000230: e846 04bd 4bb9 0bbe dbe0 2a3d 1b50 353c
00000240: c89c e23c 9380 b93b 4e18 e8bc f1f1 ac3d
00000250: 7a2c 023d 0244 043b e677 cebc ce46 de3d
00000260: e8eb 83bd 4de5 a2bd 8309 3abe 881b 603d
00000270: a600 86bc 746a 81bd 60c9 41bd 9684 c33c
00000280: c61a 643d 6776 2abe 9e59 b1bc 6381 47be
00000290: feb8 0cbe 81fc ccbd d438 28bd c982 6dbc
000002a0: 0c4c 33be 210b 143e 0af7 6c3d 0bdc 45be
000002b0: 9143 01be 132b 47be 27f2 a43d efc4 aebd
000002c0: c095 7eb9 2c4b 09be ddf9 d3bd da1b a03b
000002d0: f119 cfbc c734 c83c 6b66 063d 6844 08be
000002e0: a338 00be 837b 7b3d 92bd ccbd 581f 6bbd
000002f0: 6707 683d 2a09 fd3c 2fd0 063d c42d 63be
00000300: e5be 38be 8ace c43c 2806 223e e296 60bd
00000310: 80c7 123e a575 67bd 8543 bc3d 6ebf 37be

RNN.bias_hh_l1 f4 [200]
-0.18003754 0.015116875 -0.08991055 -0.046368837 -0.0032519307 0.065557785 -0.106967196 -0.14600818
-0.006444115 0.07842974 0.09338147 -0.09485894 0.10285169 -0.098804556 -0.056941677 0.076486774
-0.054393478 0.046898775 -0.15013225 0.021390876 -0.090952955 0.016186655 -0.1695456 -0.19162512
-0.1662408 -0.15585206 -0.08138091 -0.013135636 0.06787139 0.049212404 -0.14326702 -0.009752925
-0.029358136 0.04629056 -0.1259315 -0.0413173 -0.1628501 -0.10531437 0.029948123 0.00847174
-0.14115496 -0.20330143 -0.0019888403 0.0024456065 -0.039352063 -0.17338014 -0.09430222 0.07119286
-0.050775256 0.020853616 0.025226243 -0.1014595 -0.15066369 -0.18676661 0.08865351 -0.16491495
-0.15509231 0.041953836 -0.15291482 -0.10368446 -0.09174212 -0.14619076 0.1271111 0.07341433
0.13762334 0.01222608 0.01881612 -0.021163456 -0.07030709 0.050688412 -0.00066970754 -0.007864985
0.034060173 -0.12707594 0.11580277 -0.02538454 0.03122136 0.024790509 0.03416489 0.016718235
-0.075564325 0.037799336 -0.11576747 0.08397839 0.09568597 0.04476797 -0.085177965 0.004611714
-0.04494521 0.024769938 0.052121993 0.06656622 0.026607871 -0.20775983 -0.111734115 0.025007656
0.13618013 -0.11907245 -0.09100631 -0.024038114 0.002739375 0.07530527 -0.06404075 0.078811884
-0.026002537 -0.026744444 -0.10572374 0.029172279 -0.18673456 0.00054352486 -0.19853993 0.09945066
0.03724436 0.06077122 -0.029808156 0.097020626 0.043613452 0.08247851 -0.0689073 0.002249496
0.09527968 0.035995085 -0.04118517 0.1166362 -0.09667276 0.009922364 -0.07872709 -0.12331642
0.037348922 0.07884665 0.056571435 -0.059230812 0.07662647 -0.037051972 0.10464139 0.058825504
0.072461896 0.109140016 -0.11383873 -0.13892548 -0.058724098 0.056534044 -0.09738317 0.009406055
0.19175698 -0.06452731 -0.112637445 0.005461611 -0.06732252 -0.051883247 -0.0056986455 0.04820258
-0.14430338 -0.2144065 0.0024416763 -0.012497993 -0.032853436 -0.16424413 0.021876689 0.18508415
0.0076325075 0.025828186 0.0759518 -0.05120832 -0.008134483 -0.11062393 0.11086931 0.06747366
-0.0035205018 0.14065726 -0.09774551 -0.05244681 0.027927632 0.038201746 0.02169296 -0.044537395
-0.087409854 -0.02609367 0.021793194 0.080462925 -0.09003464 -0.076964915 -0.06184337 -0.09660284
0.120376445 -0.15398476 0.03306022 0.053918272 0.05941662 0.032771397 -0.06066417 -0.20901687
-0.021746235 -0.20578335 -0.08235479 -0.17127217 0.08197072 0.097955145 -0.009338935 -0.14976019
00000000: c35b 38be c5ac 773c 0623 b8bd 40ed 3dbd
00000010: 581e 55bb 2943 863d 9e11 dbbd 2b83 15be
00000020: 2829 d3bb c69f a03d c93e bf3d 6745 c2bd
00000030: e8a3 d23d 0b5a cabd ad3b 69bd 19a5 9c3d
00000040: b2cb 5ebd ee18 403d 45bc 19be eb3b af3c
00000050: 8b45 babd e099 843c 5d9d 2dbe 6039 44be
00000060: 073b 2abe af97 1fbe 09ab a6bd da36 57bc
00000070: 2800 8b3d f292 493d 97b4 12be bbca 1fbc
00000080: 7980 f0bc 2c9b 3d3d 30f4 00be 543c 29bd
00000090: 2dc2 26be 0faf d7bd c455 f53c 0ecd 0a3c
000000a0: ed8a 10be 402e 50be 3457 02bb 7846 203b
000000b0: a12f 21bd 908a 31be 8621 c1bd 90cd 913d
000000c0: b7f9 4fbd 34d5 aa3c 44a7 ce3c 00ca cfbd
000000d0: 9547 1abe bf3f 3fbe f98f b53d 77df 28be
000000e0: 85d0 1ebe c9d7 2b3d b495 1cbe 8558 d4bd
000000f0: 4be3 bbbd 08b3 15be 6a29 023e 415a 963d
00000100: 22ed 0c3e e54f 483c 4424 9a3c fc5e adbc
00000110: 2afd 8fbd a79e 4f3d 508f 2fba 23dc 00bc
00000120: ae82 0b3d 3220 02be 012a ed3d 3df3 cfbc
00000130: f0c3 ff3c 7715 cb3c 7cf0 0b3d aef4 883c
00000140: 78c1 9abd 7ad3 1a3d 7f17 edbd ddfc ab3d
00000150: 01f7 c33d 9e5e 373d c971 aebd dc1d 973b
00000160: 7818 38bd 53ea ca3c df7d 553d df53 883d
00000170: c0f8 d93c febe 54be dbd4 e4bd dbdc cc3c
00000180: ce72 0b3e 42dc f3bd 8461 babd 94eb c4bc
00000190: 1687 333b a639 9a3d cc27 83bd 2068 a13d
000001a0: 4603 d5bc 2a17 dbbc b085 d8bd b4fa ee3c
000001b0: 5837 3fbe 567b 0e3a 0d4e 4bbe caac cb3d
000001c0: 8b8d 183d 3eeb 783d 3c30 f4bc c0b2 c63d
000001d0: 05a4 323d 7eea a83d 451f 8dbd 486c 133b
000001e0: fe21 c33d 956f 133d c8b1 28bd f6de ee3d
000001f0: 5efc c5bd 6991 223c ab3b a1bd 528d fcbd
00000200: 2ffb 183d 5a7a a13d 73b7 673d 029c 72bd
00000210: 57ee 9c3d cfc3 17bd 3a4e d63d 03f3 703d
00000220: e766 943d cd84 df3d 4824 e9bd 7b42 0ebe
00000230: ae88 70bd 3e90 673d d470 c7bd db1b 1a3c
00000240: f15b 443e e526 84bd 76ae e6bd 50f7 b23b
00000250: 64e0 89bd 8783 54bd b4bb babb 1270 453d
00000260: 44c4 13be 618d 5bbe 8804 203b 62c4 4cbc
00000270: 5391 06bd 9d2f 28be be36 b33c b386 3d3e
00000280: 1d1a fa3b a295 d33c 9e8c 9b3d d1bf 51bd
00000290: 7f46 05bc cd8e e2bd 730f e33d a12f 8a3d
000002a0: 38b8 66bb 7508 103e cc2e c8bd 77d2 56bd
000002b0: 7dc8 e43c 6f79 1c3d 6fb5 b13c d86c 36bd
000002c0: f003 b3bd 64c2 d5bc a487 b23c bfc9 a43d
000002d0: 1564 b8bd c89f 9dbd 794f 7dbd b6d7 c5bd
000002e0: ed87 f63d 2eae 1dbe 276a 073d 68d9 5c3d
000002f0: d75e 733d 4d3b 063d fe7a 78bd 8508 56be
00000300: 2925 b2bc dfb8 52be a1a9 a8bd f961 2fbe
00000310: 44e0 a73d b59c c83d 5502 19bc bc5a 19be

out.weight f4 [2, 50]
-0.109749794 -0.017661639 -0.14737718 0.047643654 -0.045466945 0.0006887298 -0.16616541 -0.03894934
-0.028804384 0.0874719 -0.051450655 -0.055804774 -0.022983933 -0.045608312 -0.10024043 0.070996344
0.1646511 -0.08272434 -0.07699021 0.12218439 -0.024076268 -0.004793249 0.047575902 0.04984878
-0.054888032 -0.020573147 -0.012253365 -0.10372801 0.061491262 -0.0912793 -0.04938111 -0.07310782
-0.020757608 0.05412464 -0.11504213 -0.10583481 0.03744576 0.048374392 -0.12115768 -0.09842673
0.074471906 0.0480935 -0.0814826 0.026514955 0.13701223 -0.030554477 -0.11458351 0.057405207
0.0027982658 0.020328762 -0.14515825 0.026886363 0.000634057 0.031570368 -0.055070043 -0.06785052
-0.05118576 -0.058030434 0.070359975 -0.20272768 0.16553615 -0.07904783 -0.103206605 -0.07508484
0.02328635 0.14180307 0.09426962 0.11133446 -0.095615916 -0.026911153 -0.026767883 0.044090718
0.00389149 -0.037756868 -0.07053865 0.08698967 -0.0295017 0.043457508 -0.044737652 -0.05335173
-0.027628263 0.14048564 -0.114193134 0.07864114 -0.09091508 0.08150521 0.029432163 -0.026607474
-0.099362835 0.117266424 0.11074718 0.073356375 -0.10219161 -0.024744807 -0.04191435 0.041423105
0.036210544 0.060455963 0.015766563 0.049680125
00000000: 80c4 e0bd 24af 90bc 0bea 16be fe25 433d
00000010: 8c3b 3abd e08b 343a 4427 2abe 5889 1fbd
00000020: 2cf7 ebbc 7824 b33d ecbd 52bd 8c93 64bd
00000030: cd48 bcbc c8cf 3abd db4a cdbd 8866 913d
00000040: 4c9a 283e 616b a9bd 0bad 9dbd cf3b fa3d
00000050: 983b c5bc b010 9dbb f3de 423d 3c2e 4c3d
00000060: 46d2 60bd 0489 a8bc 56c2 48bc 5a6f d4bd
00000070: 43de 7b3d a4f0 babd d943 4abd 8db9 95bd
00000080: dc0b aabc ccb1 5d3d 359b ebbd ecbf d8bd
00000090: ba60 193d 3a24 463d 8521 f8bd f493 c9bd
000000a0: ba84 983d b1fd 443d 59e0 a6bd e435 d93c
000000b0: ef4c 0c3e 624d fabc c2aa eabd b921 6b3d
000000c0: 1c63 373b 8188 a63c 5da4 14be ca40 dc3c
000000d0: d836 263a ee4f 013d 2091 61bd 37f5 8abd
000000e0: 29a8 51bd 52b1 6dbd e418 903d d897 4fbe
000000f0: 4f82 293e d4e3 a1bd fc5d d3bd 15c6 99bd
00000100: 04c3 be3c d334 113e 6e10 c13d 5203 e43d
00000110: 47d2 c3bd c774 dcbc 5248 dbbc 7898 343d
00000120: 5e08 7f3b f2a6 1abd 9176 90bd a427 b23d
00000130: 8dad f1bc 8000 323d d43e 37bd 5887 5abd
00000140: ab54 e2bc 78db 0f3e 17de e9bd 9b0e a13d
00000150: af31 babd 34ec a63d b81b f13c ebf7 d9bc
00000160: be7e cbbd 6129 f03d 6bcf e23d de3b 963d
00000170: d649 d1bd 9fb5 cabc 62ae 2bbd 46ab 293d
00000180: 8251 143d aca0 773d e128 813c 637d 4b3d

out.bias f4 [2]
-0.035751455 -0.035383396
00000000: 1e70 12bd 2eee 10bd
