saved_models/model_CricketX_5_02_2_50.pt (torch, 131403 bytes, 12 tensors)

Controller.fc.weight f4 [1, 51]
00000000: 952c 14bc 3166 3f3e 7162 25be 4b55 973e
00000010: 08c7 7e3d 8fb8 183d 9187 64be a786 2e3e
00000020: 146a 503e 7d3f a0bd 8258 793e 50be af3c
00000030: 73b6 e33c 3057 23bd 3770 f83b f948 213e
00000040: 02a4 9a3e a965 a53b ce9f 30be dc3a e93d
00000050: 568d eebc 8c92 013e c073 e8bd e800 803e
00000060: 4698 6fbe 93e1 25be df2e 5bbe e388 193d
00000070: a05b 62bd f9b7 7fbe 62f3 cd3d b043 c6bd
00000080: 0437 153e f4a1 a83d 2891 04be 037a 6a3e
00000090: 5bdd c73d af78 883e 85f0 113e 7836 a43c
000000a0: 91ff 633d c1f1 4cbe fbcc 14bd 685c 4e3c
000000b0: 6f13 743e 556f 60be a70e d03c 931b 223e
000000c0: 17ea 1c3e f85b c23d 54a8 96be
-0.009043832 0.18691327 -0.16150834 0.2955726 0.06220153 0.037285384 -0.2231734 0.17043553
0.20352966 -0.078246094 0.2435017 0.021453053 0.02779696 -0.03987807 0.0075817364 0.15750493
0.30203253 0.005047519 -0.1724846 0.1138818 -0.029120129 0.1265356 -0.113502026 0.2500069
-0.23397931 -0.16199331 -0.21404599 0.03748406 -0.05526316 -0.24972524 0.10056187 -0.09680879
0.14571768 0.08234015 -0.12945998 0.22898106 0.09759017 0.26654574 0.14251907 0.020045504
0.05566365 -0.20014097 -0.036328297 0.012595274 0.23835538 -0.2191747 0.025397612 0.15830831
0.15323673 0.09490198 -0.294253

BaselineNetwork.fc.weight f4 [1, 51]
00000000: d5b6 cc3d 86f5 873d 3456 893d b7a3 d03d
00000010: 0a81 0fbd e652 b4bb 72fc 763e 6501 c8bd
00000020: 6319 4a3d 47e3 39be 90b0 303d 5286 cfbd
00000030: 544b 843d 7a58 b73d 431d 9b3d d0aa 55be
00000040: 5147 38be 437d 39be 2cfe 5c3e 0bc2 83bd
00000050: 3b73 683e c1c5 b3bd bf8d 6dbe d383 aebe
00000060: 07b9 813d 0281 953c 8dba be3d aa32 853d
00000070: b4ed 0bbe 5ad1 cfbd 2ed5 63bd c29b b8bd
00000080: 44a7 eebc 1d15 26bd a62e 2bbd 07f3 14be
00000090: 7c26 7dbd 67b4 b9bc 48e5 053c abca 043d
000000a0: 34d1 1a3e e0c4 163e 378a d2bc da26 f4bd
000000b0: 3bc7 dc3b bf9d d73d b676 dcbd 0424 81be
000000c0: 3561 af3c 9719 f13d 092d 4e3c
0.0999581 0.06638627 0.06705895 0.10187476 -0.03503517 -0.0055030463 0.24119738 -0.09765891
0.049340617 -0.18153106 0.043137133 -0.101330414 0.0645968 0.089524224 0.075739406 -0.20865941
-0.17995955 -0.1811419 0.21581334 -0.06433495 0.22700207 -0.08777953 -0.23198603 -0.3408495
0.06334119 0.018249992 0.093129255 0.06503804 -0.13664895 -0.101473525 -0.055623226 -0.090140834
-0.029132493 -0.04054748 -0.041792534 -0.14545833 -0.06180428 -0.02266903 0.008172341 0.03241984
0.15118867 0.1472354 -0.025700672 -0.11921473 0.0067376173 0.105281346 -0.1076483 -0.2522279
0.021408657 0.11772459 0.012583979

RNN.weight_ih_l0 f4 [200, 1]
00000000: b211 fbbd 70c6 01be 4d9f 35be f0c8 77be
00000010: 35e3 95be ee80 48be af0f 27bd 3149 fd3d
00000020: 1d58 233e cc3c 62be 879e 90bd b52c b9bd
00000030: 3c25 ac3d cf17 edbd 26e1 b63c d50e c03d
00000040: 0c05 94bd ae92 ccbc b63b fc3c 5fb0 91be
00000050: 744e 63bd 852a a1be 737e 0fbe 3400 77be
00000060: 5537 703e 7d7a 4b3d 6e3d bd3d c370 3cbe
00000070: e7ee 92be 20aa 923e a739 60be c700 8ebe
00000080: 7bfb 9ebd c783 96be cc42 ddbd 9c0d bebd
00000090: b0cb 6f3e 9e64 26be 8cfb 46bd 45c0 c3be
000000a0: 6e57 013e 7de5 15be 1824 123e b4d8 0f3d
000000b0: de0a 933d 436f 04be 42e0 d4bd 2d52 aabd
000000c0: 0e69 5d3e 3e8f a7be d2d8 bd3d 7de7 55bd
000000d0: f6b0 c83d e109 0abc d275 353d a017 f7bd
000000e0: e8cf 753b 9df6 c93d f669 2fbd 2b61 3dbe
000000f0: e212 053e 0973 79bd 1a5d 003d 17c5 793e
00000100: c5c0 e73c 546d c6bd 7dcd 9fbd 629b 21bd
00000110: 5527 e53d 8a97 c9bd d8b0 9abd 1861 2abe
00000120: 7177 03be aafd afbc 7021 b23d 728b c3bd
00000130: 0adc a03d 0739 39bc 059a 87bd 992c a3bd
00000140: af9d 053d 5a2b a5bd 3b93 283e acc3 f4bd
00000150: 02fb 09be 96fa 3ebd 11d9 a33b c79b 14be
00000160: f49c ae3d 8c1e c3bc 8ed4 31bd 552e c5bd
00000170: 9aeb 8a3d fb07 1cbd 1278 e23d 6d01 183e
00000180: b8cc 43be 6c46 e8bd 8a48 783e a786 b7bd
00000190: a1cd aebe 7b90 5b3c 0aad 80be b233 94be
000001a0: da88 9ebe 0484 993e daa1 bf3e c65b 9c3e
000001b0: 77a0 92be c349 bfbe e32a 46be 60bb a13e
000001c0: 4ed0 18be eae5 dabc bb10 b33e 338f 60be
000001d0: f9de 18be ab08 d03e c207 aabc 59e4 4c3e
000001e0: f976 81be 2810 cc3e bf6b b63e eb8d a23e
000001f0: fe63 a9be a1b7 b1be e65c cfbd 4885 863e
00000200: f236 bb3e fdc2 983e 8a24 983e d0e8 a63e
00000210: 6e0c 87bc 3acd b7be fde2 8bbe dad0 c3be
00000220: 56ac 7e3e d46d c3be 6b4a 413e 0b73 a8be
00000230: 8a7e 8bbe f5be c7be 8f8b 90be 7abe 673e
00000240: b297 31be 8d20 513e 4e73 99be 92b5 babe
00000250: 33b5 96be 4897 c3be b30d 12be a9bf 1dbe
00000260: e31f 423d 51db 50be b67c 10bd 460d c5bc
00000270: 34a6 54bd e861 93bd 8a10 543e e2a5 13be
00000280: a508 513d 2459 f33d 867f 113d 2140 a63c
00000290: 391a 4c3d 385e 333d 1a8d 89bc 8a12 bebd
000002a0: 99a5 0d3e c7f6 85bd e632 3b3e aa94 76be
000002b0: f052 49be 2034 4bbd 215c 0f3e 7992 10bd
000002c0: eaa0 14bd 6b10 9bbe b613 03be 4793 653d
000002d0: a083 5dbe f51b 8bbe 6acd 84bd e375 05bc
000002e0: e4cf 12bd 752c 96bd 10a6 0e3e 7dc0 b0bd
000002f0: a100 8fbe d5c3 b7be 49fa 3d3e ca3a 5ebe
00000300: 32bf 46bb c3ce b9bd a6f8 fdbd 4370 6fbd
00000310: c01f f8bd 4eb8 49bd 1acb 233e 96da 80be
-0.122592345 -0.12673354 -0.1773655 -0.24197745 -0.29274908 -0.19580433 -0.04078644 0.12367476
0.15951581 -0.22093505 -0.07061487 -0.0904173 0.084055394 -0.11576807 0.022324156 0.09377829
-0.07227525 -0.024972286 0.030790191 -0.28454873 -0.05549474 -0.31477752 -0.1401308 -0.24121171
0.23458607 0.04967736 0.092402324 -0.1840239 -0.28697893 0.2864542 -0.21896993 -0.27734968
-0.0776281 -0.29397413 -0.10803756 -0.092799395 0.23417544 -0.1624932 -0.048579738 -0.38232628
0.12631008 -0.14638324 0.14271581 0.035118774 0.07179807 -0.12933068 -0.10394336 -0.08316455
0.21622106 -0.32726473 0.09269871 -0.052222718 0.097993776 -0.008425207 0.044301815 -0.12065053
0.0037507955 0.09861491 -0.04282566 -0.18494098 0.12995484 -0.06090072 0.03133879 0.2439159
0.028290162 -0.096888214 -0.07802866 -0.039454825 0.111891426 -0.09843357 -0.075532615 -0.16638601
-0.12838532 -0.021483261 0.08697784 -0.095480815 0.07854469 -0.0113051 -0.06621174 -0.07967491
0.032621082 -0.08064909 0.16462414 -0.11951384 -0.13474658 -0.046625696 0.0050002416 -0.1451255
0.0852603 -0.023818277 -0.0434156 -0.09627978 0.06783219 -0.03809355 0.11058058 0.14844294
-0.19121063 -0.11341557 0.24246421 -0.0896123 -0.34141257 0.013401146 -0.25132018 -0.2894569
-0.30963784 0.29983532 0.3742817 0.30538768 -0.2863805 -0.37360963 -0.19352297 0.31588268
-0.14923212 -0.02672096 0.34973702 -0.21929626 -0.14928807 0.40631613 -0.020755652 0.20008983
-0.2528608 0.39856076 0.3562908 0.317489 -0.330841 -0.3471041 -0.10125141 0.2627356
0.36565357 0.29836264 0.29715377 0.32599497 -0.01648542 -0.35898763 -0.27321616 -0.3824528
0.24870428 -0.3816973 0.18876044 -0.3290027 -0.2724498 -0.39012876 -0.28231475 0.22631255
-0.17343023 0.20422573 -0.29970783 -0.36466652 -0.2943512 -0.38201356 -0.14263038 -0.15405144
0.04739369 -0.20396163 -0.035275184 -0.02405418 -0.051916316 -0.071964085 0.20709434 -0.14418748
0.051033635 0.118822366 0.035522006 0.02029425 0.049829695 0.043791026 -0.016790915 -0.0928088
0.13832702 -0.0654121 0.18281135 -0.24080148 -0.19660544 -0.049610257 0.13999988 -0.035295937
-0.036286272 -0.30285963 -0.12800488 0.056048658 -0.21632242 -0.27169767 -0.06484492 -0.008145782
-0.03584279 -0.07332698 0.13930535 -0.08630464 -0.27930167 -0.35891595 0.18552507 -0.21702114
-0.0030326364 -0.0907264 -0.124009416 -0.05845667 -0.12115431 -0.049248032 0.15995446 -0.25166768

RNN.weight_hh_l0 f4 [200, 50]
00000000: 809d bebb 011a b9bd 8c40 cb3d 0526 243e
00000010: 0a8f ce3d 7b2f a9bd afe5 9bbc 3f8d 733c
00000020: 57fa 15be cd7f 1b3e 0981 8e3e 5e3a a2bd
00000030: 8de2 553e cfda b53c 9f8f 92bd 80a2 f5bc
00000040: 9eea 493d 28f9 bbbd 0e33 80bd b658 efbd
00000050: 59e7 b0bd fb9a 8bbe d690 76be 2977 8bbe
00000060: 78b9 a33d 9c02 a23d fec9 f83d 3b60 f9bd
00000070: 6112 3fbe da03 02be e699 e3bd 0b31 83be
00000080: 0163 b3bd 15c3 683e 79f8 793d c9a9 0b3e
00000090: 866a 37bd b713 df3d f4d7 9dbe 20e2 a73c
000000a0: 611f 04be a58c bb3d 0f24 8f3e 324d 69be
000000b0: 3897 98bd 6fe7 12be 409b 2c3e 7851 443e
000000c0: daea 8a3e 3486 6a3e 88db 5cbe e65e 4b3e
000000d0: 1035 b5bd bffb 1dbe c974 3bbe 8052 5a3e
000000e0: a547 0c3e afd7 9dbd 95ff acbc de54 40bd
000000f0: 42d8 773d 82ff d83d f8b4 043d 1672 28bd
00000100: 66c8 ccbd 1d68 023e 02d3 68bd 0d09 8b3d
00000110: 18b3 8f3d 6906 133e 6ea8 c5bd 43e3 b53d
00000120: 8ef3 193e a8f7 4f3e 1566 553c 2cc8 52be
00000130: 916b 2e3d 288d 853d 6d84 053e 13ef a93d
00000140: 3d7c 6a3e 9d95 903e 46a5 ecbd 4c5b 5ebe
00000150: de17 f8bc dbad 31be c15a f9bb 9708 34be
00000160: 9e2d 923e 120f 9cbd 00ef bc3d 0825 8ebe
00000170: efeb 85be 60a5 333e ba7f a63d 6431 103e
00000180: 2156 23be e8c5 81bc 6c47 4ebb a0bd 0cbe
00000190: 1e2d 8abd 832f 2dbe f860 57be 9980 36be
000001a0: 6e03 3cbe d1c5 a43d f073 593d 8bc1 d3bd
000001b0: 757d 393e b2e5 f7bb 110f 033e 3656 b03c
000001c0: 5dee d3bd fce4 ae3d 0a0f 24bd b7e1 e8bd
000001d0: 94e7 4b3d ff98 40bd 061c 943c d37d 563e
000001e0: 4f4b 2c3d da64 e23d 0646 863d 828d afbd
000001f0: bbe2 843d 4762 a3bc bcb4 7c3d c75f d63d
00000200: 229e 7f3c 36ae 773d c3cc 82bc aacc 733d
00000210: c877 a33d 10ab babd 0644 003d 9cac 87bd
00000220: aee5 053d 6b98 eb3c 2975 a63d f2f5 80bc
00000230: 894b 0a3e 2bdb 1fbe de0e 39be 1297 9d3d
00000240: 074f 2f3d 45af 03be c8db 5dbd 0ffe 59be
00000250: 128f c4bd cfeb 96bd 6456 be3c e729 48bd
00000260: c9c1 76bd e286 7a3d daa0 e9bc 33f5 babd
00000270: 102d 843d ab96 aabd 950f 253e d8ae d2bc
00000280: 4b4f 343d 706f 3bbd c3e4 1cbe 652a 53bd
00000290: a957 b63d 012b 2b3e 993e 333e 9596 143b
000002a0: 2f54 7f3e 0b54 943d b96c 43bd 46c2 b73d
000002b0: 88db 70bd 6aab 20bd c5ca 023e f49d 573d
000002c0: bf55 bebc 502b 0d3d 3f56 16bd 8821 89bd
000002d0: f630 15bd fcca 03be 4e25 4f3e b6e5 a2bd
000002e0: 72b0 053e c714 c73d 2865 e6bc 2057 7c3c
000002f0: dfd9 283d c27e 8ebd 9add d53d 6a2e 0dbd
00000300: f256 af3d 10d7 133e cbac e5bd 92b7 31be
00000310: 9e26 c5bd 8b10 c6bd 5b9e 093e a603 113d
00000320: 5e51 24bc c7ce 5cbd 99e1 acbd ab3d 0bbe
00000330: 3a63 e3bd 3170 803d c472 873d 0643 b5be
00000340: 1760 2c3e a73f b3bc 2545 b6bd a511 4dbc
00000350: bde3 d4bc 142e 6dbc 473e 873d 850b 693d
00000360: 0172 423d 02d9 963d 2f0a b93d 24d3 3c3e
00000370: 1746 143e 3764 c9bd fa0c c73d f20b 103e
00000380: 1fff 953e a235 073e 516f 21bb 79aa 8a3c
00000390: c88d ae3d b003 0abd f3d7 d23d 2ba2 14bd
000003a0: 24ca e9bb 7803 ffbc fea1 c2bd 034f d73d
000003b0: afe9 12be 3ce9 9fbd 8003 26bc 9687 37bd
000003c0: 3a44 593e 4ded 073c 7846 4c3e 390d ca3d
000003d0: 5860 d4bd 0dd0 59be 6447 10be 4683 243d
000003e0: fd9b 7e3c 8215 3d3b cb4f 9cbc f759 81be
000003f0: a047 373e a1da 2b3c 9b51 9e3d 6e36 033e
-0.0058171153 -0.09038163 0.09924421 0.16030128 0.10085876 -0.08261009 -0.01903042 0.014865219
-0.14646278 0.15185471 0.2783282 -0.07921289 0.20887204 0.022199063 -0.071563 -0.029984713
0.049296014 -0.09178382 -0.06259738 -0.11686842 -0.08637876 -0.27266678 -0.24078688 -0.2723935
0.0799436 0.07910654 0.12147902 -0.12176558 -0.18659355 -0.12696782 -0.11113338 -0.25623354
-0.08759118 0.22730668 0.061027978 0.13638987 -0.044779323 0.10892432 -0.30828822 0.020493567
-0.12902595 0.09157685 0.27957198 -0.22783354 -0.07450718 -0.14346097 0.16856098 0.19171703
0.27132303 0.22902757 -0.2156812 0.1986042 -0.088480115 -0.15428065 -0.18306269 0.21320534
0.13699205 -0.07707154 -0.021117965 -0.046955936 0.060508974 0.10595609 0.032399148 -0.041124426
-0.099991605 0.12735029 -0.056841858 0.06788836 0.07016581 0.14357914 -0.09651266 0.08881237
0.15034315 0.20309317 0.0130248265 -0.20584172 0.042583052 0.06521064 0.13038798 0.08297553
0.22898956 0.28239146 -0.11554961 -0.21714514 -0.030284818 -0.17351477 -0.0076096957 -0.17581402
0.28550428 -0.07620062 0.09225273 -0.27762628 -0.26156566 0.17543554 0.08129831 0.14081341
-0.15950824 -0.01584144 -0.0031475676 -0.13744211 -0.06746887 -0.16912656 -0.21033084 -0.17822494
-0.18360683 0.08045543 0.053089082 -0.1033965 0.18114264 -0.0075652236 0.12798716 0.021525484
-0.103481986 0.08539769 -0.040053405 -0.11371177 0.049781397 -0.04702091 0.018079769 0.20946436
0.042064007 0.11054392 0.06556325 -0.08571912 0.06488558 -0.019944323 0.0616958 0.10467487
0.015601667 0.060468875 -0.015966779 0.059521355 0.07981831 -0.09114659 0.031314872 -0.066247195
0.032689743 0.028759202 0.08127815 -0.015742276 0.13505377 -0.1561095 -0.18072078 0.0769483
0.042799976 -0.12859829 -0.054164678 -0.21288322 -0.09597601 -0.07369196 0.023234554 -0.048868086
-0.0602434 0.06116379 -0.028519083 -0.09128799 0.064539075 -0.08329519 0.16119225 -0.025718138
0.044020932 -0.045760572 -0.1532164 -0.051554102 0.089034386 0.16715623 0.17504348 0.0022672762
0.24934457 0.072425924 -0.047711108 0.089726016 -0.05880311 -0.039225973 0.12772663 0.05264087
-0.023234246 0.034465134 -0.036703344 -0.06695849 -0.036423646 -0.12870401 0.20229074 -0.0795397
0.1305559 0.0972076 -0.028124407 0.015401632 0.041223403 -0.06957771 0.10442658 -0.034468092
0.085615054 0.14437509 -0.11214598 -0.17355183 -0.09626506 -0.09671124 0.13439314 0.03540387
-0.010029165 -0.053908136 -0.08441467 -0.13597743 -0.1110291 0.06271399 0.06613687 -0.35402697
0.1683353 -0.021880938 -0.08899907 -0.012516414 -0.0259875 -0.014476318 0.06603675 0.05689575
0.047472004 0.0736561 0.090351455 0.18439919 0.14479862 -0.098335676 0.09719272 0.14067057
0.29296204 0.13204053 -0.0024633 0.01692699 0.085231364 -0.033694923 0.10295095 -0.036287468
-0.0071346927 -0.031129584 -0.09503554 0.10513117 -0.14346956 -0.07808158 -0.01013267 -0.04480704
0.21217433 0.008296323 0.19948757 0.09865803 -0.103699386 -0.21270771 -0.14089733 0.040164255
0.01554012 0.002885193 -0.019081017 -0.2526395 0.17898417 0.010489137 0.07730409 0.12813732

RNN.bias_ih_l0 f4 [200]
00000000: 355d 823e 7022 33be bb46 393d 76ac 0dbe
00000010: 327a e43b 8dfc 8ebd e435 3d3c dea4 b9bd
00000020: 2c61 2ebe 21db 183e 4157 843c acb4 fb3c
00000030: 98d3 d7bd 5726 53bd 7892 fa3d 4696 02bd
00000040: d186 d1bd cf78 223e 4d8c 08be 5cba 853c
00000050: a755 b1bd 303d d03d 05be 763e 3bb3 1d3e
00000060: 47d8 7a3e 0daf b33d 8d8d 95be 53ba df3d
00000070: f653 303e 86c7 b63d 6282 353d 6710 583e
00000080: e86e 4ebe 2b9e 853d e1c3 303e 6882 b43d
00000090: 5ebe 823c c75b 7a3e 9dc4 a7bc bda1 193e
000000a0: f17c cbbd 53c4 1f3e 0225 313d bf54 6abd
000000b0: e3b9 8ebd a7ea 9d3d fe7c 2cbe e695 493d
000000c0: 6af8 8e3c ddb7 473e 848c e0bc 3081 30be
000000d0: 4c25 16bd 3599 16be 05b9 08bd 4ad5 14be
000000e0: 8d6c cbbd 2c00 45be d23e 53be e83c 373e
000000f0: 6eb8 33be 7b4d 88be 4dfb 20be dcb3 153e
00000100: 9833 e1bd ca36 013d 3aea ebbc de3b 8f3d
00000110: ee0c 0dbe 16b3 41be de51 b3be 3102 1ebd
00000120: cda3 29be 34bc 073d 4560 003d dee4 3e3d
00000130: e2a3 54be dbcd 29be b872 0fbe 2473 1ebe
00000140: 1a6c 6c3d b420 8ebd a1a7 8cbb 99eb 91bd
00000150: 3c89 f8bd dbf0 c5bd 3d45 74be 3fda 9fbd
00000160: cc65 32be 404c 95bd 771e 2bbe f913 dabd
00000170: e44b 60be bdc2 4dbe f89a cebd ce14 2fbe
00000180: 1580 0f3d bc4b 8abd b246 25bd ccaf 0fbe
00000190: 56c5 0a3e 1533 df3d 1ec6 d93c 82ed 993d
000001a0: d18d afbd 74b8 efbc a2e2 143d 1a8f 71bd
000001b0: feac 85bc bc67 a93d d7ea 7dbd aea8 3d3d
000001c0: 6ac2 d93d da0e 39bd d52c b6bd 4353 f33d
000001d0: 5684 8ebd 9669 233d 2827 0abd aa57 d53c
000001e0: 42fb 2b3d 5933 fbbd cfe5 a4bc ed90 013d
000001f0: 48a0 653d 5248 c4bd 46ad 21bd cd89 b2bd
00000200: a668 d53c 8ba4 eebd 7876 d5bd a3b0 ca3c
00000210: d0d8 593c a81b 203c 9674 d93d 71ab 253e
00000220: 4f96 7c3d 6b73 b1bd d84c c13b 330b af3c
00000230: ddd5 a0bd 22c4 da3d 4703 bcbb 3e6e 04bd
00000240: a4b3 dc3d 79b0 afba 6982 c43d 5171 b23c
00000250: 66cc 56bb ca9a 983d 666c 1a3e 4691 16be
00000260: c05d d93d a368 b1bd bee0 7bbd d9e3 5a3d
00000270: 1e2a 9b3c fb00 973d e934 debd a480 343e
00000280: 541e 2abd d53f f6bc 836f 38be 5b93 3d3d
00000290: 3c0b 7fbd faee e73d 4205 c1bd de7d f6bc
000002a0: fa3a 52be 16ba 59bd 566e 15be eab3 783d
000002b0: 7349 523e 1e94 37bd 15c0 8e3d a450 86bc
000002c0: 019b fbbd e232 18bb 1bc3 243e 8536 aa3d
000002d0: 94e1 9f3d 9060 d83d 941c 143d 0d0f 6a3d
000002e0: 1bf3 803d cb9a 9fbb 8935 77be fd99 b83d
000002f0: c458 2cbe a154 0c3d 41eb 08be c9de 373e
00000300: 5627 a13d cae6 08bd 52c6 6b3d 4ae4 4cbc
00000310: 55f4 153d e316 163e 05f8 b5bc 2e69 643e
0.25461736 -0.17493606 0.04523347 -0.1383532 0.0069725746 -0.06981764 0.011548493 -0.09064649
-0.17029256 0.14927341 0.016154887 0.0307258 -0.10538405 -0.051550236 0.12234968 -0.031881593
-0.10230792 0.15866397 -0.1333477 0.016324215 -0.08658915 0.101679206 0.24095924 0.15400402
0.24496566 0.08773623 -0.29209557 0.109242104 0.17219529 0.08924775 0.044313796 0.21100007
-0.20159495 0.06524309 0.17262222 0.088139355 0.015959915 0.24449073 -0.020479495 0.15003105
-0.0993594 0.15602235 0.043248184 -0.057209726 -0.06969049 0.07710772 -0.16844556 0.04921522
0.017452437 0.19503732 -0.027410753 -0.17236781 -0.036656663 -0.14706881 -0.033379573 -0.14534488
-0.09932814 -0.19238347 -0.20629433 0.17894328 -0.17550823 -0.26621613 -0.15720864 0.14619392
-0.10996169 0.03154639 -0.028798211 0.06993841 -0.13774464 -0.18915972 -0.35023397 -0.03857631
-0.16566391 0.03313847 0.03134181 0.046604984 -0.20765641 -0.16582434 -0.14008605 -0.1547361
0.05772028 -0.069398314 -0.004292444 -0.07125015 -0.121355504 -0.0966508 -0.23854537 -0.07805299
-0.17421645 -0.07289934 -0.1671084 -0.10648341 -0.2190395 -0.20093818 -0.10088152 -0.1709778
0.035034258 -0.067527264 -0.040350623 -0.14031905 0.1355184 0.10898415 0.026583727 0.07516004
-0.08571971 -0.029262759 0.036348946 -0.058974363 -0.01631784 0.08271739 -0.06199154 0.046303444
0.10632785 -0.04518018 -0.0889527 0.11881115 -0.06958835 0.039895616 -0.03372875 0.026042778
0.041987665 -0.12265653 -0.020129113 0.031632353 0.05606106 -0.095841065 -0.039471887 -0.0871769
0.026050877 -0.11652478 -0.10422987 0.02474243 0.013296321 0.009772219 0.1061794 0.16178681
0.061666783 -0.08664592 0.005899053 0.021367645 -0.07853291 0.106819406 -0.0057376954 -0.032331698
0.10776451 -0.0013404033 0.09595186 0.02178255 -0.003277564 0.07451399 0.15080413 -0.14703855
0.106135845 -0.08662536 -0.061493628 0.05343995 0.018940981 0.07373234 -0.108499356 0.17627198
-0.04153283 -0.030059734 -0.18011288 0.046283107 -0.062266573 0.11324878 -0.09424831 -0.030089315
-0.2053031 -0.05315598 -0.14592871 0.060718454 0.20535831 -0.04481899 0.069702305 -0.016395874
-0.12285424 -0.0023223688 0.16090052 0.0831118 0.078066975 0.10565293 0.036160067 0.05714326
0.06296369 -0.0048707477 -0.24141516 0.09013746 -0.16830736 0.034260396 -0.13370992 0.1795608
0.07868831 -0.033423223 0.05756218 -0.0125056 0.036609966 0.14657168 -0.022212991 0.22305748

RNN.bias_hh_l0 f4 [200]
00000000: ca23 4f3e d056 3fbe b4ad 64bd 6256 eabd
00000010: a62a 633e 13bd ccbd 8cad 9b3b f9a0 41bd
00000020: a602 07bd 2b48 c43d 4561 1a3d 55d7 eb3d
00000030: 169d 2b3c 3432 32be e2a4 c13d 6e14 143e
00000040: 2bfe 8fbe ca60 c83d 7895 80bd a875 85bd
00000050: cf66 2dbc 90b7 923e 2154 7f3e 6252 133e
00000060: b73e 623e 530e 3f3e 665b 7dbe 832b b93d
00000070: 39a9 1d3e da6d a33d 2d35 53bc 07b7 833e
00000080: 22c0 6ebd e608 bd3d 6c15 78bd 641c e93d
00000090: 8aad 1ebe a8e9 a63e d0f0 60be 4e99 c9bc
000000a0: 0356 0abe 9e00 b13d 28b9 0e3c d08f aabd
000000b0: 8ebb cf3d 0af7 f43a c99a f5bd 9a00 cd3d
000000c0: 671f 95bb 17b5 e33d 3649 05bd 167a 5dbe
000000d0: b91b bfbd 765d 38be 6e7a d0bc a7df 18bd
000000e0: 9292 a63d c3e5 7d3d 14a6 7ebe f804 a93a
000000f0: 9574 b33b 6368 30be 4a27 80be a699 b2bc
00000100: 28af e23c 9102 40be 2615 ecbd e7f9 35be
00000110: a3a0 153d 0022 4bbd 520f f6bd 5bec ccbb
00000120: dcea e8ba bb48 aa3d c8e2 433a 8c93 30be
00000130: 287b 34be 062e 133d 9ed8 50be 1eb1 a1be
00000140: 3270 39be 2a2e f6bd c092 cabd a8f9 24be
00000150: a9ed 2abe 2de0 be3d 9b5a 4fbe b0de 93bd
00000160: 7068 743c 6f0a 30be 855d 6bbe 309b ad3b
00000170: 6433 8ebd b2d1 50be 9089 613d 8f23 e3bd
00000180: cb68 90bd ed55 913d 8b83 c6bc 9348 a33b
00000190: 9f1b 02bc 6b2f e13d 2e23 7e3c 7f45 5f3c
000001a0: 65df 0d3e fc24 a5bc 07ca c2bd 8ad7 623d
000001b0: 0408 80bd f3b0 09be bd92 4e3d 10c5 aebd
000001c0: eaf7 4bbc 3409 7ebd 2c99 a43d 6d77 87bd
000001d0: 2f93 053d 9d8b a93b 40ec c03d d571 74bd
000001e0: 4851 afbc d149 b43c 2efb d5bd 782a d9bd
000001f0: 0b56 b3bd a815 ca3d 0ccd bc3c a1b2 c1bd
00000200: dc0b d8bd a535 023e 35ba 813c bddb bebd
00000210: 2131 333d dfc8 b13d 23cd 31bd 4c6a dbbd
00000220: 33d4 85bd 036d e53d 7912 de3b cbbc d83d
00000230: 37cc dc3d e442 27bc db5a 36bd 9adc 633c
00000240: 0e70 833c b9eb 25bd b7b5 8ebd d4e2 cdbc
00000250: 4e70 67bd 4ad2 a03c 2255 4a3e 08ba 5fbd
00000260: 307a 843c ac8f 803b 032d f43d 8dc2 80bd
00000270: 7f82 273d 16f0 e6bd c09b 50be 4fa0 b93d
00000280: 9301 d3bd d07d 963d 2f23 39bd 071c 7c3d
00000290: 1ec2 123c 329b 943d a69e d6bd 8625 dc3d
000002a0: 4541 b3bc ae67 13be 1641 45be b271 8b3e
000002b0: ffc1 593e def5 073d 9075 213e b851 cabc
000002c0: 63f1 19be df51 15be 3b35 3a3e d01d eebd
000002d0: 2e52 363d 0a65 8f3e ca15 0cbe 2498 fbbc
000002e0: ada2 203e 1407 243d 8dac 92bd 05f8 733e
000002f0: 4a37 66bd aed9 d5bd 9284 6b3d 5a30 6e3e
00000300: 07b0 10be 8f50 94bd da46 37bc 35ed 063d
00000310: 7b7c 43bb 24cc d23d 3be8 9d3d 0fa2 923e
0.20228496 -0.1868546 -0.05582972 -0.114422575 0.22184238 -0.099970005 0.004750913 -0.047272656
-0.03296151 0.095840774 0.03769042 0.11515681 0.010474464 -0.17401963 0.09455277 0.14460918
-0.28123602 0.09784086 -0.06278509 -0.06516582 -0.0105835935 0.28655672 0.24934436 0.14386895
0.22094236 0.18657808 -0.24741897 0.09041502 0.15396585 0.07979937 -0.012891096 0.25725576
-0.0582887 0.09230213 -0.060567304 0.11382368 -0.15495887 0.3260014 -0.21966863 -0.024609234
-0.13509373 0.08642696 0.008711137 -0.08328211 0.10143195 0.0018689346 -0.119924136 0.1000988
-0.0045508626 0.111185245 -0.032540523 -0.21628603 -0.093314596 -0.18004403 -0.025449004 -0.037322666
0.08133425 0.061986696 -0.24868041 0.0012895158 0.005476544 -0.1722732 -0.25029975 -0.02180178
0.027671412 -0.18750979 -0.11527471 -0.17771111 0.03653015 -0.04959297 -0.12014641 -0.0062537617
-0.0017770189 0.083146535 0.00074724527 -0.17243785 -0.17625105 0.035932563 -0.20395133 -0.31580442
-0.18109205 -0.12020524 -0.098912716 -0.16110861 -0.16692223 0.09320102 -0.20249407 -0.07220209
0.014917478 -0.1719148 -0.22984894 0.005298041 -0.06943396 -0.20392492 0.05506283 -0.11090767
-0.07051238 0.07096467 -0.024232646 0.0049830168 -0.007941156 0.109953724 0.015511317 0.013627409
0.1385475 -0.020159237 -0.0951119 0.055381335 -0.06251529 -0.13446407 0.05043291 -0.085336804
-0.012449244 -0.062020496 0.08037028 -0.066145755 0.03261107 0.005174114 0.09420061 -0.05967887
-0.021401063 0.022007855 -0.10448299 -0.106038034 -0.08756646 0.09867412 0.023046993 -0.09457899
-0.10549137 0.12715776 0.01583586 -0.093192555 0.043748025 0.08680891 -0.043408524 -0.10713634
-0.065346144 0.11202433 0.0067771045 0.105828844 0.107811384 -0.010208819 -0.04452024 0.013907576
0.016044643 -0.040508006 -0.06968253 -0.025132574 -0.056503586 0.019631524 0.19759038 -0.054620773
0.016171545 0.003923377 0.11922648 -0.062871076 0.040895935 -0.112762615 -0.20371914 0.090637796
-0.10303035 0.073482156 -0.04519957 0.061550166 0.008957414 0.07256164 -0.104794785 0.107493445
-0.021881709 -0.1439502 -0.1926311 0.2723518 0.2126541 0.03319346 0.15767503 -0.02469717
-0.15033488 -0.14582013 0.18184368 -0.1162678 0.044511966 0.28006774 -0.13680187 -0.030712195
0.15687056 0.040045813 -0.07161818 0.2382508 -0.05620507 -0.1044191 0.057499476 0.23260632
-0.14129649 -0.07241928 -0.011186326 0.032941062 -0.0029828835 0.10292843 0.0771031 0.28639266

RNN.weight_ih_l1 f4 [200, 50]
00000000: 0bd4 0b3e 19b2 9b3d 0627 c73d b9e8 313d
00000010: 395c 043c b239 c43c 62c6 cd3d 54b0 373d
00000020: d0c6 adbd 2c80 213d 1252 55be 21e9 02be
00000030: af9c 94bc 48a0 d5bc 9bcf e0bc c32f c4bc
00000040: 8e23 b4bd a598 73be f234 14be 61e7 193c
00000050: 4e73 0ebe 63e7 55bc 822e 123e 684f adbc
00000060: 2bb2 a93d 3dbd 89bd 1ee6 07be 105b e7bd
00000070: e173 b4bd a5d8 a6bd f4a8 043e 98bd cabd
00000080: bcc3 013e 87e0 bdbd 6cd4 e3bd 4498 973b
00000090: 9215 cdbc 6ce7 b2bb 4433 673b 6ad1 e5bb
000000a0: 630b b83d f06e 9fbc 8e5f 04be 3912 b03d
000000b0: 3665 223d 6200 763e 679d 2c3d 1ade a13d
000000c0: 07a5 9c3d f8f9 f93d 6dbd 8a3e 1104 41bd
000000d0: da4b 263e 84b0 803e f0c7 a33d f4e5 8dbe
000000e0: 2234 7bbe 0b25 f6bd 75df 38be b176 293e
000000f0: 46c5 073e 6098 a4bd 967a 273e d679 43be
00000100: 80fc 323a 560a 8ebc 587e 0f3e 00c7 5cbe
00000110: de75 b5be 5b0c 93be 00c8 4d3d f31b 8bbe
00000120: 64cf 94be 8f68 c4bd 1841 0b3b 1b91 1f3e
00000130: 70ce 2a3d fc6e 89be 7bd5 e4bd 61f8 163d
00000140: 2cb5 a9be 0b9b 9fbe 39d8 53be d4c1 ba3d
00000150: e700 703e d011 b43e 6741 24be 9f7f 6a3e
00000160: 2e45 78be 1204 8a3e c6f7 ebbc 84c6 113e
00000170: 5a2e a13e 4c52 b5bd 7c94 5c3e 83e9 68bd
00000180: 8bc6 853e 8a1d 933e 99b2 133e 4060 6b3e
00000190: e33b bcbc 28df e13d 9e23 babd 6c01 4abd
000001a0: 5ae4 22be f082 ac3c 266c b1bb 6c85 f4bc
000001b0: daf8 d6bd 8121 893c b5fc 6b3a bd2e b93d
000001c0: c46d 71bd 68b0 3dbe c598 2b3d de65 10be
000001d0: 8a68 04be 5cf6 11be 25af e8bd af39 7f3d
000001e0: 9222 80bd bf67 343e 9a5a c8bc 8360 2abd
000001f0: a8aa cd3d d32b a7bd 6e27 413d ab3d aa3d
00000200: a9bd 523d 5fba b43c d7ca fe3d e707 26be
00000210: 71d1 d03d a22e 153d 71ad b4bd 945e 36be
00000220: 7e61 34bc 9356 ec3c 4db1 0ebe 6313 36bd
00000230: 957b 903d 73a8 94bc 9841 0ebe 1e70 3bbc
00000240: 31b3 c63d 107d ae3d 4676 0e3d 646e 27be
00000250: a2aa 1b3e 4d0f dcbd f92b e33d b9b1 17bd
00000260: ca01 bd3d 7c14 f23d acaa c7bc 09aa 8f3c
00000270: 5cf2 94bd 2da0 02be 4d76 a13d 6c16 993e
00000280: 24fe 95bd 96cc 803d 4993 c2bc 1a6b 303e
00000290: c4a1 b0bd 87d2 fdbc 1245 9ebc bf1d 27be
000002a0: 91b5 41be 9bfb d2bd 4609 b43d fc4c 0c3d
000002b0: 5e0a f73b 383e 40bc e34e d73c c2ee 923e
000002c0: abc4 d43d d4d7 efbd 4a2a af3c 62d8 46be
000002d0: 71aa 16be 7c5c d3bd 94b3 e2bd 3f02 9c3d
000002e0: 934c 613d cda9 023e c967 713b 3a97 2a3e
000002f0: 812a 36be 37a1 373c 69b7 c83d 2273 46bd
00000300: 0d62 1a3e 1cc8 943c eb8e 3fbe 09d8 ad3c
00000310: 91e9 60bd 620e 8bbc 9617 b0bb 5997 e53c
00000320: 4d21 9d3c 3049 023e 70a4 3bbe 448c f33c
00000330: c262 06be 01c3 f53d 4d13 1d3e dff0 533c
00000340: f682 1b3e df84 2d3b adb3 38be 93c1 e93d
00000350: 67c8 193d 8212 37be c330 d9bc d8b9 d6bd
00000360: e5be ea3c bb36 a43d db48 403e 099f f63d
00000370: 5c72 0dbd 85f0 c33d 106b 063d aee8 293e
00000380: 8cba e3bd cc55 233c 7f94 c2bd 92d3 303e
00000390: e8d1 d2bd 505e 98bc e8ef 243e e8b2 8bb9
000003a0: 3c4b 833d f384 44be ec0c 80be d21f 2e3d
000003b0: 24b5 0b3e c6dd 2a3b 7ff1 a2bd 4d06 e7bd
000003c0: 1b01 0b3d 43c3 d0bc 75c4 c1bd 7079 6e3c
000003d0: 8229 5cbd 0a14 873b b1fb 363d ac0a 953d
000003e0: 7cb5 a3bd b7da 70be 56eb 66bd 14f7 733d
000003f0: c96c 3cbe 0b8d 58bd e86b 2cbd 48c7 90bd
0.13655107 0.07602329 0.0972424 0.043434832 0.008078628 0.023953293 0.10047604 0.044845894
-0.08485186 0.039428875 -0.20832089 -0.12784244 -0.018141119 -0.026077405 -0.027442744 -0.023948556
-0.08795844 -0.23788698 -0.14473322 0.009393544 -0.13911173 -0.013055655 0.14275554 -0.021156028
0.08285936 -0.067255475 -0.13271376 -0.11296666 -0.08811165 -0.081467904 0.12955076 -0.098994434
0.12672323 -0.09271341 -0.11124501 0.004626306 -0.0250347 -0.0054597165 0.003527836 -0.0070134895
0.08986547 -0.019462079 -0.12927076 0.08597226 0.039647304 0.24023584 0.042142298 0.07903691
0.07648664 0.12205881 0.27097645 -0.04712302 0.16239873 0.2513467 0.079971194 -0.27714503
-0.24531606 -0.12018784 -0.18053992 0.16549183 0.13258848 -0.08036876 0.16355357 -0.19089445
0.00068277866 -0.017338913 0.1401304 -0.21560287 -0.35441488 -0.28720364 0.050239563 -0.2716976
-0.29064476 -0.095902555 0.0021248516 0.15582697 0.04170078 -0.26842487 -0.11173531 0.036857966
-0.33146036 -0.31172976 -0.20687951 0.09119001 0.23437844 0.3516984 -0.16040574 0.22900246
-0.2424514 0.2695623 -0.028804671 0.14235884 0.31480676 -0.088535875 0.21541017 -0.05686332
0.2612804 0.28733474 0.14423598 0.22985935 -0.022977775 0.11028892 -0.09088825 -0.049317762
-0.15907422 0.02105853 -0.0054145036 -0.029848777 -0.104966834 0.016739609 0.0009002195 0.09042118
-0.05894257 -0.18524325 0.04189374 -0.14101359 -0.12930503 -0.14254135 -0.11361531 0.06231087
-0.06256594 0.17617701 -0.024457265 -0.041595947 0.10042316 -0.08162656 0.047156744 0.083125435
0.051450405 0.022061525 0.124410324 -0.16213952 0.10196198 0.036421426 -0.08822144 -0.17809516
-0.011009572 0.028849876 -0.13934822 -0.044452082 0.070548214 -0.01814673 -0.1389221 -0.011440305
0.09702147 0.085199475 0.034780763 -0.16350704 0.1520181 -0.10745106 0.110923715 -0.037034724
0.09228857 0.11820313 -0.024373375 0.017537134 -0.07272789 -0.12756415 0.07883892 0.2989992
-0.07323864 0.06289022 -0.023751872 0.17228356 -0.08624604 -0.030984176 -0.019320045 -0.16319941
-0.18916918 -0.10301896 0.08790831 0.034253106 0.0075390777 -0.011733584 0.026282733 0.28697783
0.10389074 -0.11711088 0.02138247 -0.19418481 -0.14713456 -0.10320374 -0.11069408 0.07617616
0.055004667 0.12760086 0.0036835542 0.16659251 -0.17789651 0.01120787 0.09800608 -0.048449643
0.15076466 0.018161826 -0.18706863 0.021221178 -0.054910246 -0.016974632 -0.0053739054 0.02802627
0.019180918 0.12723231 -0.18324447 0.02972997 -0.1312361 0.12000085 0.15339394 0.012935846
0.15186676 0.0026476902 -0.18037291 0.114138745 0.037544634 -0.17878154 -0.02651251 -0.10484666
0.028655479 0.080182515 0.18777792 0.12042052 -0.03453289 0.0956736 0.032816947 0.16592667
-0.11119565 0.009969186 -0.0950098 0.17268208 -0.10293943 -0.01859966 0.16107142 -0.00026645442
0.06410834 -0.19191341 -0.2500986 0.042510815 0.13643318 0.0026072129 -0.07956218 -0.11280499
0.0339366 -0.025483733 -0.09461299 0.01455532 -0.053750522 0.004122262 0.044673625 0.07277426
-0.079936 -0.23520933 -0.056376778 0.059561804 -0.18400873 -0.052868884 -0.042095095 -0.0706926

RNN.weight_hh_l1 f4 [200, 50]
00000000: c4de 073e f492 59bc 94d9 883d 0cd8 24bd
00000010: 6774 71bd aa2d d03d 5930 ca3d 9b8b 02be
00000020: e6b4 94bd 9462 a3bd b8a7 b0bc bc94 fd3c
00000030: 166c 053e 7494 da3a 5b6c abbd 9ba6 3a3e
00000040: 3a59 4bbd c576 39be 7091 1c3e cc91 433d
00000050: d2e2 20be 9f98 45be b5c7 84bd f4ae e0bb
00000060: 95a1 343e 16ed 1dbe 5d13 09be 1c57 14bb
00000070: 9819 babc 7720 1abd 76d6 cb3d e6e3 11bd
00000080: 882c 363e 5e1c 783e f611 9ebd 7770 243e
00000090: d54e 02be 350b 03be 735a 523d 6d30 b3bd
000000a0: 7819 be3d c7b2 8c3d 618f b43e 3c07 073b
000000b0: 0c48 9d3c eaa4 8ebd 1f68 bbbc 6fbc e2bd
000000c0: 4ee8 e03c 10c2 aa3c ad3a 213e 8aea 96be
000000d0: cff5 7d3e fc3e 08be fe20 d8bb ac84 8a3e
000000e0: 92e2 9c3e 058f c2bd c338 4abe c2c7 633e
000000f0: ea6f 9fbe ff54 62be 5e84 843e 74a9 8d3e
00000100: fff5 683e 48bc 8b3d 8bb6 03bd 8a0b 6ebe
00000110: 36b6 7b3d dede fabd bb5f e8bd f8cc 8dbe
00000120: eab9 053e e7cf 693e 8231 833e 1376 033d
00000130: 8acc 193e 4e67 89be 9a13 303e 2c3c b3bb
00000140: b18a 523e 3b08 5ebe 5d03 073e 7e29 883e
00000150: 04ce d93d cfc2 f13d 449d f9bd 6c35 88bd
00000160: 4c95 19be 1908 39be 7cd9 a8bd 9b07 c6bd
00000170: 8707 f83d 7d21 5b3d 14fd 883e ccb7 45be
00000180: 8faf b63e 87a1 bfbd 6ed8 8bbe 88d8 f3bd
00000190: b3b4 3c3e 456c ccbd 89fa ecbd 8f15 78bd
000001a0: 5ae9 c6bd f99d e6bb 68ff f5ba d1c2 3dbd
000001b0: 6144 363e f804 a7bd 7325 cfbd 510e d03d
000001c0: 8ca9 b0bd 3ab0 54bd 282f 82bd 0f40 50bd
000001d0: 9d61 3cbe 2c7b 62be 4fb9 e4bc 0ee8 cbbd
000001e0: 894c d33d 1cd6 26bc d365 743d 0e42 4a3d
000001f0: cbb5 703c 12d5 fdbd 5ef9 7fbd 2831 9e3d
00000200: 43da babc bcea ce3d e482 1dbe e64d 9ebd
00000210: 54a6 2c3b 5103 6a3d 4347 c6bd b85f fdbc
00000220: 9599 063e b0bd 12be 6fd7 9a3d 3ccf 153e
00000230: 7a6c 163e 12be 373d b975 653e 2aaf 30bd
00000240: 1844 243d 6961 1f3e b3ca 0bbe a210 9d3d
00000250: 143a 213e ed5d c4bd 6cd0 ea3c 483f 213e
00000260: 90eb 64bb 7981 6fbd f20a 413e 277a 4e3e
00000270: a874 4fbe 2f38 2c3e 6043 41bd 595f 3a3e
00000280: 428d 0bbe aa7b 283e 44b0 cc3d d5e7 55bd
00000290: 1a1f 0bbd 9227 513e 696d 363e 54bc 333d
000002a0: e4a8 993d 7ed6 753d 9740 1cbe 44aa 073e
000002b0: fcdb 0b3e e537 983e d387 9dbd aabc efbc
000002c0: 2c23 98bd 5f3f a73b 14f2 96bc c421 7abc
000002d0: 118b 473d 0ba0 ea3d 0e71 963d 5b01 2abd
000002e0: ff81 583d 59e6 793e f2ac 31bd 7223 55bd
000002f0: a3e0 6c3e 26dc f8bd 599e d2bd 1202 ca3d
00000300: be81 5b3e 287e 5fbd ab64 9b3d eae3 02be
00000310: c661 9d3d 1450 6f3e 4697 0cbc 7291 0ebd
00000320: 7ad5 d93d db51 15bd 2868 77bd 3abf 193e
00000330: b714 76bd 0a93 0fbc 6a76 9e3d e593 7d3d
00000340: 6921 983d 164f 5ebe 447a b33d e5d6 953d
00000350: 5ab4 07be 72f1 a3bd 998c 24be 0456 e13d
00000360: 2861 cdbd b162 13be edf0 973d 8e5e c3bd
00000370: ba7b ff3c dd4a d3bc 8aeb 92bd 8db5 3dbe
00000380: 5256 c13d 62b5 f7bd b0a2 e7bd fe62 9ebd
00000390: 81fc 40bd 6cc1 593d db55 14be d12c 2b3c
000003a0: 5a6e 2bbe 3d42 b8bc b9c2 23be 6c8a 6d3d
000003b0: 38a9 dbbc 9ac8 2ebc 934f 41bd b791 40bb
000003c0: 6fcf 0b3d 8a60 2d3e cfc4 3a3e c0f4 1bbe
000003d0: be06 923d b933 0bbd 26ac 17bd 0053 56be
000003e0: bc44 833c dcc5 f03d 729d 393e c7a3 023e
000003f0: 6f89 4dbd 40af 003d 35a5 6a3e 7d21 e8bd
0.13268572 -0.013279665 0.06682125 -0.0402451 -0.0589489 0.1016496 0.09872503 -0.12748568
-0.07261066 -0.07977787 -0.02156435 0.030954711 0.13029513 0.0016676323 -0.083702765 0.18227617
-0.04964564 -0.18111713 0.15289855 0.047746465 -0.15711525 -0.19296502 -0.064834036 -0.0068567935
0.17639764 -0.15422472 -0.13386293 -0.002263493 -0.022717282 -0.037628617 0.099530146 -0.03561773
0.17790425 0.24229571 -0.077182695 0.16058527 -0.12725385 -0.12797244 0.05135579 -0.08749471
0.092822015 0.068700366 0.3526564 0.0020603677 0.019199394 -0.069650486 -0.022876797 -0.11071097
0.027454522 0.02084449 0.1574504 -0.29475814 0.248008 -0.13305277 -0.00659573 0.27054346
0.3064161 -0.09499935 -0.19748215 0.2224417 -0.3114007 -0.22102736 0.25882238 0.27668345
0.2275009 0.06823021 -0.03215651 -0.2324659 0.061453067 -0.1224954 -0.11346384 -0.2769544
0.13059202 0.22833215 0.2562371 0.032095026 0.15019432 -0.26836628 0.17194977 -0.0054698195
0.20560719 -0.21682827 0.13184877 0.26594156 0.106349975 0.11804735 -0.12188199 -0.066508144
-0.14998358 -0.18069495 -0.08244607 -0.096694194 0.12110811 0.053498734 0.26755583 -0.19308394
0.35680816 -0.09356981 -0.2731356 -0.119065344 0.18428306 -0.09981588 -0.11571223 -0.060567435
-0.09712477 -0.007037875 -0.0018768134 -0.04632837 0.17799522 -0.081552446 -0.10114565 0.10158981
-0.086260885 -0.051925875 -0.063566506 -0.05084234 -0.18396612 -0.22117299 -0.027920393 -0.0995637
0.10317332 -0.010182884 0.05966742 0.0493794 0.01469178 -0.123941556 -0.062493674 0.077242196
-0.022809153 0.10103366 -0.15381962 -0.07729702 0.0026344256 0.05713207 -0.09681561 -0.030929431
0.13144524 -0.14330173 0.07560622 0.14629835 0.14689818 0.044859 0.22408189 -0.0431358
0.040104 0.15564503 -0.13651542 0.07669188 0.15744811 -0.095882274 0.028663836 0.15746796
-0.0034930445 -0.058473084 0.18851832 0.20163785 -0.20259345 0.16818307 -0.047183394 0.18200435
-0.13628104 0.16453424 0.099945575 -0.052223045 -0.033965208 0.20425251 0.17815174 0.043880776
0.075029165 0.06001901 -0.15259014 0.13248545 0.13658136 0.29730144 -0.07691922 -0.029264767
-0.074285835 0.00510399 -0.018425979 -0.015266839 0.04871661 0.11456307 0.07345782 -0.0415052
0.05285835 0.24404277 -0.043377824 -0.052035756 0.23132567 -0.12151365 -0.10284109 0.09863676
0.21436211 -0.05456367 0.0758756 -0.12782255 0.076846644 0.23370391 -0.008580988 -0.034806676
0.106364205 -0.036455017 -0.060402066 0.15014353 -0.06007835 -0.008763084 0.077374294 0.06190862
0.074282475 -0.21709856 0.08763555 0.073163785 -0.13252392 -0.080050364 -0.16069259 0.11002734
-0.10028297 -0.14393117 0.07419 -0.09539519 0.031186927 -0.025792534 -0.07173832 -0.18526287
0.094402924 -0.12095143 -0.11310327 -0.07733725 -0.047115806 0.053162977 -0.14485876 0.010447697
-0.16741315 -0.022492522 -0.1599225 0.057993338 -0.026814088 -0.010667944 -0.04719503 -0.0029383728
0.03413337 0.16931358 0.18239139 -0.15230083 0.07130192 -0.033984873 -0.037029408 -0.209301
0.016023986 0.11756489 0.18126467 0.12757789 -0.050179895 0.03141713 0.22914584 -0.113345124

RNN.bias_ih_l1 f4 [200]
00000000: 6c0a e53d 5def 073e ab33 22be ee69 1a3e
00000010: 151f f0bc c0fa 8fbd a23a 393e dcba 5bbe
00000020: 7f5d 01be bd6e e33d 8991 9bbd ceaf 64bd
00000030: 287d 19bd 44ab 47be 8ffb 913e 2c6e 33be
00000040: e0f0 91be 411a 00be 10db 3cbd 5a22 5ebd
00000050: 1f1b b63d 8fd1 44bd 7dbb 3bbe 90fe 353e
00000060: a769 513e 1268 4f3c 58de 15bd 4926 683d
00000070: d219 9cbd cac3 033e 6e40 613c d306 ad3d
00000080: 62e9 4dbe 14b2 acbd 9d0e 803d e61d b2bd
00000090: 54a1 113e 0bb5 74be 49e8 213d bdb3 fd3c
000000a0: c589 613e 620d d63c c26a 02bc 30b1 0dbe
000000b0: b79b 3fbe c0a5 793a 1c13 593e be2d f93a
000000c0: f499 9a3b 01b2 afbd 6a6e 49be 7c2e f9bd
000000d0: 03ae ffbd 0ce2 743d f535 86be 8595 04be
000000e0: 0363 27be 17d0 52be b669 82bc 3b4d 48be
000000f0: 373b 99bd e322 083d 6aa4 a6bd 4a28 12be
00000100: a926 a5bd 037b a7be 5d47 b0bd 8b9e 0fbe
00000110: 97e7 0fbe 20d8 dfbd f538 07be e4f5 c6bd
00000120: 95e1 bbbd 07d6 09bd e8a8 a2bc e0b9 0e3d
00000130: c129 52be 0fa3 8a3d 7eff 87bd 8fad 883d
00000140: c760 abbd bd44 773d 5810 443d 8327 97bd
00000150: cf1c a5bd 197c 54be 4221 b2bc 8e2a a9bd
00000160: 1a51 d5bd a4cd e2bd 20cd 05be 50d0 4ebe
00000170: 1897 b7bd 8e79 d43c d335 86be a2f4 46be
00000180: ce0a 33bd ea93 af3c e218 35be c0ef f73d
00000190: 434a 1e3d d24e 45bd 7385 bbbd 45c1 08be
000001a0: 7fa0 233b 03e5 17bd 9c24 72bc 665a 3e3d
000001b0: 0eb8 003d c76f 0b3e ac50 c43d 94f4 07bb
000001c0: 1a4b 973c c233 c8bc 535c f0bc 548b 2abe
000001d0: 9999 09bd e0fa 263d 501b 3a3c 91f4 b43d
000001e0: 42f2 e5bd 9505 0abe 7a3f 3a3d 04a7 cfbd
000001f0: 477f 24be 64b0 713d 90bf 333e 9827 903d
00000200: 685c 8b3d 5de1 babb 88b4 0e3c a0b1 b9bc
00000210: 23f7 503c ff07 2c3d 2790 04be 2b61 6cbd
00000220: 70cc 083d 1944 01bd d4e5 bcbc 026d d6bc
00000230: 564e a3bd fe6a 29be dcdc d43b b181 b23d
00000240: 9908 09be da4a 86bb ded0 453d 1ec6 903d
00000250: fe49 e23c f3ed 4e3c 4ceb b73c a875 8b3e
00000260: e99d d3bd a3b6 f63c 0cf2 44be 2d5b dfbb
00000270: ca46 293d d3d4 0ebe 0483 4a3d dc2e 24bd
00000280: bd23 1fbd a20a 9bbd 92ff 36be b21e 84be
00000290: 14eb 333d 9068 69be f04d 3ebe 372b cabd
000002a0: fcf1 43be d055 913d adfa 793d c066 40be
000002b0: 0574 debd 737d 6dbd 9e52 1e3e 39d0 0cbd
000002c0: 0a7a f6bc 9dcc 0dbe 2f53 0dbe 4e20 b43c
000002d0: 011e 713a 3cb3 5bbd f760 173d 915a e6bd
000002e0: 5119 13be e8e2 92bd cf3b c1bd 146c 37be
000002f0: e832 453b f032 793d eeaf fd3d 5786 37be
00000300: d33e 4abe 3494 2e3d 64ea 20bd 2beb ccbd
00000310: c207 233e 9a46 eebd b142 9f3d 65a1 1abe
0.111836284 0.13274904 -0.15840022 0.15079471 -0.029311696 -0.07030249 0.18088773 -0.21458
-0.12633322 0.11105106 -0.07596118 -0.055831723 -0.037472874 -0.19498926 0.28512236 -0.17522496
-0.28504086 -0.12510015 -0.04610735 -0.05423198 0.08891892 -0.048051413 -0.1833324 0.17772889
0.2045046 0.01265909 -0.036588997 0.056677137 -0.07622112 0.12867656 0.013748271 0.08448567
-0.2010856 -0.08432403 0.06252787 -0.08697109 0.14221698 -0.23897187 0.039528165 0.030969495
0.22025211 0.026129428 -0.007960023 -0.13837123 -0.18711744 0.0009523295 0.21198696 0.0019010825
0.0047180597 -0.085788734 -0.19671026 -0.12167069 -0.12484362 0.059785888 -0.2621304 -0.12947662
-0.16346364 -0.20587192 -0.015919548 -0.19560711 -0.074819975 0.033236396 -0.08136828 -0.14273182
-0.080640145 -0.32711038 -0.086073615 -0.14025323 -0.14053188 -0.109298944 -0.13205321 -0.09714869
-0.09173886 -0.033651378 -0.019855931 0.034845233 -0.2052374 0.06769382 -0.06640528 0.06673729
-0.08368068 0.06036829 0.04786715 -0.07380583 -0.080621354 -0.20750464 -0.021744374 -0.0826007
-0.104158595 -0.11074379 -0.1306653 -0.20196652 -0.08964366 0.025936868 -0.2621294 -0.19429258
-0.043711476 0.021432836 -0.17685273 0.121062756 0.03864504 -0.048170872 -0.09156313 -0.13354976
0.002496749 -0.037083637 -0.014779236 0.04647293 0.03142553 0.13616858 0.095856994 -0.0020745145
0.018468428 -0.024438743 -0.029340899 -0.16654712 -0.033593748 0.040766597 0.011359051 0.0883571
-0.11227848 -0.13478692 0.045470692 -0.101392776 -0.16064177 0.05900611 0.17553544 0.07038802
0.068047345 -0.005703135 0.008710034 -0.022667706 0.0127542345 0.041999813 -0.12945615 -0.057709854
0.03339809 -0.031559084 -0.02305881 -0.026175026 -0.07973926 -0.1654472 0.006496055 0.08716143
-0.13382186 -0.0040982785 0.048294894 0.07069038 0.027623173 0.012629974 0.022451065 0.27238202
-0.10332853 0.030116385 -0.19232959 -0.006816289 0.041327275 -0.13948373 0.049441352 -0.04008375
-0.038852442 -0.075703874 -0.1787093 -0.2580467 0.04392536 -0.22793794 -0.18584418 -0.09871524
-0.19135278 0.070964456 0.06103008 -0.18789196 -0.10861973 -0.057980966 0.15461203 -0.034378264
-0.03008749 -0.13847585 -0.13801263 0.02198806 0.00091978913 -0.053637728 0.036957707 -0.11247743
-0.14365126 -0.07172185 -0.09435236 -0.17912322 0.0030090157 0.060839593 0.123870715 -0.1792234
-0.19750528 0.042621806 -0.039286032 -0.10005792 0.15920928 -0.1163456 0.07776392 -0.1510063

RNN.bias_hh_l1 f4 [200]
00000000: 3842 f6bd ffdf 743e 0478 e4bd d957 b53d
00000010: 0965 babb 131a 153c 1a1a 0bbd 4853 56be
00000020: 886e c93d ff6c 1e3d 90b8 a6b9 10cc 153d
00000030: 304e 2fbd 48e5 26be 689b 2d3e ce59 4abd
00000040: bd6d 4dbe 4a69 b2bc 808b 0fbe a67b 2bbd
00000050: e81b 40bd 8b00 3b3d 559e 19be fc76 553c
00000060: 68fd 02bd 8861 81bd 208a ddbd 8045 fab9
00000070: 2020 e93c 5524 ec3d 43c0 82bd f42d 31bd
00000080: f963 d5bc f961 d23d 761c 08be 7207 32be
00000090: 7797 b0bd 8516 76be f231 31bc 2e57 823d
000000a0: 5e11 03bc 8c65 16be e2f0 3ebc dc4c f13a
000000b0: 20e3 72be 20f0 58be 5663 ffbc fb9e e23c
000000c0: 0c65 25bd 792e 493d 9fcf 60bd 697e a7bd
000000d0: 447c 66be c786 ecbd e1f6 d8bd 1845 6fbe
000000e0: 092d 8fbe f4cf 8c3c f6ef d7bd d950 3dbe
000000f0: dd84 0fbe adf2 9bbd 91f1 64bd 0092 abbd
00000100: d130 163e b8ca d3bd 55a0 07be 5c83 c3bd
00000110: 4493 88bd 0410 a6bd 1ccf 18bd 3596 e83c
00000120: dd99 f13c f9bc eabd 00dd 56bb f48e b7bd
00000130: f6be debd bee0 4d3d 3f74 153d c647 813c
00000140: c9a4 d9bd c5e0 c5bd 5f24 18be 922f 5d3b
00000150: 2d9e e4bb c72c 80bd fef8 7cbd bc41 c2bd
00000160: fae0 09be 5b6c 523d ff06 87bc 2011 3c3d
00000170: 4018 cab8 def5 52be 2a2d 89be 62c0 f6bd
00000180: 8774 b63d 261a 54be f716 1abe 5229 e43d
00000190: fd22 2c3d 12eb c73d 3fe9 39bd a160 883d
000001a0: 5ea3 cd3b 85d7 59bd 6c98 63bc f54b 523d
000001b0: 9ef7 4bbe 0a24 7abd 840e 09be ea79 0b3e
000001c0: c69a 963d 30bb 0a3d 660b 573d c4e3 4b3d
000001d0: 9263 4c3d a347 993d dd4a b0bd 9ae3 85bd
000001e0: d493 f63d 47ff 0dbc b11c 96bc 418f 7d3d
000001f0: ba80 37be 2abd 173e b610 613b 5390 1fbe
00000200: de9a 383c a41c 4e3e 86fc b13d 7052 45bc
00000210: 3c0d 533d 12e3 013c 9efd f33d 0a4b 0e3c
00000220: 6e89 b83d 8049 c63d 9f88 fcbd af52 66bd
00000230: 386f d9bd cf92 e13c bcc9 07be 291b af3d
00000240: 08fe f73c 9b23 98bd e37f 13bd f1e2 07bc
00000250: 2364 92bd 4e0c 29bd 24da 2b3d ee23 593e
00000260: 459d 3bbe d187 d6bd 7a87 06bc 039c 97bd
00000270: 946b cb3c 364f 76be e2f3 f23d d314 f83d
00000280: a0fd b1bd 96c7 ee3d 1d1c a6bd e457 eabd
00000290: 5c5f 313e b531 74be 03e0 0abd f42c 89bc
000002a0: 8906 a2bc 7850 893d fcac c1bd 4efd 40bd
000002b0: 798a 3a3d 12ea 323e 6e20 c43d 6a66 d23b
000002c0: 2923 f0bd f9cd f9bc c454 50bc 16d0 c73d
000002d0: 5cbb 82bd 4dc3 1ebe ee54 6cbd 75a9 9bbd
000002e0: 98c6 d03d 41ff 92be a96d 1e3d c8db 8abd
000002f0: 0055 bd3b d474 803d 5e29 f83c 1861 2abe
00000300: 4d12 1fbd a2ad 3fbe c94a 8fbe d6b1 5dbe
00000310: c960 c83d d721 1c3d 8784 c0bc 6a79 f8bd
-0.12024349 0.23913573 -0.11155704 0.08854646 -0.005688314 0.009100455 -0.03396044 -0.20930207
0.09835535 0.038678166 -0.00031799497 0.036571562 -0.042799175 -0.16298401 0.16953814 -0.04940205
-0.20061393 -0.021778721 -0.14018059 -0.041865967 -0.046901613 0.045654815 -0.15001805 0.013028856
-0.03197995 -0.06317431 -0.10817361 -0.00047735497 0.028457701 0.11530367 -0.06384327 -0.043256715
-0.026048647 0.10272593 -0.13292107 -0.17385653 -0.086226396 -0.24032028 -0.010815131 0.063642845
-0.007999746 -0.14687175 -0.011654111 0.0018409747 -0.23719454 -0.2118535 -0.031175297 0.027663698
-0.04037957 0.049116585 -0.054885503 -0.08178408 -0.22508341 -0.11549144 -0.105939634 -0.23366201
-0.27964047 0.017189004 -0.10543816 -0.18487872 -0.14015527 -0.07614646 -0.05589444 -0.08377457
0.1466706 -0.103414 -0.13244756 -0.09546539 -0.06668714 -0.081085235 -0.03730689 0.028391937
0.029492313 -0.11461825 -0.0032785535 -0.08962813 -0.10876267 0.05026316 0.036487814 0.015781295
-0.106271334 -0.09662012 -0.14857624 0.0033750278 -0.006976864 -0.062585406 -0.061760895 -0.09485194
-0.13464728 0.051372867 -0.016482828 0.04591477 -9.6366275e-05 -0.20601603 -0.2679227 -0.12048413
0.089089446 -0.207131 -0.15047823 0.11140694 0.042025555 0.09761633 -0.045388456 0.066590555
0.0062755784 -0.05318405 -0.013891321 0.05134197 -0.19918677 -0.061069526 -0.13384444 0.13620725
0.073537394 0.033869922 0.052501105 0.04977776 0.049899645 0.07484367 -0.08608029 -0.06537552
0.12039915 -0.00866682 -0.018324228 0.061904196 -0.17920199 0.14818254 0.0034342236 -0.15582399
0.011267392 0.20128113 0.08690743 -0.01204358 0.051526293 0.007927673 0.11913608 0.008684883
0.09010588 0.09681988 -0.12330746 -0.056231197 -0.106169164 0.027535824 -0.1326055 0.08550102
0.030272499 -0.07428666 -0.036010634 -0.008293853 -0.07148006 -0.0412715 0.041956082 0.21205112
-0.18321712 -0.10475124 -0.008211011 -0.07402804 0.02483157 -0.24053654 0.11862923 0.12113347
-0.08690953 0.11659162 -0.08110831 -0.11442545 0.17321533 -0.23847087 -0.03390504 -0.016745068
-0.019778507 0.06704801 -0.09456822 -0.04711657 0.045542214 0.17472103 0.09576498 0.0064209
-0.11725456 -0.030493723 -0.012715522 0.09756486 -0.06383392 -0.15504189 -0.057698183 -0.07600681
0.10194129 -0.28710368 0.0386788 -0.06780201 0.005777955 0.06272283 0.030293163 -0.16638601
-0.038835812 -0.1871858 -0.27986744 -0.2164987 0.09784085 0.03811821 -0.023500694 -0.12132533
