saved_models/model_CBF_5_02_2_50model.pt (torch, 129547 bytes, 12 tensors)

Controller.fc.weight f4 [1, 51]
0.13039364 0.13179238 -0.014514817 0.17125544 -0.025032312 0.108199246 -0.04693177 0.05828449
0.158386 -0.13367723 0.17056687 0.019080013 0.08358133 0.048091672 0.038016856 -0.045012295
0.08616882 -0.00490587 -0.029973403 0.06480092 -0.008021743 -0.050786193 -0.08790145 0.0620522
-0.10246976 -0.07516143 -0.033154786 -0.08987464 -0.03724187 -0.14891471 0.11204042 -0.13160956
0.069830194 -0.001410733 -0.051861934 0.08887034 0.033181377 0.0871612 -0.0071185892 -0.0063850842
0.063292354 0.0077017425 0.095398724 0.08724228 0.05807035 -0.10965388 0.039925493 0.048270036
0.08421053 -0.049996708 -0.19356859
00000000: e985 053e 95f4 063e 8ecf 6dbc 965d 2f3e
00000010: 9010 cdbc 9197 dd3d 873b 40bd b8bb 6e3d
00000020: f12f 223e afe2 08be 15a9 2e3e b04d 9c3c
00000030: b02c ab3d c6fb 443d 90b7 1b3d d05e 38bd
00000040: 4779 b03d 6cc1 a0bb c88a f5bc 58b6 843d
00000050: a16d 03bc 2f05 50bd ad05 b4bd 732a 7e3d
00000060: aadb d1bd 3cee 99bd 50cd 07bd 3210 b8bd
00000070: ee8a 18bd 197d 18be 7375 e53d a8c4 06be
00000080: 2203 8f3d 58e8 b8ba 2e6d 54bd a701 b63d
00000090: 32e9 073d 9281 b23d 0e43 e9bb f839 d1bb
000000a0: 6c9f 813d e65e fc3b 6860 c33d 15ac b23d
000000b0: 2ddb 6d3d 3792 e0bd ea88 233d cdb6 453d
000000c0: 9276 ac3d 59c9 4cbd d836 46be

BaselineNetwork.fc.weight f4 [1, 51]
-0.1373265 0.14172949 0.013097008 0.0048079137 0.08472319 -0.06479628 0.09170236 -0.049664646
-0.014629494 -0.06828369 -0.008822924 -0.0048982226 0.029035613 -0.0842783 0.17301042 -0.06945172
-0.07404511 -0.052999284 0.095166795 0.034913175 0.047595154 -0.09778447 -0.11684648 -0.09231918
-0.11711817 0.09305639 0.029656949 0.14809644 -0.023945302 -0.07050827 0.12664804 -0.033688072
0.147319 -0.05900121 0.095834255 -0.102078274 -0.07083589 0.06608905 0.07599157 -0.084072314
0.0472612 0.054382376 -0.14496905 -0.035181914 0.14832473 -0.057775825 0.026840258 -0.11463554
-0.093307294 -0.0053528184 0.024574863
00000000: 519f 0cbe 8921 113e d594 563c b48b 9d3b
00000010: 5a83 ad3d e9b3 84bd 72ce bb3d 286d 4bbd
00000020: 8cb0 6fbc 52d8 8bbd 078e 10bc 4581 a0bb
00000030: 18dc ed3c 1a9a acbd a529 313e b43c 8ebd
00000040: f6a4 97bd c715 59bd cfe6 c23d 1e01 0f3d
00000050: 23f3 423d 3943 c8bd 354d efbd d711 bdbd
00000060: a7db efbd 5994 be3d 21f3 f23c 98a6 173e
00000070: f028 c4bc a466 90bd 06b0 013e 81fc 09bd
00000080: cbda 163e 41ab 71bd c044 c43d 6a0e d1bd
00000090: 6812 91bd b259 873d 78a1 9b3d 1b2e acbd
000000a0: f694 413d 0ec0 5e3d c472 14be e91a 10bd
000000b0: 70e2 173e 58a6 6cbd 1ae0 db3c 0ac6 eabd
000000c0: e517 bfbd b266 afbb 3951 c93c

RNN.weight_ih_l0 f4 [200, 1]
0.03758768 -0.08029519 -0.21540062 -0.054818068 -0.095766634 -0.13454667 0.17926247 0.08098961
-0.016672026 -0.21475373 -0.121661514 -0.11159863 0.058921743 -0.045185525 -0.12903272 -0.13096519
-0.09361158 -0.082301624 -0.06913321 -0.17543423 -0.18320835 -0.051395394 -0.11278422 -0.08370968
0.17416711 -0.11636679 0.14135572 0.07272594 -0.085893534 0.054888807 -0.034264304 -0.15022737
-0.20308171 -0.20942171 -0.022551382 -0.031627685 -0.039699465 -0.16464444 0.058577873 -0.14453933
-0.059063457 0.043897696 -0.015641041 0.07691103 0.09014675 -0.047934487 0.016786877 -0.05591882
0.010962859 -0.16655797 0.17208354 -0.08020742 0.040112562 0.080260575 0.018129794 -0.13716663
0.18697515 0.06845109 -0.058875583 -0.16857168 -0.011447713 -0.07665072 -0.0051571843 0.20983155
-0.009567929 -0.11676328 -0.061571166 -0.08628486 0.007028958 -0.10370645 -0.15422343 -0.00087289046
-0.14324097 0.053731743 0.17758583 -0.17244375 0.09827159 0.14128642 0.046205968 -0.0846651
0.15874907 0.034683898 0.06897558 -0.05282791 -0.040262487 0.030275522 -0.11519346 -0.07881023
0.018280573 0.15336688 -0.08708917 -0.0058308523 0.019364491 0.039442163 0.0053114686 0.11491632
-0.12319505 -0.05303744 0.14957319 0.06383491 -0.045713656 -0.12071384 -0.16822438 -0.07497572
-0.021842979 -0.005775123 0.05289867 0.03870391 -0.10475438 -0.15953034 -0.05595478 0.12782302
-0.009383682 -0.045072313 0.100149736 -0.09311863 -0.16465764 0.066394515 0.002850756 0.05477699
-0.17925273 0.064362004 0.14835706 0.0010237265 -0.065409064 -0.17646013 -0.09036426 0.04741082
0.008181742 0.109692916 0.0510808 0.12049344 0.04642631 -0.1535401 -0.17154159 -0.11998157
0.09836975 -0.11292164 -0.0067231553 -0.114088304 -0.065104626 -0.08690639 -0.13065025 0.053216595
0.00081064086 0.022386998 -0.08488599 -0.063647665 -0.07998373 -0.10813742 -0.013687249 -0.12671213
-0.016781736 -0.07559336 0.08640305 0.017293833 0.14077349 -0.055148814 0.022564147 -0.14486471
0.02129925 0.054726977 0.020516697 0.081982106 -0.10964872 -0.16933607 -0.026109364 -0.21479727
0.019630048 0.026627462 0.04736108 -0.0038235374 -0.17729704 0.04365847 0.13626406 -0.22993457
-0.009710752 -0.05114207 0.014643969 -0.11167353 -0.049020883 -0.13867836 -0.22096857 0.048107654
0.06028045 -0.0335981 -0.11199653 -0.10838086 -0.19324695 -0.17714772 0.016671488 -0.059053045
-0.17895405 -0.038863618 -0.07657487 0.018578185 -0.015199311 -0.030870479 -0.035130374 -0.13001032
00000000: 8af5 193d ce71 a4bd fb91 5cbe e988 60bd
00000010: 4c21 c4bd 9ac6 09be 9590 373e e1dd a53d
00000020: c693 88bc 67e8 5bbe ac29 f9bd d38d e4bd
00000030: ed57 713d 7514 39bd 2721 04be bd1b 06be
00000040: 6eb7 bfbd c18d a8bd b695 8dbd 08a5 33be
00000050: f89a 3bbe fa83 52bd 6afb e6bd fb6f abbd
00000060: dd58 323e b651 eebd 8ebf 103e 56f1 943d
00000070: f3e8 afbd 16d3 603d ba58 0cbd 34d5 19be
00000080: a7f4 4fbe a572 56be adbd b8bc 088c 01bd
00000090: e89b 22bd 8d98 28be 5aef 6f3d 1e02 14be
000000a0: 86ec 71bd 12ce 333d a421 80bc 8883 9d3d
000000b0: dc9e b83d f456 44bd a284 893c 220b 65bd
000000c0: 909d 333c 2c8e 2abe ab36 303e ca43 a4bd
000000d0: 124d 243d a85f a43d ef84 943c 6975 0cbe
000000e0: 6a76 3f3e 1630 8c3d 8627 71bd 0e9e 2cbe
000000f0: 308f 3bbc 0dfb 9cbd 99fd a8bb 15de 563e
00000100: cec2 1cbc 9621 efbd 0c32 7cbd 1eb6 b0bd
00000110: 2c53 e63b 0c64 d4bd bfec 1dbe b0d2 64ba
00000120: c3ad 12be d115 5c3d 0fd9 353e 1895 30be
00000130: 9e42 c93d 63ad 103e 7842 3d3d e564 adbd
00000140: 1e8f 223e b410 0e3d 1243 8d3d 1462 58bd
00000150: 47ea 24bd 5f04 f83c 8cea ebbd 4267 a1bd
00000160: 24c1 953c 350c 1d3e cf5b b2bd bc10 bfbb
00000170: 48a2 9e3c 1b8e 213d d40b ae3b 3f59 eb3d
00000180: b04d fcbd c93d 59bd b729 193e e1bb 823d
00000190: 3e3e 3bbd d138 f7bd 0343 2cbe df8c 99bd
000001a0: 0cf0 b2bc 3e3d bdbb 47ac 583d fe87 1e3d
000001b0: 7789 d6bd ec5b 23be d730 65bd 0ae4 023e
000001c0: 04be 19bc bf9d 38bd 4e1b cd3d fbb4 bebd
000001d0: 039c 28be d9f9 873d c0d3 3a3b d65d 603d
000001e0: 078e 37be 3ad0 833d eaea 173e 902e 863a
000001f0: 30f5 85bd f7b1 34be e610 b9bd d931 423d
00000200: b70c 063c aea6 e03d 1a3a 513d 44c5 f63d
00000210: 8429 3e3d 9e39 1dbe 99a8 2fbe e6b8 f5bd
00000220: 1476 c93d 7643 e7bd ea4d dcbb 21a7 e9bd
00000230: 9355 85bd fafb b1bd 2ec9 05be a5f9 593d
00000240: 3081 543a f064 b73c b5d8 adbd b559 82bd
00000250: 83ce a3bd 2777 ddbd 7c40 60bc d3c0 01be
00000260: da79 89bc b1d0 9abd 15f4 b03d ccab 8d3c
00000270: ed26 103e b9e3 61bd 72d8 b83c 6a57 14be
00000280: c47b ae3c 6529 603d a212 a83c 3ce6 a73d
00000290: 828f e0bd 6f66 2dbe 4ee3 d5bc d1f3 5bbe
000002a0: 32cf a03c d621 da3c b1fd 413d 5094 7abb
000002b0: 5b8d 35be 39d3 323d ce88 0b3e f873 6bbe
000002c0: d919 1fbc 597a 51bd 42ed 6f3c 17b5 e4bd
000002d0: 1fca 48bd b301 0ebe 9645 62be 880c 453d
000002e0: a2e8 763d 299e 09bd 705e e5bd c9f6 ddbd
000002f0: 87e2 45be 3666 35be a592 883c 9be1 71bd
00000300: bb3f 37be 752f 1fbd 49d3 9cbd 4731 983c
00000310: 8806 79bc 16e4 fcbc dee4 0fbd 6d21 05be

RNN.weight_hh_l0 f4 [200, 50]
-0.105047144 0.14646593 -0.088682644 0.030109718 -0.04274501 -0.029370047 0.15474215 0.05539652
-0.09225577 0.028441105 0.13255285 0.04470338 0.1304662 0.13814399 -0.017038789 0.011600004
-0.12534921 -0.02366602 0.14120072 0.10289618 -0.08706425 -0.062229507 -0.0677599 -0.16823618
-0.12118241 -0.07189393 0.06173604 0.044645093 -0.11012264 -0.116243795 0.1070361 -0.07051565
-0.040418807 0.040723845 -0.100118026 -0.05605339 0.0033363895 -0.05871387 -0.06545468 -0.15470672
-0.038391262 -0.12231458 0.10449969 -0.045973662 -0.1074108 0.07441127 0.079865895 0.09304292
0.07795977 0.049503036 -0.185287 0.002579803 0.052558467 -0.05743285 -0.110296056 0.16432361
-0.012916926 -0.02556469 -0.13827094 -0.031686984 0.12840246 0.08851291 0.03093754 -0.08170196
-0.10533905 -0.042994533 0.11888355 0.09199577 -0.106543384 -0.03338843 -0.10638543 -0.03478787
0.061844725 0.0795944 0.08620778 -0.13250521 0.07453664 -0.08033089 0.08468806 0.13302223
0.03980416 0.12890717 -0.09658433 -0.08608297 0.041259747 -0.05978093 0.007898811 -0.09989584
0.07859482 0.0348584 0.017289713 -0.124279074 -0.15938523 0.032498036 0.01891659 -0.059016988
-0.027808566 0.06285396 -0.04198881 -0.012524806 -0.0568133 -0.08542456 -0.12340514 0.02401764
0.01220713 -0.038447075 -0.022299176 -0.124445654 0.21968798 0.084384546 0.1837271 -0.1532747
-0.02245152 0.069697596 -0.16289648 -0.03420428 0.03848642 -0.13330144 -0.021256842 0.1125729
0.20579416 -0.04111033 -0.06126569 -0.21473578 -0.01068297 0.117816426 0.08581179 -0.04807133
-0.14870648 -0.014071498 -0.108616695 0.08956266 -0.07713697 -0.0015821131 -0.04396625 0.10332111
-0.12749775 0.14732622 0.06971145 0.10787771 0.17508183 -0.043939695 -0.12610933 0.12021681
0.15444754 -0.092881195 0.07454909 -0.04181043 -0.112318814 0.09444939 0.09155675 0.12063086
-0.098090656 0.083113894 0.014245508 -0.17156978 0.059867594 0.084917195 0.09122711 -0.15199621
0.0716765 -0.04858927 -0.037290297 -0.13488558 0.1458535 0.14352453 0.07831114 -0.0001381794
0.193898 0.05332404 -0.078246586 0.12000202 -0.021729149 -0.11528754 -0.09269094 0.0022274037
0.01517431 0.0009461916 -0.07331283 0.039308384 -0.020168804 -0.0303839 0.08371314 -0.08497705
0.059245687 0.10291107 0.074684285 0.021285042 0.06489766 -0.058772616 0.079234526 -0.059003368
-0.019963274 0.19283539 0.04141121 0.008948962 0.050739374 -0.10067211 0.08819651 0.06751209
0.14530629 0.040049545 -0.07878485 -0.11757958 -0.09526786 0.0029224064 -0.0166406 -0.07950426
0.012744809 -0.087534964 -0.15573142 -0.12314932 0.09237931 -0.16561607 0.11447115 0.021144025
-0.0033759018 0.11878603 -0.04497252 0.06349268 0.034247592 -0.10193936 0.04064651 0.062053114
0.019601703 -0.00837518 0.056134924 -0.087093875 0.029730909 0.20508313 0.075387515 -0.03475117
-0.1695676 0.03193152 -0.071060166 0.08472744 -0.0943621 -0.01737066 -0.05444624 0.049423743
0.12404654 0.02490267 0.10866743 0.07898668 0.08008844 -0.06414412 -0.05356138 0.0060231923
-0.020392112 0.04123533 0.0372149 -0.073744036 0.051489443 0.046343934 0.061275024 0.13432367
00000000: f522 d7bd 2afb 153e 3f9f b5bd a8a8 f63c
00000010: 6415 2fbd 7499 f0bc ba74 1e3e 76e7 623d
00000020: 98f0 bcbd 52fd e83c efbb 073e e41a 373d
00000030: ee98 053e 9e75 0d3e ee94 8bbc f10d 3e3c
00000040: 8b5b 00be 3edf c1bc ec96 103e 3bbb d23d
00000050: be4e b2bd 5ee4 7ebd b4c5 8abd 1b46 2cbe
00000060: 7c2e f8bd 203d 93bd eede 7c3d c6dd 363d
00000070: fb87 e1bd 3a11 eebd be35 db3d 826a 90bd
00000080: 318e 25bd 0cce 263d ae0a cdbd 3d98 65bd
00000090: 54a7 5a3b f47d 70bd 1a0d 86bd 706b 1ebe
000000a0: 2840 1dbd 1180 fabd ef03 d63d e14e 3cbd
000000b0: 32fa dbbd f064 983d bb90 a33d 498d be3d
000000c0: 5fa9 9f3d b2c3 4a3d e0bb 3dbe ea11 293b
000000d0: 8c47 573d b53e 6bbd e6e2 e1bd 7344 283e
000000e0: 84a1 53bc 0a6d d1bc e696 0dbe 36ca 01bd
000000f0: ef7b 033e 4246 b53d b970 fd3c 5b53 a7bd
00000100: 00bc d7bd 091b 30bd 3879 f33d 4768 bc3d
00000110: 6b33 dabd 4ec2 08bd 9be0 d9bd ba7d 0ebd
00000120: e550 7d3d 6402 a33d b48d b03d 72af 07be
00000130: aaa6 983d 8684 a4bd ef70 ad3d fb36 083e
00000140: b009 233d 3e00 043e 01ce c5bd 454c b0bd
00000150: fbff 283d d9dc 74bd 046a 013c 3196 ccbd
00000160: 52f6 a03d aec7 0e3d 28a3 8d3c 0786 febd
00000170: e235 23be a91c 053d f7f6 9a3c ccbb 71bd
00000180: cace e3bc 94b9 803d 75fc 2bbd d834 4dbc
00000190: 10b5 68bd 12f3 aebd d6bb fcbd a4c0 c43c
000001a0: 6a00 483c ae7a 1dbd c3ac b6bc 5ddd febd
000001b0: e3f5 603e ced1 ac3d f522 3c3e 0bf4 1cbe
000001c0: 40ec b7bc 9dbd 8e3d 56ce 26be c919 0cbd
000001d0: f0a3 1d3d 2c80 08be d422 aebc 9f8c e63d
000001e0: b4bb 523e 4e63 28bd bbf1 7abd b2e3 5bbe
000001f0: a007 2fbc bd49 f13d 17be af3d 71e6 44bd
00000200: 8346 18be 248c 66bc 6e72 debd a16c b73d
00000210: fdf9 9dbd e85e cfba f415 34bd 059a d33d
00000220: c58e 02be afdc 163e e0c4 8e3d fdee dc3d
00000230: a748 333e 1cfa 33bd ce22 01be 3b34 f63d
00000240: 7f27 1e3e 7f38 bebd 31ad 983d 6a41 2bbd
00000250: 6807 e6bd af6e c13d 1b82 bb3d 500d f73d
00000260: c1e3 c8bd 9e37 aa3d fe65 693c fdaf 2fbe
00000270: b937 753d 11e9 ad3d 47d5 ba3d e5a4 1bbe
00000280: 21cb 923d 8b05 47bd b6bd 18bd 721f 0abe
00000290: 9f5a 153e 18f8 123e 9761 a03d 40e4 10b9
000002a0: 338d 463e 4f6a 5a3d bf3f a0bd 9ec3 f53d
000002b0: 5401 b2bc e01b ecbd bfd4 bdbd a2f9 113b
000002c0: ab9d 783c d809 783a 0925 96bd d401 213d
000002d0: 0c39 a5bc a8e7 f8bc cb71 ab3d 7308 aebd
000002e0: 9bab 723d 0ac3 d23d 13f4 983d f85d ae3c
000002f0: 10e9 843d 8ebb 70bd b645 a23d 84ad 71bd
00000300: 058a a3bc a476 453e cd9e 293d ab9e 123c
00000310: 17d4 4f3d 2e2d cebd 5fa0 b43d c743 8a3d
00000320: 2ccb 143e fe0a 243d f459 a1bd 90cd f0bd
00000330: cc1b c3bd d885 3f3b de51 88bc 21d3 a2bd
00000340: 9acf 503c 8845 b3bd 0f78 1fbe b635 fcbd
00000350: 5d31 bd3d 4297 29be da6f ea3d 3c36 ad3c
00000360: 3c3e 5dbb 1746 f33d 1b35 38bd 7308 823d
00000370: 3447 0c3d 95c5 d0bd f47c 263d 682b 7e3d
00000380: c093 a03c 0d38 09bc bced 653d 465e b2bd
00000390: 3c8e f33c 5001 523e c564 9a3d 3e57 0ebd
000003a0: 21a3 2dbe a0ca 023d fe87 91bd 9485 ad3d
000003b0: eb40 c1bd ea4c 8ebc 0503 5fbd 8d70 4a3d
000003c0: 1d0c fe3d af00 cc3c 088d de3d c5c3 a13d
000003d0: 6805 a43d fe5d 83bd 2d63 5bbd 335e c53b
000003e0: 5c0d a7bc 61e6 283d a76e 183d 1d07 97bd
000003f0: 98e6 523d 23d3 3d3d 85fb 7a3d 258c 093e

RNN.bias_ih_l0 f4 [200]
0.02756694 0.07517953 0.0939143 -0.16813877 -0.06882127 -0.048950516 -0.17824425 -0.16570553
-0.07468363 0.10742536 0.075219996 0.023230635 -0.056983393 -0.03550169 0.14699543 -0.10519838
0.17203368 0.09027506 -0.06415201 0.08131795 0.085322365 -0.11030594 0.15356287 0.06517646
0.048770726 0.05075907 -0.16956648 0.04262433 -0.010177166 0.10814103 -0.12442403 0.14241603
-0.112659834 -0.021950014 0.08570409 -0.011176874 0.110107325 0.0955633 0.08729818 0.0985852
0.0014028577 -0.0828347 0.094896495 -0.056944564 -0.10466915 0.0017568227 -0.040483348 -0.050956868
0.08719135 0.074571624 -0.13617367 -0.008665086 0.064930335 -0.14045586 0.11161816 -0.023093766
-0.113697484 -0.16684133 -0.01218036 0.120885774 -0.058569092 -0.14582534 -0.05956561 0.059175875
-0.003782589 0.13586077 0.041054763 0.16020778 -0.094912164 -0.123973794 -0.058289446 -0.08896911
-0.10871732 0.081012644 -0.059618205 0.14298467 -0.21246128 -0.21586014 -0.049143787 0.06969315
0.07973391 -0.0011142977 0.08409083 -0.07556738 -0.05900099 -0.011638654 -0.13486347 -0.014328721
-0.11584271 -0.10096987 -0.032185216 -0.079816625 -0.12964186 -0.18355861 -0.046524566 -0.21120036
0.19201048 -0.016684894 0.09154344 -0.076138526 0.028939128 -0.13338488 0.032875583 -0.018475182
-0.21797456 0.13620426 0.014494558 -0.035854273 -0.14516993 0.17576092 -0.1542207 0.15787624
-0.0058648717 0.03328591 -0.047223102 0.025317622 -0.04849303 0.19658267 -0.18117855 -0.039658647
-0.07105051 -0.030501565 0.057766814 0.1729346 0.10631578 -0.10930146 -0.014561032 -0.014325496
0.14608854 -0.03535086 -0.042345945 0.04144314 0.0074879546 -0.0065072067 0.0933141 0.05533382
0.115220994 -0.1440372 -0.05536419 0.010565306 -0.16931912 0.041131534 0.09349053 -0.08840247
-0.07053285 0.011038002 -0.02308477 -0.055037104 -0.067892164 -0.004171596 -0.047886476 0.103108905
0.17512162 -0.096122704 -0.10598848 0.08656435 -0.1429219 -0.005837215 -0.00846562 0.16416906
0.026548207 -0.0353863 -0.1251909 0.01652022 -0.024010453 0.040927358 0.18598062 -0.08602807
-0.13316214 -0.0013541542 0.029955447 -0.14855841 0.12025995 -0.1095789 -0.12288006 -0.028410945
-0.013146357 -0.06267521 0.0402712 0.09993282 -0.0880909 0.033533417 0.12535782 -0.00040446222
0.01582574 -0.090211466 -0.15299416 -0.02478237 -0.063465044 0.00029157847 -0.027141642 -0.03566932
0.13357568 -0.02701907 0.03652581 -0.08588639 0.17583461 0.07708822 0.045837197 0.12972905
00000000: 10d4 e13c baf7 993d 2456 c03d 922c 2cbe
00000010: 2af2 8cbd 5680 48bd a985 36be b6ae 29be
00000020: bbf3 98bd d401 dc3d f10c 9a3d 2c4e be3c
00000030: 6b67 69bd 386a 11bd f885 163e 4072 d7bd
00000040: 9929 303e 21e2 b83d 2162 83bd 068a a63d
00000050: 7ebd ae3d 15e8 e1bd 963f 1d3e 3c7b 853d
00000060: d0c3 473d bee8 4f3d d6a2 2dbe d996 2e3d
00000070: 21be 26bc 0b79 dd3d 07d2 febd 82d5 113e
00000080: 33ba e6bd 84d0 b3bc a085 af3d 351f 37bc
00000090: f37f e13d b1b6 c33d 63c9 b23d 0ae7 c93d
000000a0: 18e0 b73a 3da5 a9bd 1859 c23d b43e 69bd
000000b0: c85c d6bd 3045 e63a ded1 25bd 26b8 50bd
000000c0: 6191 b23d 02b9 983d 1c71 0bbe 01f8 0dbc
000000d0: 32fa 843d a9d3 0fbe 1098 e43d 232f bdbc
000000e0: 3ada e8bd 74d8 2abe 2290 47bc f692 f73d
000000f0: 25e6 6fbd 3d53 15be 12fb 73bd 6762 723d
00000100: 50e5 77bb 161f 0b3e 0a29 283d 820d 243e
00000110: 4f61 c2bd f9e5 fdbd eac0 6ebd 7035 b6bd
00000120: 30a7 debd f5e9 a53d 3832 74bd 936a 123e
00000130: 738f 59be 710a 5dbe ff4a 49bd 48bb 8e3d
00000140: 884b a33d a00d 92ba d037 ac3d 12c3 9abd
00000150: 06ab 71bd 0eb0 3ebc a619 0abe 03c3 6abc
00000160: f13e edbd 4bc9 cebd a5d4 03bd e676 a3bd
00000170: d6c0 04be caf6 3bbe 8b90 3ebd e844 58be
00000180: 659e 443e c2ae 88bc 217b bb3d 84ee 9bbd
00000190: c011 ed3c 0c96 08be 8ca8 063d 4459 97bc
000001a0: b934 5fbe 2179 0b3e 957a 6d3c eedb 12bd
000001b0: 6da7 14be acfa 333e 08ec 1dbe 4faa 213e
000001c0: 1c2e c0bb ce56 083d 036d 41bd e766 cf3c
000001d0: a1a0 46bd f84c 493e df86 39be 1b71 22bd
000001e0: ee82 91bd 6bde f9bc e59c 6c3d c515 313e
000001f0: 16bc d93d 72d9 dfbd 6591 6ebc 7cb5 6abc
00000200: 3c98 153e 10cc 10bd f172 2dbd 48c0 293d
00000210: 845d f53b 683a d5bb 761b bf3d b7a5 623d
00000220: fcf8 eb3d 7d7e 13be 90c5 62bd 1b1a 2d3c
00000230: fe61 2dbe 8a79 283d f777 bf3d 5b0c b5bd
00000240: 8773 90bd bcd8 343c 461c bdbc 966e 61bd
00000250: 0c0b 8bbd e2b1 88bb 9c24 44bd c32a d33d
00000260: 1553 333e fbdb c4bd 7d10 d9bd a648 b13d
00000270: 1e5a 12be 1c46 bfbb 62b3 0abc ef1b 283e
00000280: a07b d93c 3af1 10bd 0b32 00be 6a55 873c
00000290: 92b1 c4bc 72a3 273d b471 3e3e 7c2f b0bd
000002a0: a85b 08be e07d b1ba 2065 f53c b21f 18be
000002b0: d94a f63d e76a e0bd 8aa8 fbbd 12be e8bc
000002c0: d163 57bc dc5b 80bd 6af3 243d 94a9 cc3d
000002d0: 0069 b4bd 565a 093d cd5d 003e 000e d4b9
000002e0: fba4 813c cac0 b8bd 80aa 1cbe 6604 cbbc
000002f0: f6f9 81bd 00df 9839 2658 debc fe19 12bd
00000300: 10c8 083e 1957 ddbc 169c 153d 34e5 afbd
00000310: fd0d 343e 6ee0 9d3d c9bf 3b3d b1d7 043e

RNN.bias_hh_l0 f4 [200]
-0.024765434 0.06326097 -0.0071488917 -0.14420816 0.14604852 -0.07910287 -0.18504183 -0.12233168
0.062647425 0.05399272 0.09675553 0.10766163 0.058875106 -0.15797113 0.11919853 0.0712924
-0.006894393 0.029451914 0.0064106192 -0.00017209072 0.16132793 0.07457157 0.161948 0.055041414
0.024747415 0.14960091 -0.12488985 0.023797253 -0.028406605 0.09869265 -0.18162893 0.18867172
0.030646427 0.0051090196 -0.14748545 0.014507454 -0.06081147 0.17707394 -0.11189098 -0.076055065
-0.03433149 -0.15243012 0.06035946 -0.083016954 0.06645328 -0.07348196 0.008038026 -7.3257834e-05
0.06518806 -0.009280446 -0.14130343 -0.05258328 0.008272391 -0.17343108 0.11954877 0.08492846
0.0669649 0.08752881 -0.054566428 -0.056768015 0.12241569 -0.05188244 -0.15265675 -0.10881985
0.13385051 -0.083195455 -0.045421742 -0.08744174 0.07936262 0.01559294 0.17179817 -0.05664656
0.055169556 0.13102071 -0.09021277 -0.07605818 -0.18105593 -0.014103252 -0.11300905 -0.09137517
-0.15907842 -0.051921204 -0.010529433 -0.16542585 -0.10456769 0.17821313 -0.0988122 -0.008477812
0.0732912 -0.19998534 -0.09492574 0.03196484 0.019963734 -0.18654536 0.10941979 -0.15113021
0.08646385 0.12180703 0.107661426 0.06916355 -0.114520445 -0.13241531 0.02180317 -0.08000781
0.0062926207 0.14530778 -0.1169663 0.07850142 -0.19136736 -0.041420534 -0.041796252 0.026236005
-0.124641955 0.016445583 0.12209986 -0.1596393 0.053706396 0.16186118 -0.05324921 -0.12538029
-0.13443924 0.11416285 -0.026587058 0.035264257 -0.03731174 0.08521372 0.04795785 -0.021727582
0.014546293 0.20833167 0.07771979 -0.076491825 0.037939653 0.070529506 -0.056273825 -0.21358933
-0.011791925 0.05463305 -0.05448614 0.09502655 0.017025145 -0.07589671 0.054707997 -0.042163204
-0.16225272 -0.028129604 -0.18871917 -0.10195224 -0.121118195 -0.059054047 -0.0011002207 0.19552666
0.08515732 -0.005573956 0.07473162 -0.029746678 -0.12096695 -0.19233216 -0.103685424 0.078534886
-0.034949303 0.06815561 0.009722393 0.03178728 0.047213543 0.00024022767 0.17543414 0.05155471
0.050259247 -0.09214837 -0.016746942 0.06307494 0.12755574 -0.031566456 -0.03490734 -0.036712218
-0.040627018 -0.20617296 0.06121435 -0.09944679 -0.12164591 0.20794827 -0.047604114 -0.08825991
0.10973266 -0.04529491 0.016802816 0.12333097 0.04863726 -0.13838792 0.16406775 0.01737621
-0.08640912 -0.06601513 -0.032222718 -0.040439732 0.13624175 0.033444967 0.14515328 0.19306421
00000000: e1e0 cabc f88e 813d 4041 eabb 4eab 13be
00000010: be8d 153e af00 a2bd 9b7b 3dbe 0889 fabd
00000020: 4b4d 803d 7827 5d3d c327 c63d b37d dc3d
00000030: 0627 713d 2fc3 21be 5c1e f43d c001 923d
00000040: 5cea e1bb 2445 f13c 2c10 d23b 4073 34b9
00000050: 2633 253e fbb8 983d b2d5 253e 1b73 613d
00000060: 17bb ca3c fb30 193e 40c6 ffbd 75f2 c23c
00000070: f8b4 e8bc 5f1f ca3d effc 39be 2933 413e
00000080: 370e fb3c 9069 a73b 6d06 17be acb0 6d3c
00000090: 7315 79bd df52 353e 1927 e5bd c2c2 9bbd
000000a0: 2d9f 0cbd a416 1cbe 7b3b 773d cb04 aabd
000000b0: a818 883d b67d 96bd edb1 033c 00a2 99b8
000000c0: 5181 853d 030d 18bc d9b1 10be 9161 57bd
000000d0: ec88 073c eb97 31be fcd5 f43d f9ee ad3d
000000e0: e524 893d 4e42 b33d 0c81 5fbd 9485 68bd
000000f0: 14b5 fa3d ae82 54bd 0d52 1cbe f1dc debd
00000100: 1c10 093e 6162 aabd 260c 3abd a814 b3bd
00000110: df88 a23d 8879 7f3c dceb 2f3e 3906 68bd
00000120: 79f9 613d 4b2a 063e 79c1 b8bd 64c4 9bbd
00000130: ba66 39be 5411 67bc 4a71 e7bd e822 bbbd
00000140: 74e5 22be 54ab 54bd a583 2cbc 6565 29be
00000150: 9627 d6bd 817d 363e 0d5e cabd 85e6 0abc
00000160: b219 963d f5c8 4cbe 6d68 c2bd 90ed 023d
00000170: fc8a a33c bf05 3fbe 7c17 e03d e1c1 1abe
00000180: f613 b13d f775 f93d 987d dc3d 9fa5 8d3d
00000190: b289 eabd e197 07be 909c b23c 22db a3bd
000001a0: 5432 ce3b 90cb 143e 078c efbd 5ac5 a03d
000001b0: cef5 43be 94a8 29bd 8c32 2bbd e4ec d63c
000001c0: 4844 ffbd e3b8 863c 7e0f fa3d 7c78 23be
000001d0: 3dfb 5b3d f0be 253e d81b 5abd b163 00be
000001e0: 71aa 09be 36ce e93d 1acd d9bc 4171 103d
000001f0: 32d4 18bd 8884 ae3d 736f 443d 0bfe b1bc
00000200: 9353 6e3c e654 553e 8e2b 9f3d bfa7 9cbd
00000210: 9c66 1b3d c671 903d 627f 66bd 29b7 5abe
00000220: eb32 41bc e8c6 5f3d dc2c 5fbd 489d c23d
00000230: 5178 8b3c bc6f 9bbd 7e15 603d 53b3 2cbd
00000240: 9425 26be 0e70 e6bc 993f 41be 56cc d0bd
00000250: d10c f8bd a8e2 71bd 4835 90ba 2438 483e
00000260: f666 ae3d bba5 b6bb e40c 993d 4eaf f3bc
00000270: 85bd f7bd b9f2 44be 0659 d4bd e6d6 a03d
00000280: 0027 0fbd 2b95 8b3d ac4a 1f3c 6133 023d
00000290: fd62 413d a0e5 7b39 02a5 333e 082b 533d
000002a0: a4dc 4d3d 49b8 bcbd e230 89bc 6f2d 813d
000002b0: f99d 023e d44b 01bd 00fb 0ebd 8d5f 16bd
000002c0: 8468 26bd 011f 53be e6bb 7a3d c2aa cbbd
000002d0: 7e21 f9bd 64f0 543e 88fc 42bd 9dc1 b4bd
000002e0: 84bb e03d 2887 39bd 0fa6 893c f394 fc3d
000002f0: dd37 473d 90b5 0dbe 6001 283e 8e58 8e3c
00000300: 44f7 b0bd f132 87bd f8fb 03bd 22a4 25bd
00000310: f582 0b3e 97fd 083d 10a3 143e a0b2 453e

RNN.weight_ih_l1 f4 [200, 50]
0.006343087 0.14033616 0.14607646 0.12025106 0.05086208 0.058214154 0.06670169 0.022898115
0.026949042 0.0015710476 -0.051567018 -0.21046022 -0.012604317 0.096889235 -0.07583818 0.038218446
0.06493702 -0.17813337 -0.012875263 0.001167079 0.011814773 -0.07071476 0.03554756 -0.03750237
0.1772965 0.002696732 0.07167767 -0.21174856 -0.085821 -0.19613555 0.08522661 -0.16547936
0.06267669 -0.018577484 0.075144626 0.09674526 -0.10698744 0.03492607 0.15559013 0.034010187
0.09100984 0.02444242 -0.08431131 -0.098376855 0.13303915 0.106001444 0.016385015 0.10666332
0.014631104 0.22187021 0.018170018 -0.03657209 -0.03825877 -0.017252509 -0.20320275 -0.06786249
0.015196478 -0.029401485 -0.16895878 -0.02857019 0.02622662 0.105198085 -0.021109056 -0.07855363
0.13504912 0.024055902 0.08896192 0.018681135 -0.21315733 -0.15339659 -0.024531709 0.0052381293
-0.0731314 0.2065011 -0.18251838 -0.006225193 0.028753905 -0.0105637945 0.1365092 0.04839894
-0.06466961 -0.09155539 -0.08636672 -0.13778596 0.09079025 0.098835066 -0.047276765 0.007444666
-0.023329541 0.023921477 -0.1137991 -0.09878115 0.13419509 0.09658026 0.040949695 0.13216546
-0.053864993 0.057106283 -0.022794928 -0.012125273 0.025078807 0.19562043 0.0043432345 0.09370243
-0.024428714 -0.037724387 -0.071690254 -0.088722706 0.076443985 0.11981833 0.09608212 -0.05541958
-0.06138205 -0.13739216 -0.04133185 0.033889234 -0.056068927 -0.14737026 -0.0554087 0.10559848
0.10202024 0.056382254 -0.14292991 -0.16232045 0.107688196 0.054246627 0.13977244 -0.018654546
-0.08665312 -0.14139709 0.07325102 -0.074230805 0.038931184 0.116654016 -0.106395155 -0.039590042
-0.15190198 0.1574725 0.0057584736 0.04612817 0.11545524 0.076353416 -0.07337005 0.011543449
0.17442288 0.07411895 0.11689361 -0.030092143 0.15628572 0.033692874 0.1572767 0.12529805
0.022219917 0.13161644 0.012904744 -0.03315435 -0.06275568 -0.08992535 0.117601246 0.19685581
0.008972602 0.0618095 0.001926994 0.109305516 -0.03350154 0.087345175 0.0059074014 -0.13852315
-0.07727675 -0.025237823 0.070745885 0.052398115 0.018791921 -0.028660323 -0.08059957 0.16374831
0.14938058 -0.11803892 -0.011156683 -0.19043422 -0.11991807 -0.08356385 -0.1796691 0.041311454
0.075028956 0.11576111 0.052306265 0.14117485 -0.06721097 0.011518439 0.15167557 -0.082339965
0.040590364 0.013127864 -0.042315733 0.09647291 -0.0441583 -0.03292755 -0.026523527 0.03268918
0.104283415 0.108195536 -0.13773102 0.060054567 -0.11989109 0.102423206 0.12331521 0.024418224
0.10004757 -0.026154034 -0.14714748 0.13389538 0.21329524 -0.1800125 0.02716491 -0.18152043
0.03296351 0.08388292 0.11430062 0.11230994 -0.06648044 0.04817265 -0.03759866 0.09869926
-0.11658855 -0.03988621 -0.06333687 0.10722547 -0.07375146 0.025195139 0.13743573 -0.028242353
-0.012345174 -0.14775014 -0.19814587 0.08598162 0.1985685 0.022147266 -0.14990848 -0.070088305
0.035387896 -0.0061878813 -0.05001079 -0.01624513 0.057428572 -0.03770025 0.08218996 0.039042197
-0.0111846635 -0.17664532 0.037728943 0.07950791 -0.007645456 0.1478312 0.10730349 -0.11524364
00000000: acd9 cf3b 48b4 0f3e 1195 153e 3046 f63d
00000010: c254 503d f771 6e3d e59a 883d d494 bb3c
00000020: 3dc4 dc3c 9ceb cd3a f037 53bd e282 57be
00000030: 5682 4ebc dd6d c63d 0c51 9bbd f28a 1c3d
00000040: b3fd 843d 9868 36be c4f2 52bc acf8 983a
00000050: c092 413c e6d2 90bd 519a 113d 169c 19bd
00000060: 378d 353e a8bb 303b becb 923d 9dd4 58be
00000070: ecc2 afbd c2d7 48be 4a8b ae3d 6c73 29be
00000080: a35c 803d cf2f 98bc 6de5 993d 6122 c63d
00000090: 3b1c dbbd a40e 0f3d 0553 1f3e 444e 0b3d
000000a0: 5e63 ba3d 783b c83c 68ab acbd ce79 c9bd
000000b0: 6a3b 083e 4917 d93d de39 863c 4c72 da3d
000000c0: 4cb7 6f3c f231 633e 4ad9 943c 9ecc 15bd
000000d0: 3ab5 1cbd 2255 8dbc 6214 50be 7dfb 8abd
000000e0: a6fa 783c 62db f0bc 8803 2dbe 080c eabc
000000f0: 35d9 d63c 1872 d73d e6ec acbc bae0 a0bd
00000100: 514a 0a3e e210 c53c ab31 b63d 2e09 993c
00000110: ea45 5abe ff13 1dbe b9f6 c8bc 9da4 ab3b
00000120: eac5 95bd 0675 533e 19e6 3abe b4fc cbbb
00000130: 4f8d eb3c c413 2dbc 11c9 0b3e f83d 463d
00000140: 8071 84bd 6481 bbbd 09e1 b0bd c317 0dbe
00000150: 3df0 b93d 0a6a ca3d 48a5 41bd 62f2 f33b
00000160: 981d bfbc f9f6 c33c 810f e9bd c64d cabd
00000170: 706a 093e dfcb c53d deba 273d 6256 073e
00000180: 8aa1 5cbd 47e8 693d 6ebc babc 15a9 46bc
00000190: 1272 cd3c b950 483e b151 8e3b 0fe7 bf3d
000001a0: ba1e c8bc e384 1abd 57d2 92bd 40b4 b5bd
000001b0: aa8e 9c3d 5063 f53d b4c6 c43d a4ff 62bd
000001c0: bf6b 7bbd 88b0 0cbe 964b 29bd 70cf 0a3d
000001d0: 88a8 65bd 3be8 16be 3cf4 62bd 0444 d83d
000001e0: fdef d03d 14f1 663d 385c 12be 5537 26be
000001f0: a18b dc3d b631 5e3d 8220 0f3e 6bd1 98bc
00000200: 3177 b1bd 66ca 10be a104 963d 5206 98bd
00000210: 4e76 1f3d 4de8 ee3d b4e5 d9bd 2b29 22bd
00000220: 318c 1bbe 7940 213e 94b1 bc3b e4f0 3c3d
00000230: cc73 ec3d 2e5f 9c3d 0943 96bd bc20 3d3c
00000240: e99b 323e adcb 973d eb65 ef3d cc83 f6bc
00000250: 5d09 203e 8a01 0a3d 250d 213e 224e 003e
00000260: 8b06 b63c 76c6 063e 6b6e 533c dbcc 07bd
00000270: 0d86 80bd c82a b8bd ecd8 f03d 9294 493e
00000280: d201 133c f52b 7d3d 3093 fc3a 92db df3d
00000290: e938 09bd 07e2 b23d e092 c13b 03d9 0dbe
000002a0: 4643 9ebd 8dbf cebc 38e3 903d 689f 563d
000002b0: 84f1 993c 0ec9 eabc 6311 a5bd a3ad 273e
000002c0: 39f7 183e 64be f1bd 85ca 36bc 3001 43be
000002d0: 9b97 f5bd 8623 abbd 2dfb 37be 3336 293d
000002e0: c8a8 993d 2914 ed3d 183f 563d 2490 103e
000002f0: e8a5 89bd d6b7 3c3c d750 1b3e dba1 a8bd
00000300: 1542 263d 4116 573c 4353 2dbd 9793 c53d
00000310: 55df 34bd 0adf 06bd de47 d9bc 17e5 053d
00000320: 8b92 d53d 9f95 dd3d 5c09 0dbe c7fb 753d
00000330: 7689 f5bd 42c3 d13d af8c fc3d ba08 c83c
00000340: bee5 cc3d fc40 d6bc d4ad 16be df1b 093e
00000350: 116a 5a3e 3255 38be f288 de3c 7ee0 39be
00000360: bf04 073d cfca ab3d 7216 ea3d c102 e63d
00000370: e626 88bd af50 453d 0d01 1abd d622 ca3d
00000380: fac5 eebd b95f 23bd c3b6 81bd 0799 db3d
00000390: 010b 97bd 0966 ce3c f4bb 0c3e 825c e7bc
000003a0: 6a43 4abc d04b 17be c0e6 4abe 2217 b03d
000003b0: 8a55 4b3e 2f6e b53c 9c81 19be 758a 8fbd
000003c0: e6f2 103d b6c3 cabb 1dd8 4cbd 8214 85bc
000003d0: 393a 6b3d 946b 1abd 3653 a83d b6ea 1f3d
000003e0: e13f 37bc 83e2 34be aa89 1a3d 0bd5 a23d
000003f0: bc86 fabb 1061 173e efc1 db3d dc04 ecbd

RNN.weight_hh_l1 f4 [200, 50]
0.017341658 0.032111507 -0.010225046 0.0002268469 -0.04284776 -0.0813909 0.07946376 -0.093610704
-0.017915078 -0.16593473 0.021508858 0.12743339 0.11402208 -0.036768056 -0.05362225 0.03619909
-0.1221028 -0.08948474 -0.010529751 0.0023278808 -0.118604414 -0.17889163 -0.16122457 -0.17540234
0.09169236 0.03215162 -0.049576644 0.029606398 -0.03781777 0.018597765 0.08650061 -0.035737116
0.087727144 0.14090882 -0.11902462 0.032137323 -0.07713557 -0.07720666 -0.012056876 -0.06353652
0.16900095 0.12823501 0.1928174 -0.02294098 -0.0976519 0.010186045 -0.01805399 -0.21634777
0.117766015 0.06115529 -0.06992245 -0.061120074 -0.12029601 -0.029122889 0.09859195 0.07689363
0.024679767 0.12514032 -0.082711674 0.016947348 -0.16414133 -0.07793389 0.063623644 0.055314627
0.009773342 0.113789074 0.13261804 -0.09429318 -0.04250682 0.06713875 0.092067406 -0.052865
-0.04570749 0.07392364 0.054583367 0.052558467 0.19663082 -0.12702028 0.037714906 -0.16705585
-0.08686322 -0.055658635 0.094129 0.13096258 -0.18714646 0.16457598 0.1666205 -0.033230904
-0.09662231 -0.061884817 0.11161638 -0.030644752 -0.02519393 0.025603887 0.13630271 -0.04871305
0.07870192 -0.094309606 -0.10435566 0.04319105 0.06807314 -0.16459005 -0.040639974 -0.056449138
-0.10966748 -0.1686089 -0.049547818 -0.06485994 0.13838775 -0.060495522 -0.05566232 0.072379775
-0.018074159 -0.04160193 0.07225858 -0.026769571 -0.12264435 -0.14195156 -0.121853985 -0.1471201
-0.018600682 -0.011163084 0.090481415 0.0068033403 -0.06956847 0.087796085 -0.1159913 0.12721327
0.05661319 0.22941172 -0.053713415 -0.14103675 -0.19460061 0.030789249 -0.03231766 -0.14051737
0.05315624 -0.081193 0.10679142 0.11494836 0.13410354 0.094135985 0.1228157 -0.05817512
0.096502446 0.2171403 -0.01922785 -0.0049951943 0.18064295 -0.022276158 0.13598631 0.054282468
0.03868407 -0.0029889261 -0.07090309 0.11620296 -0.09614477 0.028555669 -0.11502541 0.11496338
-0.03165797 -0.023483615 0.088890225 0.04654927 0.0054721087 0.18377629 0.13172516 0.049123112
-0.026718853 -0.01880477 -0.08063783 0.12880296 0.101085834 0.14972688 -0.06552983 -0.0028566287
-0.013985485 -0.07220648 0.02656788 0.09271981 -0.09411439 0.09580766 -0.18885455 0.024271566
0.009543065 0.091966614 -0.07032489 -0.04737344 0.060608674 -0.091089286 -0.007518772 0.08186214
0.15391725 -0.07901517 -0.026724959 -0.021374153 0.030806746 0.01168328 0.11820318 0.09582285
0.062707275 -0.100395925 -0.07389776 0.13432851 -0.016058948 -0.10096534 0.076615065 0.08295534
0.036978036 -0.16001257 0.16560254 0.1797024 -0.016638756 -0.062084608 -0.0979726 0.009587297
-0.113772035 -0.2181226 0.040202565 -0.09638907 -0.09469072 -0.10921424 -0.104307055 -0.13419405
0.047953114 -0.0365643 -0.016742025 -0.11272753 -0.047034115 0.053534165 -0.031166552 -0.08359698
-0.053077783 -0.10744181 -0.17648728 -0.032427713 -0.07302991 -0.052223247 -0.082198486 -0.03487376
0.032969832 0.12907125 0.14874828 -0.09840202 0.028830625 -0.13559723 0.023593957 -0.20190147
0.051133685 0.067361444 0.0045914203 0.069540724 -0.0150608625 -0.047032572 0.15655161 -0.17172971
00000000: 1810 8e3c 5b87 033d f486 27bc c0dd 6d39
00000010: 2281 2fbd 46b0 a6bd e5bd a23d f8b6 bfbd
00000020: a4c2 92bc cbea 29be 5833 b03c e67d 023e
00000030: 6984 e93d 1a9a 16bd 01a3 5bbd 7f45 143d
00000040: 0811 fabd c643 b7bd fa84 2cbc 5c8f 183b
00000050: dfe6 f2bd 5e2f 37be 0e18 25be ac9c 33be
00000060: 34c9 bb3d 6bb1 033d e110 4bbd 1e89 f23c
00000070: cee6 1abd 575a 983c 3b27 b13d 1561 12bd
00000080: 4aaa b33d 674a 103e 2ec3 f3bd 6da2 033d
00000090: 41f9 9dbd 861e 9ebd 348a 45bc 6f1f 82bd
000000a0: 960e 2d3e 0a50 033e ed71 453e b9ee bbbc
000000b0: b8fd c7bd 5fe3 263c f6e5 93bc 458a 5dbe
000000c0: 4f2f f13d f87d 7a3d 8033 8fbd 0b59 7abd
000000d0: c15d f6bd 2093 eebc 94ea c93d 687a 9d3d
000000e0: 392d ca3c c924 003e bd64 a9bd 2ad5 8a3c
000000f0: aa14 28be ce9b 9fbd 1d4d 823d 9791 623d
00000100: 5e20 203c 3f0a e93d 06cd 073e c81c c1bd
00000110: a21b 2ebd 0a80 893d d68d bc3d f888 58bd
00000120: c737 3bbd 4765 973d cf92 5f3d 8c47 573d
00000130: 9759 493e 9b11 02be f27a 1a3d b010 2bbe
00000140: 58e5 b1bd 4ffa 63bd b5c6 c03d 0e1b 063e
00000150: 52a3 3fbe 9b86 283e 909e 2a3e 211d 08bd
00000160: ebe1 c5bd ef7a 7dbd 2197 e43d b40a fbbc
00000170: 8063 cebc 3ebf d13c f092 0b3e 5687 47bd
00000180: 792e a13d 6525 c1bd 6cb8 d5bd 19e9 303d
00000190: ee69 8b3d 4b8a 28be 1a76 26bd 3637 67bd
000001a0: 5899 e0bd d0a7 2cbe a7f2 4abd 4ad5 84bd
000001b0: 85b5 0d3e 27ca 77bd 2cfe 63bd d93b 943d
000001c0: 4210 94bc c966 2abd 4efc 933d dc4b dbbc
000001d0: f62c fbbd c05b 11be 958e f9bd a7a6 16be
000001e0: 7560 98bc 5ee5 36bc 524e b93d 8eee de3b
000001f0: ea79 8ebd 6fce b33d d98c edbd 3244 023e
00000200: 3be3 673d e8ea 6a3e 9902 5cbd f06b 10be
00000210: 6245 47be bc39 fc3c 865f 04bd c9e3 0fbe
00000220: 5cba 593d 8448 a6bd 76b5 da3d 0c6a eb3d
00000230: 7052 093e 5eca c03d cc86 fb3d 0949 6ebd
00000240: 13a3 c53d 075a 5e3e b983 9dbc baae a3bb
00000250: 77fa 383e 7d7c b6bc ff3f 0b3e 4b57 5e3d
00000260: 3073 1e3d dce1 43bb a435 91bd d1fb ed3d
00000270: 8de7 c4bd 94ed e93c 7192 ebbd ec71 eb3d
00000280: caab 01bd b660 c0bc 140c b63d 73aa 3e3d
00000290: 604f b33b da2f 3c3e f6e2 063e 5135 493d
000002a0: 7fe1 dabc 760c 9abc 7225 a5bd ece4 033e
000002b0: 1706 cf3d 0152 193e 8134 86bd 4736 3bbb
000002c0: 6023 65bc fee0 93bd e2a4 d93c e2e3 bd3d
000002d0: 0cbf c0bd ce36 c43d 1663 41be 2ad5 c63c
000002e0: 845a 1c3c fe58 bc3d 7f06 90bd a70a 42bd
000002f0: cd40 783d 058d babd 0860 f6bb 56a7 a73d
00000300: 7c9c 1d3e b5d2 a1bd 4dee dabc d918 afbc
00000310: 6e5e fc3c 3a6b 3f3c 8214 f23d c53e c43d
00000320: ac6c 803d 619c cdbd b557 97bd 6a8d 093e
00000330: 0e8e 83bc ebc6 cebd 5ce8 9c3d 7de4 a93d
00000340: 4876 173d 56da 23be b693 293e e803 383e
00000350: 004e 88bc 6e4c 7ebd dca5 c8bd 0a14 1d3c
00000360: 5001 e9bd 885b 5fbe 72ab 243d a267 c5bd
00000370: 35ed c1bd b7ab dfbd f09e d5bd 2a6a 09be
00000380: 7c6a 443d 73c4 15bd 9226 89bc b1dd e6bd
00000390: d8a6 40bd a446 5b3d ff50 ffbc e534 abbd
000003a0: 1768 59bd 740a dcbd 15b9 34be ecd2 04bd
000003b0: b590 95bd 0be8 55bd ae57 a8bd cad7 0ebd
000003c0: 600b 073d 412b 043e 7851 183e 0087 c9bd
000003d0: 342e ec3c 00da 0abe 1d48 c13c 42bf 4ebe
000003e0: 8e71 513d ccf4 893d a073 963b 5e6b 8e3d
000003f0: d6c1 76bc 3aa5 40bd 114f 203e ead9 2fbe

RNN.bias_ih_l1 f4 [200]
0.1589023 -0.0466566 -0.2005409 0.040472917 -0.03572768 0.13112599 0.1411952 -0.16638252
-0.05400384 0.11085608 -0.07219961 -0.19365212 0.0994172 -0.12635463 0.06601878 0.03003373
-0.116739236 -0.073126644 0.09380266 -0.02634678 0.11345798 0.03295864 -0.099265724 0.09246467
0.047575355 -0.074010044 0.025302045 0.044762578 0.11474235 0.07778167 -0.062213544 0.06743539
-0.21365282 -0.014845981 0.062066313 0.15178506 0.09512711 -0.059853747 0.027200483 -0.002653337
0.047231995 0.14324631 0.120062925 -0.089069605 -0.031271905 0.20810008 0.05316958 0.030965675
0.099514686 0.02777793 -0.09759456 -0.11767668 -0.04352525 0.031575438 -0.12003545 0.06934612
0.008214515 -0.085186556 -0.016497437 -0.07761875 0.024628365 -0.061647557 0.09626282 -0.009486498
-0.1116361 -0.13357227 0.07161793 -0.09137931 -0.10254479 0.009145207 0.01246966 -0.076457225
-0.039585445 0.018202983 0.14134392 0.009109123 -0.11745957 0.0053018616 0.06719586 0.06255533
0.010004547 0.10908976 0.1629297 -0.011335178 0.01071672 -0.11168252 -0.05468099 0.021836791
-0.0818753 -0.08688533 -0.03597554 -0.08059623 -0.0006948919 0.0471684 -0.10184021 0.060574584
-0.03434509 0.09772941 -0.09116969 0.065107316 -0.048019618 -0.030677795 -0.0735413 -0.048263095
0.016229847 0.059223175 -0.15396422 -0.0081697665 0.122042894 0.10940627 0.1735803 -0.030320628
-0.028722987 -0.0077659804 -0.12826471 -0.1158567 0.04446715 0.060593195 0.03855154 0.16269252
-0.041323245 -0.053532384 0.04623903 -0.07729778 -0.051670965 -0.06125343 0.13415535 0.10031349
-0.007293528 -0.1818998 -0.06372605 0.08561579 -0.040996987 3.4725294e-05 -0.20293029 0.096600905
0.076843925 0.04301264 0.020651752 0.031339724 -0.0034821369 -0.053201668 0.012212874 0.028925309
-0.060839176 -0.08305683 -0.011740324 0.027318185 -0.083508715 0.0320505 0.080994 0.14997977
-0.13017341 -0.0537423 -0.19018975 0.19860967 0.009798756 -0.07731009 0.12885077 -0.013273618
-0.034637954 -0.1722174 -0.03427545 -0.19078176 -0.12789108 -0.020341236 -0.024934402 -0.031738464
-0.02356593 0.10651509 0.120650165 -0.078249425 -0.0204066 -0.07138399 0.051893447 -0.07790016
0.03482581 -0.13566002 0.0507698 0.020155992 -0.026064174 -0.026307374 0.023114655 -0.0071503865
-0.1330026 0.16435972 -0.070885494 -0.018389566 0.0026326254 0.0531956 -0.007208635 -0.04936631
-0.06367257 0.07401801 0.111700565 0.11415978 0.047529444 -0.070494376 0.19457693 -0.039104134
00000000: 49b7 223e fe1a 3fbd 985a 4dbe eec6 253d
00000010: 3057 12bd e445 063e 7995 103e 2e60 2abe
00000020: 2133 5dbd 8308 e33d 64dd 93bd be4c 46be
00000030: 3f9b cb3d 1c63 01be db34 873d 4c09 f63c
00000040: fb14 efbd 6cc3 95bd 9c1b c03d 34d5 d7bc
00000050: a85c e83d a4ff 063d d44b cbbd 1e5e bd3d
00000060: 60de 423d 9492 97bd 3c46 cf3c f758 373d
00000070: 0afe ea3d ff4b 9f3d a1d3 7ebd 911b 8a3d
00000080: cec7 5abe 8f3c 73bc 3f39 7e3d 8b6d 1b3e
00000090: 01d2 c23d 3429 75bd 8cd3 de3c 9ce3 2dbb
000000a0: 5676 413d 29af 123e 8de3 f53d 206a b6bd
000000b0: f816 00bd 3018 553e 58c8 593d baab fd3c
000000c0: 5bce cb3d 8b8e e33c a8df c7bd 7900 f1bd
000000d0: 8847 32bd 3f55 013d 25d5 f5bd 5705 8e3d
000000e0: 2c96 063c 4a76 aebd a225 87bc 94f6 9ebd
000000f0: 6dc1 c93c 2682 7cbd 7125 c53d 426d 1bbc
00000100: 78a1 e4bd 2bc7 08be 6cac 923d 1325 bbbd
00000110: 0103 d2bd c7d5 153c 8b4d 4c3c 9b95 9cbd
00000120: 5924 22bd 6c1e 953c 76bc 103e 6e3e 153c
00000130: a58e f0bd 3dbb ad3b fc9d 893d 021d 803d
00000140: 1dea 233c 746a df3d 0bd7 263e 2fb7 39bc
00000150: 2e95 2f3c ceb9 e4bd 2cf9 5fbd 12e3 b23c
00000160: 3dae a7bd f0f0 b1bd 165b 13bd a30f a5bd
00000170: 6829 36ba a733 413d 9a91 d0bd 0e1d 783d
00000180: 70ad 0cbd 5b26 c83d 2db7 babd fc56 853d
00000190: 38b0 44bd 0050 fbbc d29c 96bd 86af 45bd
000001a0: 75f4 843c 0094 723d cca8 1dbe 7cda 05bc
000001b0: a0f1 f93d 6510 e03d 09bf 313e f762 f8bc
000001c0: 784c ebbc c479 febb d357 03be 4746 edbd
000001d0: 3023 363d 9230 783d 38e8 1d3d de98 263e
000001e0: 9042 29bd c644 5bbd 2365 3d3d 4c4e 9ebd
000001f0: efa4 53bd e0e4 7abd 0560 093e 2971 cd3d
00000200: 8cfe eebb f143 3abe ce82 82bd 5557 af3d
00000210: 75ec 27bd 00a6 1138 f5cc 4fbe b2d6 c53d
00000220: 5960 9d3d 062e 303d dd2d a93c 155e 003d
00000230: 9034 64bb fee9 59bd 8218 483c c5f4 ec3c
00000240: 8032 79bd b319 aabd 7d5a 40bc 63ca df3c
00000250: 9e06 abbd 6347 033d 2fe0 a53d 4c94 193e
00000260: 2e4c 05be e320 5cbd 1ac1 42be 5560 4b3e
00000270: f68a 203c c154 9ebd 75f1 033e 9779 59bc
00000280: 87e0 0dbd c259 30be 6a64 0cbd 4b5c 43be
00000290: e1f5 02be aaa2 a6bc 3b43 ccbc 3100 02bd
000002a0: 560d c1bc 9524 da3d 6f17 f73d 3c41 a0bd
000002b0: be2b a7bc c531 92bd 398e 543d 1e8a 9fbd
000002c0: 82a5 0e3d 76ea 0abe fef3 4f3d 2e1e a53c
000002d0: 8984 d5bc 9082 d7bc f25a bd3c ca4d eabb
000002e0: d531 08be ea4d 283e 6a2c 91bd b7a5 96bc
000002f0: 2088 2c3b a1e3 593d 6a36 ecbb 5434 4abd
00000300: c466 82bd c196 973d 44c3 e43d 9acc e93d
00000310: 3cae 423d 5b5f 90bd 2d3f 473e a82b 20bd

RNN.bias_hh_l1 f4 [200]
-0.07317748 0.059730135 -0.15369773 -0.021775331 -0.012104304 0.21052891 -0.07365299 -0.1611046
0.17068473 0.038483188 0.0034435596 -0.101248816 0.0940909 -0.09434941 -0.049565457 0.15585665
-0.032312293 0.030194784 -0.0002705669 -0.013980766 -0.022362549 0.12666486 -0.065951355 -0.07223539
-0.18890922 -0.14984345 -0.046282567 -0.012391911 0.21942118 0.06440877 -0.13980508 -0.060306992
-0.038615882 0.17220399 -0.13338263 0.06489966 -0.13331625 -0.061202146 -0.023142822 0.030020012
-0.18101984 -0.029754872 0.11636884 0.051142603 -0.08134899 -0.0047057346 -0.18999262 0.056728292
0.05441705 0.16268325 0.04423018 -0.07779007 -0.14376502 -0.1437019 0.03615533 -0.034839265
-0.10796229 0.1378744 -0.10601605 -0.066890344 -0.040706947 -0.17103042 0.121736646 0.049470767
0.1156746 0.09012411 0.025243966 -0.046591464 -0.028700033 0.0373589 0.107215986 0.049083404
0.081645735 -0.062763885 0.15792131 -0.115364246 -0.020984827 -0.012128801 0.17008898 0.011599352
-0.012586103 -0.047898613 -0.03351369 0.06584568 0.08436122 0.033236712 -0.09469751 0.009585547
-0.11236398 0.075231336 0.07820694 0.16728505 0.088852406 -0.1847845 -0.10763353 0.13438301
0.098455824 -0.13083446 -0.0647952 0.055451497 -0.044639103 0.11510939 -0.027366616 0.15187725
0.020008678 0.043122765 -0.1530763 -0.0033007227 -0.1085694 -0.08783185 -0.056121152 0.10796118
0.026345992 0.050542697 -0.046422713 0.10046817 0.12796055 0.09467028 -0.05888781 0.008959914
0.1913544 0.07258772 -0.017555878 0.085999176 -0.07023118 0.027922995 -0.037945904 -0.12589854
-0.06407348 0.025084438 0.014471352 0.09623992 -0.0022249287 -0.03403742 0.045661934 0.16299568
0.1335517 0.17139158 -0.0795969 0.0012835423 -0.029912036 0.13978139 -0.12688865 0.027264902
0.10325517 -0.15324523 -0.09604587 -0.05166605 -0.18261196 -0.021850962 0.10049901 0.08964886
-0.210062 -0.1886099 -0.006071157 0.13139792 -0.0066969497 -0.17836289 0.19803864 0.14794359
-0.08269504 0.020078104 0.06332553 -0.04716057 0.0013988763 -0.030874174 0.12700474 0.050231706
0.14800835 0.102598645 -0.034948125 0.06252598 0.13375536 0.161318 -0.0069535924 -0.037100986
-0.052341264 -0.027677871 0.1760669 0.09573279 -0.0908179 -0.12771152 -0.071541235 0.02932023
0.11258991 -0.05102211 0.06214567 0.09293164 0.00540156 0.055078838 -0.10078619 -0.036528926
0.09499691 -0.15578963 -0.12888081 -0.0022810064 -0.01383898 0.08396944 0.093312316 -0.009423162
00000000: 13de 95bd 96a7 743d f062 1dbe 2e62 b2bc
00000010: 2151 46bc e494 573e 61d7 96bd 9bf8 24be
00000020: fac7 2e3e 8ca0 1d3d 58ad 613b 8a5b cfbd
00000030: bbb2 c03d 433a c1bd 2605 4bbd e398 1f3e
00000040: e559 04bd 0d5b f73c e0da 8db9 950f 65bc
00000050: aa31 b7bc 6fb4 013e 8111 87bd 26f0 93bd
00000060: 6b71 41be 9070 19be ca92 3dbd 7107 4bbc
00000070: f2af 603e bfe8 833d 1029 0fbe 7704 77bd
00000080: b02b 1ebd 3e56 303e 7595 08be 1dea 843d
00000090: 0e84 08be 1aaf 7abd 0496 bdbc 87ec f53c
000000a0: 445d 39be 7dc0 f3bc c952 ee3d e87a 513d
000000b0: 4d9a a6bd 9032 9abb 6d8d 42be ed5b 683d
000000c0: 6ae4 5e3d 7096 263e b52a 353d 6650 9fbd
000000d0: 2337 13be 9726 13be 9c17 143d 9eb3 0ebd
000000e0: 551b ddbd f22e 0d3e f11e d9bd cefd 88bd
000000f0: 54bc 26bd 9922 2fbe 1051 f93d dca1 4a3d
00000100: cee6 ec3d fd92 b83d 6fcc ce3c b1d6 3ebd
00000110: 551c ebbc a505 193d 0e94 db3d ae0b 493d
00000120: e135 a73d 5a8a 80bd 20b6 213e 1744 ecbd
00000130: 5fe8 abbc e1b7 46bc ce2b 2e3e 350b 3e3c
00000140: f135 4ebc 5631 44bd a745 09bd 1ada 863d
00000150: 93c5 ac3d 3823 083d c5f0 c1bd b30c 1d3c
00000160: 161f e6bd e312 9a3d f62a a03d c64c 2b3e
00000170: 40f8 b53d 2638 3dbe f86e dcbd b39b 093e
00000180: 35a3 c93d 78f9 05be 59b3 84bd 1c21 633d
00000190: 7ed7 36bd 79be eb3d f42f e0bc b685 1b3e
000001a0: 3de9 a33c 7fa1 303d 09c0 1cbe f050 58bb
000001b0: a259 debd 2fe1 b3bd 4bdf 65bd c01a dd3d
000001c0: 8dd3 d73c dc05 4f3d be25 3ebd 42c2 cd3d
000001d0: 1708 033e 7ee2 c13d 5834 71bd 9acc 123c
000001e0: 68f2 433e dfa8 943d 58d1 8fbc 5620 b03d
000001f0: 5dd5 8fbd c4be e43c 2a6d 1bbd 8ceb 00be
00000200: f538 83bd e17d cd3c 4019 6d3c 6f19 c53d
00000210: 1cd0 11bb d26a 0bbd 0208 3b3d 57e8 263e
00000220: c7c1 083e 4681 2f3e b303 a3bd 883c a83a
00000230: 160a f5bc da22 0f3e 19ef 01be a55a df3c
00000240: 7277 d33d 51ec 1cbe b2b3 c4bd c89f 53bd
00000250: a1fe 3abe ca00 b3bc 6dd2 cd3d d299 b73d
00000260: 7e1a 57be f422 41be 8ef0 c6bb 2d8d 063e
00000270: 1672 dbbb c3a4 36be a4ca 4a3e 867e 173e
00000280: 045c a9bd d67a a43c d1b0 813d 712b 41bd
00000290: 805a b73a d6eb fcbc 880d 023e c3bf 4d3d
000002a0: 808f 173e 3d1f d23d c425 0fbd 9f0d 803d
000002b0: 2af7 083e 8c30 253e f6da e3bb 34f7 17bd
000002c0: cb63 56bd b4bc e2bc e24a 343e 8e0f c43d
000002d0: bcfe b9bd cfc6 02be 3684 92bd fb30 f03c
000002e0: 8a95 e63d 8ffc 50bd 758c 7e3d f252 be3d
000002f0: 92ff b03b 599a 613d fd68 cebd 5b9f 15bd
00000300: bd8d c23d 5187 1fbe 55f9 03be f07c 15bb
00000310: e4bc 62bc 2bf8 ab3d 871a bf3d 9b63 1abc

out.weight f4 [3, 50]
-0.20175621 -0.05679851 -0.1394609 -0.015139872 -0.03206982 -0.18227945 -0.14804275 0.017898599
-0.1692057 0.088280775 -0.063429825 -0.15362431 0.02846465 -0.07886326 0.043513738 0.19143964
0.13940427 -0.067186855 -0.17866485 -0.027408067 -0.14094874 0.15331243 0.11515115 0.16098122
-0.04587599 0.005130185 0.020084407 -0.11436873 0.17784047 -0.092083886 0.02708992 -0.048699014
-0.0026478823 0.15044653 -0.10533784 -0.16277574 0.02264078 0.04259932 -0.09417126 -0.15372491
0.07393706 -0.06053017 -0.15366362 0.09790671 0.1181793 0.13026503 0.014624996 0.039018005
0.046869423 0.07481149 -0.17870429 0.14712815 -0.092899315 0.10159327 0.037098184 0.10258834
-0.15546602 -0.053806484 0.21320081 -0.14130768 0.08613838 0.0034368536 -0.0859244 -0.083651595
-0.1248614 0.0032809526 0.12919949 0.14598766 -0.00033948664 0.12368463 0.055912863 -0.11745544
-0.091431946 -0.15082224 -0.13947341 0.09978491 -0.104269475 0.09514864 -0.17209147 -0.10271384
0.012859894 0.10569857 -0.048195563 -0.06261624 -0.12465216 0.18818754 0.046249993 0.0375651
-0.090033606 0.1579766 0.047370754 0.17098917 -0.15302669 -0.1098234 0.018194553 -0.13150162
-0.042182814 0.11026313 -0.09796961 0.03377925 -0.041963324 0.017117038 -0.06984476 -0.03393347
0.00546174 -0.014948999 0.11231041 0.035690054 0.09487549 -0.09124465 0.06286345 -0.024949498
-0.06520394 -0.06093847 -0.060597785 0.04750794 -0.060809124 -0.008411144 0.026592147 0.010463301
-0.033748124 -0.15480578 -0.07088357 -0.09914205 -0.05827178 0.09202369 -0.06774555 0.032331098
0.039606605 0.013280353 0.045845926 -0.07220597 0.06724316 0.08948143 -0.031417333 -0.12743321
0.017606579 -0.15678124 -0.0063564237 -0.008913563 -0.013788459 0.06732094 -0.031745918 0.048853036
-0.0073239296 0.07586465 0.041414957 0.075019814 0.108079426 -0.119303
00000000: 2e99 4ebe 8ea5 68bd d7ce 0ebe 3a0d 78bc
00000010: a55b 03bd 77a7 3abe 8598 17be 15a0 923c
00000020: 4244 2dbe 8dcc b43d 7fe7 81bd b14f 1dbe
00000030: b32e e93c 1083 a1bd 763b 323d c108 443e
00000040: febf 0e3e 4399 89bd ebf3 36be e286 e0bc
00000050: de54 10be effd 1c3e 5ed4 eb3d 43d8 243e
00000060: 76e8 3bbd 1c1b a83b 0e88 a43c 273a eabd
00000070: d01b 363e 7a96 bcbd aeeb dd3c 9e78 47bd
00000080: 1888 2dbb a80e 1a3e 5ebb d7bd afae 26be
00000090: 2879 b93c a07c 2e3d dddc c0bd 106a 1dbe
000000a0: 506c 973d 7cee 77bd ff59 1dbe 5083 c83d
000000b0: fd07 f23d 3264 053e ae9d 6f3c 58d1 1f3d
000000c0: 27fa 3f3d c436 993d 42fe 36be c3a8 163e
000000d0: ff41 bebd 2210 d03d 44f4 173d d619 d23d
000000e0: 7c32 1fbe 3064 5cbd 5051 5a3e f6b2 10be
000000f0: 5269 b03d d63c 613b 22f9 afbd 8751 abbd
00000100: 55b7 ffbd 4005 573b df4c 043e ca7d 153e
00000110: 20fd b1b9 5e4e fd3d e304 653d 7a8c f0bd
00000120: ac40 bbbd 2571 1abe 1ed2 0ebe 085c cc3d
00000130: 3c8b d5bd 4add c23d bf38 30be a25b d2bd
00000140: 4eb2 523c 7e78 d83d b668 45bd f13c 80bd
00000150: a249 ffbd 3cb4 403e a270 3d3d dddd 193d
00000160: 8a63 b8bd 9ec4 213e d607 423d c917 2f3e
00000170: 07b3 1cbe 17eb e0bd be0c 953c 5ca8 06be
00000180: e3c7 2cbd a3d1 e13d 4aa4 c8bd 1c5c 0a3d
00000190: bce1 2bbd 0839 8c3c c50a 8fbd d2fd 0abd
000001a0: 65f8 b23b a5ec 74bc 0003 e63d bc2f 123d
000001b0: 154e c23d 7ade babd 8dbe 803d e462 ccbc
000001c0: a589 85bd 9e9a 79bd 6235 78bd b097 423d
000001d0: fd12 79bd e5ce 09bc c6d7 d93c 446e 2b3c
000001e0: 793b 0abd 6885 1ebe 682b 91bd fd0a cbbd
000001f0: 64ae 6ebd eb76 bc3d 2ebe 8abd 9d6d 043d
00000200: 893a 223d d695 593c f0c8 3b3d b9e0 93bd
00000210: c8b6 893d 0a42 b73d 76af 00bd da7d 02be
00000220: ac3b 903c 438b 20be 8c49 d0bb 310a 12bc
00000230: fde8 61bc 90df 893d 0208 02bd 1f1a 483d
00000240: 93fd efbb ed5e 9b3d bba2 293d fda3 993d
00000250: bf58 dd3d 2255 f4bd

out.bias f4 [3]
-0.013267663 0.19646022 -0.1434821
00000000: 9d60 59bc de2c 493e f9ec 12be
