saved_models/model_CricketY_5_02_2_50.pt (torch, 131403 bytes, 12 tensors)

Controller.fc.weight f4 [1, 51]
0.2656227 -0.039987244 0.12835428 0.2370461 -0.19333135 0.18187289 0.08041008 -0.07323705
0.22023554 -0.100737505 0.077785574 -0.12405053 0.16898726 0.17655903 -0.01608212 -0.013260055
0.034713734 -0.14109525 0.08002859 -0.10877598 -0.04534611 -0.12818432 -0.090240605 0.14926006
0.048037004 -0.29382625 0.0024748258 -0.23434012 -0.077021874 -0.3128432 0.04799218 -0.21064493
0.064354 0.088086724 -0.054675337 -0.073879026 -0.09494979 -0.020403972 -0.13816911 0.08291493
0.14511089 0.09163367 0.22405766 0.014501002 -0.018491644 -0.0012472143 0.12662755 -0.08938383
0.2374839 -0.09173487 -0.30384564
00000000: b3ff 873e aac9 23bd 4e6f 033e 36bc 723e
00000010: a7f8 45be e33c 3a3e 0aae a43d 4efd 95bd
00000020: 6d85 613e 774f cebd 0b4e 9f3d 340e febd
00000030: ff0a 2d3e e4cb 343e a6be 83bc b440 59bc
00000040: fd2f 0e3d 467b 10be 08e6 a33d f1c5 debd
00000050: d8bc 39bd c042 03be 11d0 b8bd a1d7 183e
00000060: 73c2 443d 6570 96be b030 223b dbf6 6fbe
00000070: a5bd 9dbd fc2c a0be 7393 443d 4eb3 57be
00000080: 08cc 833d d066 b43d 3ff3 5fbd e34d 97bd
00000090: 0975 c2bd 3b26 a7bc 347c 0dbe 4ecf a93d
000000a0: f397 143e 6faa bb3d 5f6f 653e 9c95 6d3c
000000b0: ca7b 97bc 9179 a3ba a7aa 013e df0e b7bd
000000c0: fb2e 733e 7edf bbbd a891 9bbe

BaselineNetwork.fc.weight f4 [1, 51]
0.015810207 0.035318244 0.16576858 0.28331113 -0.12972564 0.13803768 0.12840249 -0.075380474
0.016881596 0.0038867309 -0.033871304 -0.07568991 0.056565683 0.070696145 0.17990284 -0.15748554
-0.11831554 -0.19967228 0.3585347 0.13249597 0.2469206 -0.075104125 -0.0120149525 -0.009711882
-0.045515068 -0.03405795 0.24674168 0.017625155 -0.2909518 -0.07178201 0.071443155 0.0011466271
0.06705128 0.073403426 0.09573108 -0.049171712 -0.18193358 0.02611605 -0.24362467 0.100983076
0.105345555 0.21486676 0.01066649 -0.08483717 -0.06565711 -0.054428812 -0.11266325 -0.26885477
-0.10889918 0.0025622235 0.01111676
00000000: 6884 813c dda9 103d 3dbf 293e 280e 913e
00000010: ccd6 04be c059 0d3e f17b 033e 1461 9abd
00000020: 464b 8a3c 86b8 7e3b a3bc 0abd 5003 9bbd
00000030: 6bb1 673d 24c9 903d 7338 383e e443 21be
00000040: 6b4f f2bd e476 4cbe dc91 b73e 06ad 073e
00000050: c1d8 7c3e 31d0 99bd 5dda 44bc 961e 1fbc
00000060: 026e 3abd 5980 0bbd daa9 7c3e a162 903c
00000070: a2f7 94be 7202 93bd ca50 923d 6c4a 963a
00000080: 2e52 893d 8954 963d a80e c43d 4768 49bd
00000090: cc4c 3abe 54f1 d53c bf78 79be 37d0 ce3d
000000a0: 69bf d73d 0806 5c3e 80c2 2e3c 1cbf adbd
000000b0: 3c77 86bd bff0 5ebd fdbb e6bd 55a7 89be
000000c0: 8906 dfbd faea 273b 1223 363c

RNN.weight_ih_l0 f4 [200, 1]
0.23018739 0.0051829815 0.147586 -0.07769701 -0.28386146 -0.19163667 0.32318488 0.17503946
0.057992 -0.17304766 -0.10973917 0.22895665 -0.0692595 -0.17319077 0.057846256 -0.115163535
0.19397315 0.14315626 0.010915962 0.024614522 -0.23676915 0.030704994 0.072317086 -0.1745985
0.31391373 0.09522785 0.30005944 0.1604538 -0.29356232 0.09729407 -0.09938185 -0.116733015
-0.16495743 0.06309902 -0.034871202 0.20664573 0.06980325 0.074438795 0.2730606 -0.04915484
0.10381683 0.21114911 0.15168911 -0.12377215 -0.09429467 -0.28244522 -0.20440976 0.15810785
0.11741225 0.036804482 0.18761912 -0.042116627 0.12252848 0.058012955 -0.1418375 -0.15180899
0.13633437 0.047282837 -0.116479695 -0.116157375 0.0041822055 0.09823794 -0.13221414 -0.007331431
0.06735449 -0.11794603 0.1192306 0.15185325 -0.0050095515 -0.05410434 -0.1388379 -0.019871878
-0.11135399 0.14328286 0.16782895 -0.11459504 0.09396597 0.07708763 0.00205705 -0.122286476
-0.0024168545 -0.039765824 0.012835568 -0.050291598 -0.20823272 0.124318145 -0.08370897 0.10145031
0.110695474 0.13058217 0.05832835 0.12863258 -0.05286507 -0.16920371 -0.19796216 -0.14613451
-0.37375963 0.060183816 0.21697336 0.043029662 -0.32266435 -0.1738422 -0.33557656 -0.33364755
0.122210816 0.0041460074 0.4597138 0.18445721 -0.28944686 -0.39298317 -0.3741247 0.50714725
-0.06817458 -0.41955453 0.38995847 -0.34682387 0.010992458 0.4475171 -0.17826289 -0.25759456
-0.35832772 0.41308638 0.42723125 0.1975267 -0.4579618 -0.4510632 -0.34831205 0.3419157
0.2153375 0.3113074 0.45834976 0.3162509 -0.06719904 -0.43792433 -0.43216574 -0.47471285
0.32832244 -0.39396644 -0.37724635 -0.30393937 -0.3762478 -0.004056539 -0.4607351 0.31588325
0.20899431 0.44479123 0.20545754 -0.45005792 -0.3471524 -0.436387 0.1692051 -0.011644678
0.3285286 -0.09441806 -0.12042123 -0.0066089462 0.23775609 0.06908872 0.116669774 -0.11882419
-0.055568058 0.34639806 -0.08983327 -0.06374569 0.056149058 -0.15939389 0.25055185 0.06693964
0.08605393 0.18697034 0.10242231 0.051304698 -0.029225063 -0.014323373 0.19948485 -0.0016388083
0.124259666 -0.010110431 -0.112646185 -0.10396839 -0.13906848 -0.09040581 -0.17558675 0.2890158
0.08237189 0.17707804 -0.020524388 0.09746378 -0.020309892 -0.08448249 0.1710795 0.10688738
0.016853716 -0.22192731 -0.23801526 -0.18432587 -0.26117784 0.1594795 0.074686594 0.031743754
00000000: 3eb6 6b3e 00d6 a93b c920 173e 9c1f 9fbd
00000010: 4a56 91be 673c 44be 7d78 a53e 8b3d 333e
00000020: 0589 6d3d 6833 31be eebe e0bd 9d73 6a3e
00000030: edd7 8dbd ec58 31be 32f0 6c3d dcda ebbd
00000040: e6a0 463e 8e97 123e ddd8 323c 65a4 c93c
00000050: 9d73 72be 0a89 fb3c fb1a 943d f3c9 32be
00000060: 4db9 a03e d206 c33d 64a1 993e 004e 243e
00000070: cd4d 96be 1d42 c73d b688 cbbd b811 efbd
00000080: 9aea 28be 0f3a 813d 1bd5 0ebd f09a 533e
00000090: 02f5 8e3d 5e73 983d 99ce 8b3e 9656 49bd
000000a0: eb9d d43d 7937 583e 6454 1b3e 417c fdbd
000000b0: 901d c1bd a99c 90be cb50 51be 06e7 213e
000000c0: d575 f03d 4cc0 163d 3a1f 403e 7c82 2cbd
000000d0: 36f0 fa3d fe9e 6d3d d93d 11be d173 1bbe
000000e0: 3d9b 0b3e a6ab 413d e88c eebd ebe3 edbd
000000f0: e20a 893b f930 c93d 2563 07be 803c f0bb
00000100: 27f1 893d b08d f1bd 2c2f f43d 6b7f 1b3e
00000110: 2a27 a4bb 839c 5dbd 862b 0ebe 59ca a2bc
00000120: 900d e4bd beb8 123e 5adb 2b3e ceb0 eabd
00000130: 3b71 c03d 1fe0 9d3d 92cf 063b 5571 fabd
00000140: 1764 1ebb 7de1 22bd 464c 523c 90fe 4dbd
00000150: f53a 55be 839a fe3d 9c6f abbd 2ec5 cf3d
00000160: 4fb4 e23d 55b7 053e b5e9 6e3d 42b8 033e
00000170: 0b89 58bd bd43 2dbe 98b6 4abe 49a4 15be
00000180: 6c5d bfbe 4e83 763d 442e 5e3e df3f 303d
00000190: 4334 a5be b103 32be b1d0 abbe dad3 aabe
000001a0: aa49 fa3d 3bdb 873b 9b5f eb3e 5ae2 3c3e
000001b0: 6132 94be 1735 c9be 468d bfbe 67d4 013f
000001c0: 1d9f 8bbd dacf d6be a3a8 c73e e692 b1be
000001d0: b619 343c f620 e53e 8c8a 36be 6fe3 83be
000001e0: bb76 b7be 0f80 d33e 0ebe da3e 7044 4a3e
000001f0: f879 eabe c1f1 e6be f555 b2be 930f af3e
00000200: 6f81 5c3e af63 9f3e d2ac ea3e a3eb a13e
00000210: a69f 89bd 9e37 e0be d444 ddbe 900d f3be
00000220: e119 a83e f8b5 c9be 6f26 c1be f19d 9bbe
00000230: 8da3 c0be b7ec 84bb 79e5 ebbe 73bb a13e
00000240: 9b02 563e adbb e33e 7663 523e fe6d e6be
00000250: f6bd b1be 1e6e dfbe 1a44 2d3e 52c9 3ebc
00000260: e734 a83e 415e c1bd 689f f6bd dc8f d8bb
00000270: 5576 733e 637e 8d3d 90f0 ee3d 195a f3bd
00000280: 559b 63bd 165b b13e 81fa b7bd 1a8d 82bd
00000290: 8efc 653d 2738 23be 5548 803e a617 893d
000002a0: 0b3d b03d 2775 3f3e cac2 d13d e024 523d
000002b0: 6669 efbc 95ac 6abc c245 4c3e 48cd d6ba
000002c0: da7b fe3d 39a6 25bc 0bb3 e6bd 61ed d4bd
000002d0: f867 0ebe ae26 b9bd 03cd 33be e1f9 933e
000002e0: 98b2 a83d f253 353e c322 a8bc 179b c73d
000002f0: ee60 a6bc 2805 adbd 772f 2f3e c5e7 da3d
00000300: ce10 8a3c ea40 63be 46ba 73be ecbf 3cbe
00000310: 1ab9 85be 984e 233e 49f5 983d bd05 023d

RNN.weight_hh_l0 f4 [200, 50]
-0.073516294 0.10396791 -0.18935575 -0.15056172 -0.117753014 -0.051710054 0.1954659 0.071432315
-0.108212635 0.0082048075 -0.03457232 0.09436859 0.1923569 0.034419425 0.005362822 -0.18812396
-0.14316624 -0.04061814 0.17116451 0.13542041 -0.17469065 -0.0139422305 0.083808064 -0.11480538
-0.1455527 -0.086727366 0.025467178 0.13350138 -0.12999156 0.0860998 0.15904263 0.01911682
0.10302229 -0.04281309 -0.16790071 -0.046976138 0.18156429 -0.034878604 -0.23399009 -0.22314742
-0.22070143 -0.015786104 0.03483478 0.011195866 -0.065185204 0.13821454 0.10812197 0.04140939
0.10936465 0.012589911 -0.02099049 0.14916745 0.037896253 -0.0747697 -0.22807252 -0.013362848
-0.01165356 -0.123883516 -0.18624605 -0.1328146 -0.008992337 0.03802634 0.082066245 -0.20827763
-0.14736858 -0.07827226 -0.029756874 0.022718318 0.028201774 0.046484713 -0.34874946 -0.07032639
0.09541625 -0.029362913 0.11639876 -0.3745388 -0.105744526 -0.055154003 0.22956501 0.2328897
0.0793409 0.189814 -0.00054030167 -0.12336555 -0.040134773 0.0012189286 0.043595277 -0.00779335
0.00686907 0.046018444 0.053175293 -0.16093507 -0.18489969 0.060756434 -0.0018728306 0.049642228
7.6417346e-05 0.12991822 0.06812087 -0.018872218 0.09897459 0.024732832 -0.15337797 -0.07040292
-0.20216702 -0.052931916 -0.035291 -0.057124104 0.020813512 0.0067482525 0.08612262 -0.0943013
-0.10672615 0.020995455 -0.17783369 -0.063186504 -0.17026855 -0.1343042 0.025637053 0.21855493
-0.09831238 0.016110295 -0.0029004079 -0.24642956 -0.01572074 -0.21495624 -0.13987511 -0.008828307
0.044829123 0.12136371 -0.11045293 0.15562029 0.13091142 -0.010917683 -0.095558494 0.049397632
-0.02988575 0.1695776 0.017464448 0.096245214 0.27699316 -0.20758426 -0.1139455 0.14011523
0.08033936 -0.060147498 -0.040183194 -0.09736491 -0.023798898 0.03700652 0.12848376 0.11096125
-0.042184334 0.13938314 0.012241385 -0.1290851 0.014214758 0.052982427 -0.033796776 -0.11994981
0.051365055 -0.04716853 -0.175753 -0.07722329 0.16224207 0.18120697 0.008771995 0.018385451
0.17528759 0.0872761 -0.14807865 0.10664114 -0.07324141 -0.16904892 -0.084855735 0.014939593
-0.021749651 -0.05065282 0.06334353 0.022935634 -0.050478064 -0.10988488 0.00763054 -0.03857501
0.14124471 0.105989225 0.05853872 0.050616063 0.1136894 -0.023402976 0.10254552 -0.16872708
0.027268495 0.13615446 0.03517805 -0.057653934 -0.04904499 -0.11074311 0.08919201 0.0746814
0.18973209 0.17023198 0.013697542 0.028503088 -0.083234295 -0.083586596 -0.03632266 -0.22513983
0.048161034 -0.028066335 0.07940852 -0.22795063 0.05046615 -0.027479086 0.026272224 0.11251856
-0.1006824 -0.0133251995 0.11079338 0.20026276 0.058589894 -0.19719113 -0.11393526 -0.022419984
0.121037394 0.024206348 -0.06591376 -0.12388122 0.090075456 0.069026046 0.03303876 -0.12855981
-0.14492567 0.07247655 -0.013298126 0.20332265 -0.24402829 0.06481536 0.07731291 0.06767973
0.23630711 -0.09304135 0.15933481 0.013391036 0.054000724 -0.1419738 -0.15628113 0.16415668
0.05568347 0.12709063 0.04229305 -0.017124236 0.013469553 -0.11171158 -0.04788759 0.04911501
00000000: b68f 96bd 21ed d43d 79e6 41be da2c 1abe
00000010: 7e28 f1bd eccd 53bd 3628 483e 1b4b 923d
00000020: 969e ddbd 756d 063c b49b 0dbd 5244 c13d
00000030: 35f9 443e 62fb 0c3d 9dba af3b 91a3 40be
00000040: 2c9a 12be 355f 26bd c045 2f3e a6ab 0a3e
00000050: 1be2 32be f46d 64bc 90a3 ab3d 151f ebbd
00000060: c40b 15be 1e9e b1bd 8ba0 d03c 96b4 083e
00000070: 821c 05be 1855 b03d 12dc 223e e19a 9c3c
00000080: 5afd d23d c75c 2fbd 2aee 2bbe 0d6a 40bd
00000090: fdeb 393e dedc 0ebd 199b 6fbe c280 64be
000000a0: 8eff 61be dc51 81bc eaae 0e3d de6e 373c
000000b0: d27f 85bd 1d88 0d3e 0d6f dd3d e49c 293d
000000c0: 93fa df3d ea45 4e3c 40f4 abbc 5abf 183e
000000d0: 1a39 1b3d db20 99bd d88b 69be d9ef 5abc
000000e0: 93ee 3ebc a4b6 fdbd 49b7 3ebe 8d00 08be
000000f0: 9854 13bc 82c1 1b3d 5912 a83d bb46 55be
00000100: cae7 16be 354d a0bd b0c4 f3bc c41b ba3c
00000110: 6807 e73c c166 3e3d 4a8f b2be 4807 90bd
00000120: 9869 c33d 7e8a f0bc 7962 ee3d 8dc3 bfbe
00000130: 9690 d8bd 2ae9 61bd 1713 6b3e a37a 6e3e
00000140: 7b7d a23d 9a5e 423e 08a3 0dba 14a7 fcbd
00000150: 5c64 24bd 75c4 9f3a f690 323d 5c5f ffbb
00000160: f015 e13b d67d 3c3d 56ce 593d 2acc 24be
00000170: 5856 3dbe bddb 783d c479 f5ba a655 4b3d
00000180: 4042 a038 4809 053e f482 8b3d e999 9abc
00000190: 31b3 ca3d 829c ca3c 1d0f 1dbe 682f 90bd
000001a0: df04 4fbe 23cf 58bd 4c8d 10bd f7fa 69bd
000001b0: 1981 aa3c 7220 dd3b 0e61 b03d 0a21 c1bd
000001c0: 3d93 dabd a9fe ab3c 091a 36be ed67 81bd
000001d0: e15a 2ebe 0a87 09be cc04 d23c ddcc 5f3e
000001e0: 0058 c9bd bdf9 833c c514 3ebb 0858 7cbe
000001f0: c8c8 80bc 7d1d 5cbe 6c3b 0fbe 9aa4 10bc
00000200: be9e 373d 898d f83d 2535 e2bd ed5a 1f3e
00000210: a50d 063e 15e0 32bc 2cb4 c3bd 2c55 4a3d
00000220: f6d2 f4bc c0a5 2d3e 9a11 8f3c 361c c53d
00000230: 0cd2 8d3e f890 54be 425c e9bd 5e7a 0f3e
00000240: f688 a43d 395d 76bd 2297 24bd 4167 c7bd
00000250: e8f5 c2bc 2694 173d 3f91 033e a73f e33d
00000260: 7bc9 2cbd 74ba 0e3e 1790 483c e22e 04be
00000270: 04e5 683c 1a04 593d 7d6e 0abd 3fa8 f5bd
00000280: 2a64 523d ca33 41bd 98f8 33be 3f27 9ebd
00000290: c922 263e 528e 393e 6ab8 0f3c 169d 963c
000002a0: 977e 333e d0bd b23d eea1 17be ac66 da3d
000002b0: 98ff 95bd 291b 2dbe d8c8 adbd 32c5 743c
000002c0: 532c b2bc 5579 4fbd 41ba 813d 83e3 bb3c
000002d0: 16c2 4ebd 530b e1bd 9c09 fa3b d400 1ebd
000002e0: 74a2 103e e110 d93d 4cc6 6f3d ca52 4f3d
000002f0: fdd5 e83d 99b7 bfbc 6303 d23d cbc6 2cbe
00000300: 2e62 df3c 136c 0b3e dc16 103d 8826 6cbd
00000310: 66e3 48bd 49cd e2bd 4daa b63d 90f2 983d
00000320: 2149 423e 4b51 2e3e a86b 603c 4f7f e93c
00000330: be76 aabd 732f abbd 12c7 14bd 0e8b 66be
00000340: 8144 453d 5feb e5bc efa0 a23d e46b 69be
00000350: 98b5 4e3d d21b e1bc d938 d73c 2170 e63d
00000360: 9332 cebd f051 5abc a4e7 e23d ae11 4d3e
00000370: f5fb 6f3d 79ec 49be e456 e9bd 1daa b7bc
00000380: 74e2 f73d 644c c63c cbfd 86bd 70b5 fdbd
00000390: 7b79 b83d 875d 8d3d a753 073d 2fa5 03be
000003a0: 6567 14be 966e 943d 62e0 59bc d033 503e
000003b0: 8de2 79be eabd 843d 3b56 9e3d ac9b 8a3d
000003c0: 7efa 713e 778c bebd aa28 233e 1366 5b3c
000003d0: dd2f 5d3d 9461 11be 2908 20be b018 283e
000003e0: 5a14 643d 0c24 023e 7a3b 2d3d 2048 8cbc
000003f0: 66af 5c3c 0ac9 e4bd c725 44bd d22c 493d

RNN.bias_ih_l0 f4 [200]
0.090459384 -0.14245182 0.082861885 -0.14706588 -0.24320412 -0.1886163 0.18210225 -0.17393553
-0.09506946 0.13610227 0.1806906 0.2993446 -0.11877068 0.116990715 0.22447449 -0.027736595
-0.039098542 0.17587653 -0.0879616 0.029115874 0.077483006 0.0866688 0.34027976 -0.05153171
0.3904318 0.19680332 -0.09744294 0.10740591 -0.09018501 0.12178426 0.15028648 0.0753004
-0.274168 0.12180062 0.25029522 0.20248972 0.16504978 0.2621671 0.22536182 0.16906485
0.051611625 -0.2769555 0.20187058 -0.05202095 -0.22147797 0.1306049 -0.20230734 0.121766195
0.10223688 0.21347363 -0.14657754 -0.21010773 -0.059487775 -0.18581744 -0.023592573 -0.122334965
-0.015483082 -0.3109998 -0.20900454 0.054389354 -0.09556211 -0.06121404 -0.11567584 0.057361465
-0.08546869 0.016963474 -0.03539475 0.063300595 -0.17836149 -0.32632384 -0.13637456 -0.09886101
-0.09685684 -0.060051702 0.10332091 0.15048201 -0.2030978 -0.22216147 -0.051220514 -0.09744023
0.08390375 -0.08763804 -0.051314056 -0.09473629 -0.044001732 -0.0020569009 -0.16612011 -0.038472086
-0.12931137 -0.16920455 -0.12288437 -0.3098148 -0.15176883 -0.22901356 -0.17756703 -0.1423113
0.0042346288 -0.032458276 0.007825619 -0.17007412 0.07603217 0.012543575 -0.004166728 0.06582543
-0.13424246 -0.04188289 0.09334141 -0.062266234 0.028916944 0.15047197 -0.049996193 0.08142696
0.099573374 -0.002996417 -0.11593001 0.13031586 -0.07525348 0.0061787637 -0.04155723 0.06544813
0.09760022 -0.08967068 0.041632652 0.03206985 0.053726897 -0.07104693 -0.020025235 0.008509288
-0.012395531 -0.15136446 -0.06586335 0.04995359 0.02532949 -0.050208624 0.0934305 0.14433281
0.04046063 -0.09910908 0.030035613 -0.046650477 -0.06925926 0.047023002 -0.018383548 -0.020035751
0.08539681 -0.038004007 0.14736302 0.017527362 0.015660558 0.005118794 0.013124832 -0.11757997
0.09221511 -0.09151909 -0.25613734 -0.053814687 0.17341855 -0.0045999447 -0.03207467 0.18691935
0.08520862 0.14875618 -0.18605764 0.18906647 -0.004018655 0.10963997 -0.037965585 -0.0029969625
-0.15925662 -0.06719251 0.01611408 0.033118453 0.26084888 -0.22280544 0.13280994 0.11632864
0.062432982 -0.03703843 -0.009043853 0.11228825 0.1391773 -0.05469954 -0.041433148 0.10459199
0.16791017 0.08432559 -0.12776525 0.13244277 0.09000487 0.06628738 -0.0131819 -0.225929
0.24173753 -0.04057278 -0.09499298 0.032326713 0.012845279 0.2056367 0.046851747 0.261964
00000000: c542 b93d e4de 11be 7eb3 a93d 7098 16be
00000010: 800a 79be a224 41be 0379 3a3e 281c 32be
00000020: c7b3 c2bd 655e 0b3e f506 393e b243 993e
00000030: 0b3e f3bd d498 ef3d a4dc 653e db37 e3bc
00000040: cb25 20bd fa18 343e 3625 b4bd 6a84 ee3c
00000050: 69af 9e3d 697f b13d 2639 ae3e ea12 53bd
00000060: ade6 c73e cf86 493e 2a90 c7bd a1f7 db3d
00000070: ebb2 b8bd 076a f93d b3e4 193e 1937 9a3d
00000080: c05f 8cbe 9a72 f93d b226 803e 7759 4f3e
00000090: cf02 293e c43a 863e 40c5 663e 561f 2d3e
000000a0: b666 533d 1ccd 8dbe 29b7 4e3e eb13 55bd
000000b0: 1fcb 62be 4abd 053e a829 4fbe 8e60 f93d
000000c0: 9261 d13d d598 5a3e 6c18 16be 7b26 57be
000000d0: 74a9 73bd ed46 3ebe 3645 c1bc c18a fabd
000000e0: c1ac 7dbc 5e3b 9fbe 4905 56be 5fc7 5e3d
000000f0: 11b6 c3bd 93bb 7abd 74e7 ecbd dbf3 6a3d
00000100: 350a afbd fcf6 8a3c 16fa 10bd bea3 813d
00000110: 65a4 36be eb13 a7be c6a5 0bbe a477 cabd
00000120: e15c c6bd c6f8 75bd ea99 d33d f517 1a3e
00000130: dff8 4fbe 4c7e 63be 9acc 51bd be8e c7bd
00000140: bbd5 ab3d 937b b3bd b02e 52bd 1a05 c2bd
00000150: 293b 34bd 12cd 06bb 641b 2abe e894 1dbd
00000160: 336a 04be f543 2dbe cdaa fbbd 0ca0 9ebe
00000170: 4a69 1bbe 8882 6abe 22d4 35be 0eba 11be
00000180: a4c2 8a3b f8f2 04bd 0637 003c e927 2ebe
00000190: c1b6 9b3d 9183 4d3c 0c89 88bb 7ccf 863d
000001a0: db76 09be 658d 2bbd c829 bf3d e10a 7fbd
000001b0: 3ae3 ec3c 5315 1a3e cfc8 4cbd 2ec3 a63d
000001c0: 20ed cb3d 895f 44bb b76c edbd 8571 053e
000001d0: 7f1e 9abd 3a77 ca3b ea37 2abd ab09 863d
000001e0: a0e2 c73d 43a5 b7bd 0087 2a3d ad5b 033d
000001f0: bc10 5c3d 0e81 91bd f60b a4bc 8a6a 0b3c
00000200: a016 4bbc 49ff 1abe 5de3 86bd 239c 4c3d
00000210: ca7f cf3c 8fa7 4dbd 7d58 bf3d fbcb 133e
00000220: 0cba 253d b4f9 cabd 3f0d f63c 9214 3fbd
00000230: cdd7 8dbd 319b 403d 1899 96bc 0422 a4bc
00000240: 86e4 ae3d 17aa 1bbd 55e6 163e 8b95 8f3c
00000250: 924a 803c 8ebb a73b 8909 573c c4cd f0bd
00000260: 47db bc3d 5c6e bbbd 6f24 83be ca6c 5cbd
00000270: a294 313e 22bb 96bb bb60 03bd c967 3f3e
00000280: db81 ae3d 8a53 183e e585 3ebe a49a 413e
00000290: ecae 83bb ec8a e03d cd81 1bbd b068 44bb
000002a0: 2b14 23be 3a9c 89bd ad01 843c 37a7 073d
000002b0: fc8d 853e 1c27 64be 54ff 073e b63d ee3d
000002c0: bab9 7f3d 9cb5 17bd ab2c 14bc 62f7 e53d
000002d0: 7e84 0e3e a00c 60bd ceb5 29bd 5334 d63d
000002e0: a5f0 2b3e e5b2 ac3d e5d4 02be 149f 073e
000002f0: 7954 b83d aec1 873d e5f8 57bc ef59 67be
00000300: 0b8a 773e a52f 26bd ae8b c2bd 0469 043d
00000310: 0175 523c 6d92 523e 9ee7 3f3d 2520 863e

RNN.bias_hh_l0 f4 [200]
0.03812701 -0.15437037 -0.018201295 -0.12313527 -0.028334305 -0.21876869 0.17530468 -0.1305617
0.042261634 0.08266962 0.20222615 0.3837756 -0.002912194 -0.005478748 0.19667761 0.14875421
-0.2180266 0.11505338 -0.01739896 -0.052374158 0.15348858 0.2715463 0.34866488 -0.061666757
0.3664085 0.29564512 -0.052766286 0.08857883 -0.10841445 0.11233588 0.09308157 0.12155609
-0.13086174 0.14885965 0.017105708 0.22817405 -0.005869029 0.3436777 0.026172657 -0.005575411
0.015877282 -0.34655085 0.16733356 -0.07809334 -0.050355565 0.05536611 -0.15378596 0.17264979
0.08023358 0.12962158 -0.1517073 -0.25402594 -0.1161457 -0.21879263 -0.01566198 -0.014312737
0.16517931 -0.056629643 -0.25139058 -0.12326443 0.08542267 0.032728866 -0.208767 -0.11063426
0.052164413 -0.20209275 -0.12187125 -0.18434896 -0.004086721 -0.18675707 0.09371303 -0.06653847
0.067030035 -0.010043649 0.07272635 -0.06856084 -0.17169246 -0.020404592 -0.11508578 -0.25850853
-0.15490858 -0.13844495 -0.14593434 -0.18459478 -0.08956843 0.1877949 -0.13006881 -0.03262117
0.059822552 -0.26822 -0.18562493 -0.19803333 -0.0021632705 -0.2320003 -0.021622676 -0.08224117
-0.10131201 0.10603367 0.023943592 -0.024772078 -0.06742741 0.013513149 -0.0152391335 0.004292817
0.09002468 -0.032779366 -0.038119443 0.05208947 -0.017280495 -0.06670949 0.06242825 -0.050213266
-0.019203722 -0.01983674 0.05339294 -0.05464104 0.02694593 -0.028542727 0.08637213 -0.02027352
0.03421147 0.054993734 -0.04272122 -0.10560051 -0.08990063 0.12346821 0.04249365 0.0011072089
-0.14393778 0.09231808 0.054202393 -0.06798139 0.05578119 0.02682809 -0.056157414 -0.12459029
-0.086552285 0.099561185 0.030913664 0.03781077 0.117085 -0.07000524 -0.05716609 0.026203522
-0.0063230465 -0.077171594 -0.018271346 -0.02938776 -0.037565477 -0.049763657 0.0599111 -0.02516219
0.0022508046 -0.00097034266 -0.0754173 -0.17012572 0.19537349 -0.19109488 -0.1272945 0.101285145
0.023711111 0.25229812 -0.051144347 0.20433351 0.06720534 0.068952836 -0.04851206 0.13458581
0.024164801 -0.15798672 -0.030588305 0.24475177 0.26814467 -0.144793 0.22078268 0.10802736
0.03495232 -0.18053617 0.011899306 -0.08709138 0.105622284 0.1197153 -0.2143951 0.01673652
0.2618171 0.12924214 0.04203172 0.28055614 0.20210718 -0.07239213 0.1780275 -0.17288347
0.02175276 -0.079568826 -0.1637415 0.077773385 -0.02674759 0.16199346 0.14616786 0.32529923
00000000: 112b 1c3d 4413 1ebe e21a 95bc 582e fcbd
00000010: 581d e8bc e604 60be 1283 333e f7b1 05be
00000020: 891a 2d3d b14e a93d 5f14 4f3e 3c7e c43e
00000030: 82da 3ebb 1287 b3bb db65 493e 0653 183e
00000040: 5d42 5fbe 1ba1 eb3d 4488 8ebc 4986 56bd
00000050: 1c2c 1d3e 1e08 8b3e 3484 b23e 4896 7cbd
00000060: e599 bb3e cc5e 973e 7621 58bd d168 b53d
00000070: 6508 debd 5b10 e63d 8da1 be3d 66f2 f83d
00000080: 9f00 06be aa6e 183e 4521 8c3c 75a6 693e
00000090: fc50 c0bb 86f6 af3e 0a68 d63c f0b1 b6bb
000000a0: 1311 823c 1d6f b1be 7d59 2b3e 67ef 9fbd
000000b0: a341 4ebd 93c7 623d 117a 1dbe 1bcb 303e
000000c0: 8151 a43d 85bb 043e 2959 1bbe b00f 82be
000000d0: ccdd edbd 2d0b 60be 8d4d 80bc f87f 6abc
000000e0: c424 293e 7cf4 67bd 44b6 80be 1072 fcbd
000000f0: 15f2 ae3d b40e 063d 04c7 55be 3794 e2bd
00000100: 5aaa 553d 67f1 4ebe a297 f9bd f9c5 3cbe
00000110: e7e9 85bb 3f3d 3fbe 9eec bf3d 5245 88bd
00000120: 0b47 893d 1e8e 24bc 8df1 943d a069 8cbd
00000130: 26d0 2fbe 8827 a7bc 18b2 ebbd 3b5b 84be
00000140: 5ba0 1ebe 83c4 0dbe d06f 15be 6a06 3dbe
00000150: a76f b7bd 4e4d 403e c230 05be c79d 05bd
00000160: 7e08 753d 2254 89be 7614 3ebe 40c9 4abe
00000170: a8c5 0dbb 7d91 6dbe 0a22 b1bc 0f6e a8bd
00000180: ac7c cfbd 2e28 d93d 5a25 c43c d0ee cabc
00000190: 6217 8abd 4166 5d3c 8fad 79bc c2aa 8c3b
000001a0: dc5e b83d a843 06bd 2223 1cbd c55b 553d
000001b0: d38f 8dbc fc9e 88bd c4b4 7f3d 6dac 4dbd
000001c0: 2051 9dbc a980 a2bc 8eb2 5a3d 48cf 5fbd
000001d0: b6bd dc3c 70d2 e9bc dfe3 b03d a714 a6bc
000001e0: 5421 0c3d 1c41 613d 72fc 2ebd 1545 d8bd
000001f0: d21d b8bd e7dc fc3d d20d 2e3d c41f 913a
00000200: 6d64 13be 4311 bd3d 5403 5e3d d439 8bbd
00000210: d17a 643d 95c6 db3c 5105 66bd 3229 ffbd
00000220: 5342 b1bd bce6 cb3d a73e fd3c 77df 1a3d
00000230: 43ca ef3d e85e 8fbd fd26 6abd c5a8 d63c
00000240: 8f31 cfbb 240c 9ebd caad 95bc 9abe f0bc
00000250: 42de 19bd fad4 4bbd 5765 753d f020 cebc
00000260: 3c82 133b 985e 7eba 6374 9abd 7035 2ebe
00000270: fd0f 483e 60ae 43be 7d59 02be 966e cf3d
00000280: ce3d c23c 382d 813e bc7c 51bd ce3c 513e
00000290: f4a2 893d 2537 8d3d 95b4 46bd ddd0 093e
000002a0: 43f5 c53c 45c7 21be 5394 fabc 35a0 7a3e
000002b0: 424a 893e 9e44 14be db14 623e 733d dd3d
000002c0: 2a2a 0f3d 79de 38be 4ff5 423c f75c b2bd
000002d0: 7f50 d83d 4c2d f53d 648a 5bbe 071b 893c
000002e0: e40c 863e 0d58 043e 7429 2c3d 0ea5 8f3e
000002f0: 2ff5 4e3e 5342 94bd d74c 363e 5d08 31be
00000300: d832 b23c fbf4 a2bd daab 27be a747 9f3d
00000310: c31d dbbc 9de1 253e 07ad 153e 9f8d a63e

RNN.weight_ih_l1 f4 [200, 50]
-0.22858019 -0.20504391 -0.27481425 -0.08925055 0.17386353 0.18316808 0.44012657 0.44397825
-0.3188227 -0.31654224 -0.37034178 0.20411174 0.029565368 -0.1918906 0.2932889 -0.2099627
0.11751307 0.17783824 -0.38971835 -0.15451235 -0.08900496 0.31525657 0.42473206 0.04099392
-0.19992065 -0.3493681 -0.0051297187 0.13708311 -0.09392569 0.11758956 0.4345571 0.078165546
-0.13939993 -0.4303808 -0.1733816 -0.32817748 0.27287528 -0.38892892 0.026569175 -0.3813535
-0.15533213 -0.36595216 -0.4583444 0.1620513 0.42905474 0.32801327 0.23333123 -0.3247321
-0.25124124 -0.23604622 0.18199798 0.14049947 -0.1067988 0.0024757218 -0.30433065 -0.2725843
-0.2357544 -0.17853151 0.013331167 0.078338504 0.08498488 -0.107607864 0.08453897 -0.05775591
-0.037210897 0.06777467 -0.057275385 -0.21434382 -0.034786027 0.06317051 0.041069303 -0.18346912
-0.040018052 -0.030185446 0.033747725 -0.07428846 -0.03258549 -0.12827721 -0.04136344 -0.030727116
-0.19413413 0.016740918 0.07141041 0.03380941 0.04107933 0.3005683 -0.09544134 0.16156898
-0.0039185127 0.06525413 0.10597743 -0.1506677 0.24175459 0.14498053 0.078990914 0.13500647
0.070040874 0.2642844 0.16215555 0.18076135 -0.04198747 0.1270854 -0.24133547 -0.17680117
-0.17434677 -0.064153366 0.10725545 0.018221691 -0.0033873636 -0.088613436 -0.18733655 0.121974535
0.046148706 -0.28354526 0.1175345 -0.25692782 -0.16131887 -0.042203333 -0.115675986 0.06441505
-0.067949764 0.24163806 0.12443865 -0.079972684 -0.052978948 -0.23072135 0.0026554896 0.18656918
-0.025518779 0.21398573 0.27018183 0.096520126 0.14457329 -0.09846049 -0.28363767 -0.19888578
0.11848638 0.027571762 -0.30286595 -0.21168257 -0.09034086 0.002813532 -0.2801559 0.16190447
0.2375991 0.24338044 0.18205225 -0.18447776 0.05312306 -0.25966144 0.15612909 0.1357334
-0.0022816886 0.062105868 0.011471497 -0.051378034 0.010138567 -0.05735677 -0.120373055 -0.054053023
-0.03941991 0.09074604 -0.15877424 0.041722856 0.013631809 0.023825407 -0.18079963 -0.10254259
-0.13068661 -0.18735963 -0.22796777 0.16174562 0.07759154 -0.020109557 -0.107621565 -0.060388684
-0.1081832 -0.07437565 0.28031194 -0.07557365 -0.044115912 0.0018067644 -0.25078225 -0.008960625
-0.056020565 0.060994502 0.12594984 0.09623558 -0.10064349 -0.09695104 0.13639574 -0.24045236
-0.046014037 0.14994967 -0.019335138 0.20228589 0.0063804355 -0.06989417 -0.057067953 -0.040547483
-0.122237794 -0.1654058 -0.3752018 0.028179169 0.018657077 0.12489381 0.29637873 0.26000097
-0.12269579 -0.18719703 -0.3017255 0.31121445 0.14204788 -0.2873785 0.17066886 -0.22716875
0.15568657 0.29398152 -0.17142275 -0.084347345 -0.10470354 0.21010631 0.11220954 0.10620658
-0.25400683 -0.20120817 -0.03874433 0.18838724 -0.10811734 0.19704765 0.2823965 0.05612917
-0.16257729 -0.3393014 -0.26191348 -0.11105713 0.33113295 -0.1643927 -0.15541032 -0.30699173
-0.039069608 -0.18477014 -0.2632342 0.056453858 0.20150737 0.028155532 0.2650807 -0.17503701
-0.21443364 -0.4401629 0.093540676 0.1698169 -0.14765076 0.00212446 0.07210604 -0.2112139
00000000: ed10 6abe 08f7 51be 74b4 8cbe fec8 b6bd
00000010: 4809 323e 6a90 3b3e 4558 e13e 1e51 e33e
00000020: bb3c a3be d311 a2be 709d bdbe ab02 513e
00000030: 1233 f23c f87e 44be f629 963e 7600 57be
00000040: b1aa f03d 3a1b 363e 2a89 c7be 7c38 1ebe
00000050: 3c48 b6bd 4f69 a13e 7b76 d93e 3ee9 273d
00000060: 00b8 4cbe 60e0 b2be 3317 a8bb 845f 0c3e
00000070: 1d5c c0bd ccd2 f03d 457e de3e 4215 a03d
00000080: dbbe 0ebe df5a dcbe f28a 31be e106 a8be
00000090: 4fb6 8b3e b121 c7be 99a7 d93c c440 c3be
000000a0: 630f 1fbe 155e bbbe 1eac eabe c7f0 253e
000000b0: 10ad db3e 5bf1 a73e 62ee 6e3e 4943 a6be
000000c0: b1a2 80be 1ab6 71be ae5d 3a3e 18df 0f3e
000000d0: 54b9 dabd b83f 223b 3ad1 9bbe 2b90 8bbe
000000e0: 9a69 71be f7d0 36be f86a 5a3c f06f a03d
000000f0: 8e0c ae3d 8361 dcbd c422 ad3d 7691 6cbd
00000100: 746a 18bd 72cd 8a3d 9899 6abd f27c 5bbe
00000110: cb7b 0ebd 8a5f 813d 4938 283d 54df 3bbe
00000120: f8e9 23bd 7847 f7bc 0e3b 0a3d 8c24 98bd
00000130: 5d78 05bd 1a5b 03be b66c 29bd 6fb7 fbbc
00000140: 19cb 46be 4024 893c 9f3f 923d bc7b 0a3d
00000150: cd42 283d 17e4 993e c076 c3bd 5772 253e
00000160: de66 80bb f5a3 853d b20a d93d a248 1abe
00000170: 848e 773e c775 143e fdc5 a13d 233f 0a3e
00000180: 9771 8f3d 4950 873e 1b0c 263e 8119 393e
00000190: 0efb 2bbd ad22 023e a520 77be 5e0b 35be
000001a0: f687 32be d762 83bd bfa8 db3d a845 953c
000001b0: 88fe 5dbb f67a b5bd 27d5 3fbe c9cd f93d
000001c0: 6d06 3d3d d82c 91be eeb5 f03d 0b8c 83be
000001d0: c630 25be 67dd 2cbd 88e7 ecbd 0aec 833d
000001e0: 3f29 8bbd f86f 773e b1d9 fe3d b8c8 a3bd
000001f0: 7400 59bd 3842 6cbe b907 2e3b fe0b 3f3e
00000200: c20c d1bc 131f 5b3e 4655 8a3e 58ac c53d
00000210: 050b 143e a7a5 c9bd f538 91be b7a8 4bbe
00000220: fda8 f23d 2dde e13c 3f11 9bbe 51c3 58be
00000230: a104 b9bd 3c63 383b 9870 8fbe 49ca 253e
00000240: 2e4d 733e b938 793e e86b 3a3e bde7 3cbe
00000250: 9197 593d 58f2 84be 4ee0 1f3e b2fd 0a3e
00000260: 6288 15bb b962 7e3d f2f2 3b3c c671 52bd
00000270: 3b1c 263c efee 6abd 2686 f6bd b466 5dbd
00000280: c676 21bd 0fd9 b93d b795 22be 96e5 2a3d
00000290: f357 5f3c 802d c33c 8a23 39be d901 d2bd
000002a0: b6d2 05be 34db 3fbe 6270 69be a5a0 253e
000002b0: 50e8 9e3d ccbc a4bc b268 dcbd 205a 77bd
000002c0: 278f ddbd 4352 98bd 0c85 8f3e 5cc6 9abd
000002d0: e3b2 34bd f4d0 ec3a 8866 80be 96cf 12bc
000002e0: d275 65bd 5fd5 793d fff8 003e 2917 c53d
000002f0: 2d1e cebd 448e c6bd 53ab 0b3e 2539 76be
00000300: 3779 3cbd 688c 193e b964 9ebc 0824 4f3e
00000310: f912 d13b ad24 8fbd 16c0 69bd 1e15 26bd
00000320: cf57 fabd 2360 29be 731a c0be 00d8 e63c
00000330: bad6 983c 53c8 ff3d f4be 973e d91e 853e
00000340: ee47 fbbd 94b0 3fbe c47b 9abe 8057 9f3e
00000350: 0075 113e 4623 93be d1c3 2e3e ed9e 68be
00000360: 4d6c 1f3e bf84 963e 7289 2fbe 4dbe acbd
00000370: cf6e d6bd 1c26 573e 1ece e53d d682 d93d
00000380: 2f0d 82be 8409 4ebe 60b2 1ebd 96e8 403e
00000390: a06c ddbd dcc6 493e 4696 903e b3e7 653d
000003a0: a97a 26be eab8 adbe 8619 86be ec71 e3bd
000003b0: 428a a93e 8f56 28be e223 1fbe 052e 9dbe
000003c0: 7407 20bd 6234 3dbe a2c6 86be 293c 673d
000003d0: f357 4e3e 6ea6 e63c a8b8 873e e73c 33be
000003e0: 7e94 5bbe 085d e1be 4192 bf3d 7be4 2d3e
000003f0: c331 17be 863a 0b3b 55ac 933d 7548 58be

RNN.weight_hh_l1 f4 [200, 50]
-0.20932741 0.19284746 -0.20669414 -0.08882003 0.106806375 -0.10675582 -0.16868387 0.07630385
0.017644376 -0.29705918 0.17126958 0.11035912 0.1389474 -0.17439033 -0.30315965 -0.07655308
-0.33312592 0.16684198 -0.11458804 0.0037144818 -0.058577575 -0.10990744 -0.2820241 -0.3518954
-0.19752753 0.22136596 -0.1714089 -0.048865248 0.01911783 0.16112778 -0.15010169 -0.23536724
-0.087264016 0.2501484 -0.30469665 0.3227922 -0.1336595 0.093213044 -0.05063676 -0.15740879
0.2933031 0.32433325 -0.029305296 0.0006397603 0.004506216 0.12282743 -0.08968132 -0.23825516
-0.18288651 -0.117892176 0.11988441 -0.22764051 0.11566779 0.1692035 -0.0748723 0.22337812
0.2411674 0.01650938 0.047821924 0.23711374 -0.3759621 -0.16522013 0.00740383 0.21657184
0.14230326 0.15777218 0.1617437 -0.22939153 0.10673454 -0.13480258 -0.000607864 -0.22872926
0.12708732 0.30709663 0.19066903 -0.03234957 0.09642498 -0.17163114 0.094268784 -0.22904901
0.21246529 -0.08808846 0.1920649 -0.04202119 0.038538802 0.03938861 0.059154265 -0.18759677
-0.19034202 0.14536196 -0.045195382 -0.08996844 0.20104232 -0.096481815 0.034399215 -0.28335539
0.29721114 -0.07152018 0.03362175 -0.10758822 0.033637904 -0.17364562 -0.058903836 -0.09606241
-0.08295821 -0.02664962 -0.00916345 -0.1507346 0.23920491 -0.027422406 -0.13963729 -0.040350378
-0.207405 -0.016595665 -0.15153122 0.12343069 -0.14979842 -0.15388778 -0.053516418 -0.15508987
-0.09135895 -0.1239617 0.08895088 0.051991664 -0.02338798 -0.0055230763 -0.16970854 -0.006751972
0.19620238 0.085094556 -0.09298481 -0.20060182 -0.04903686 -0.060953654 -0.114897504 -0.16289896
0.029306494 -0.14173073 0.14938135 0.065929174 0.19930336 0.27249584 0.12315202 -0.09811061
0.2796757 0.12649728 0.07544063 0.04449788 0.12902899 -0.22121619 0.15862387 0.26620802
0.11999308 0.034836806 -0.13038023 0.14829867 -0.09973782 0.0920473 -0.21190198 0.096431404
-0.094533384 0.10093357 -0.005252534 0.095356815 0.019002736 0.11394322 0.17249425 -0.066815354
0.07515105 0.090423316 -0.059886344 0.080020115 0.044958558 0.11827625 -0.015003804 -0.021658903
0.12191933 -0.22203048 -0.16131034 -0.04920781 -0.033092707 0.19147077 -0.08076079 0.032013826
-0.05533836 0.12235131 -0.043345742 -0.081432894 0.059130512 0.006742885 -0.044725433 0.053370032
0.14724477 -0.06323693 -0.13962719 -0.09828452 -0.0757405 0.09453137 0.19077177 -0.033124678
0.025293928 -0.012117969 -0.12804373 0.15572965 0.01913992 -0.05631316 -0.0694592 0.1914916
0.1485478 -0.193602 0.1738679 0.12179522 0.026094886 -0.11579726 -0.2125019 -0.023191558
-0.2361547 -0.033394463 0.06814282 -0.15317966 -0.03640529 -0.08693997 -0.1376984 -0.18458182
-0.15079239 -0.027367167 -0.0404368 -0.11327206 -0.017027315 0.15801404 -0.11485931 -0.14860582
-0.11055629 -0.030387968 -0.18252581 0.12718642 -0.02901622 0.08380995 -0.13042039 -0.06649011
0.023980683 0.18789804 0.07376451 -0.083602615 0.00011992437 -0.03084942 0.018968219 -0.19341104
-0.09698606 -0.041671276 0.12814689 0.011216642 0.14545664 0.044465154 0.08819675 -0.01971575
00000000: ed59 56be ce79 453e a1a7 53be 47e7 b5bd
00000010: 4dbd da3d cca2 dabd 77bb 2cbe 3145 9c3d
00000020: f08a 903c 2418 98be 4b61 2f3e f603 e23d
00000030: 3a48 0e3e 6193 32be be37 9bbe dcc7 9cbd
00000040: 7b8f aabe a0d8 2a3e 22ad eabd aa6e 733b
00000050: 0aef 6fbd 2717 e1bd 7665 90be a22b b4be
00000060: a844 4abe c2ad 623e d185 2fbe ed26 48bd
00000070: ff9c 9c3c aefe 243e 42b4 19be 1c04 71be
00000080: 7ab7 b2bd 7313 803e 3301 9cbe 0545 a53e
00000090: 09de 08be 7be6 be3d 7e68 4fbd c52f 21be
000000a0: d32b 963e 020f a63e a911 f0bc 96b5 273a
000000b0: e1a8 933b f38c fb3d d7aa b7bd 29f9 73be
000000c0: 9a46 3bbe 7471 f1bd f585 f53d 981a 69be
000000d0: 3ce3 ec3d af43 2d3e a656 99bd 3cbd 643e
000000e0: 96f4 763e ae3e 873c ece0 433d f2cd 723e
000000f0: 1b7e c0be 772f 29be d49b f23b 02c5 5d3e
00000100: f2b7 113e 088f 213e 24a0 253e 9de5 6abe
00000110: a397 da3d b009 0abe 1059 1fba 0138 6abe
00000120: 2e23 023e c53b 9d3e be3e 433e fc80 04bd
00000130: 767a c53d 13c0 2fbe fe0f c13d d38b 6abe
00000140: 8090 593e b967 b4bd a9ac 443e 691e 2cbd
00000150: ddda 1d3d f355 213d be4b 723d 5e19 40be
00000160: 05e9 42be c4d9 143e cb1e 39bd 6041 b8bd
00000170: 0ade 4d3e 4298 c5bd 31e6 0c3d f513 91be
00000180: 0f2c 983e 2c79 92bd f6b6 093d 3657 dcbd
00000190: e6c7 093d 28d0 31be 2645 71bd 5ebc c4bd
000001a0: fee5 a9bd 4e50 dabc 4c22 16bc 2c5a 1abe
000001b0: 22f2 743e f4a4 e0bc 14fd 0ebe 7046 25bd
000001c0: fa61 54be a2f3 87bc 002b 1bbe 3bc9 fc3d
000001d0: c264 19be c294 1dbe 0834 5bbd e1cf 1ebe
000001e0: 671a bbbd a2df fdbd e12b b63d 36f5 543d
000001f0: 2698 bfbc ecfa b4bb 13c8 2dbe a53f ddbb
00000200: 47e9 483e 0e46 ae3d d26e bebd 906a 4dbe
00000210: e0da 48bd 8aaa 79bd 624f ebbd fcce 26be
00000220: 2c14 f03c dc21 11be 6df7 183e e005 873d
00000230: 2e16 4c3e 9384 8b3e 2037 fc3d 37ee c8bd
00000240: a731 8f3e 8188 013e 9e80 9a3d 6943 363d
00000250: 2d20 043e 7f86 62be 4c6e 223e 6b4c 883e
00000260: efbe f53d 0ab1 0e3d 6582 05be 9bdb 173e
00000270: 5843 ccbd 4b83 bc3d d5fc 58be d47d c53d
00000280: b89a c1bd 42b6 ce3d 731d acbb 6f4a c33d
00000290: a0ab 9b3c 105b e93d 55a2 303e 7dd6 88bd
000002a0: cbe8 993d dc2f b93d 624b 75bd 96e1 a33d
000002b0: 7726 383d d23a f23d 84d2 75bc 036e b1bc
000002c0: d7b0 f93d f55b 63be 8a2e 25be 218e 49bd
000002d0: 388c 07bd ea10 443e ea65 a5bd ee20 033d
000002e0: 7aaa 62bd 5393 fa3d 4e8b 31bd 4ac6 a6bd
000002f0: d632 723d 6bf3 dc3b 0432 37bd 899a 5a3d
00000300: 55c7 163e 5d82 81bd 6efa 0ebe 6549 c9bd
00000310: d61d 9bbd aa99 c13d ad59 433e bead 07bd
00000320: 3635 cf3c 728a 46bc e51d 03be 9877 1f3e
00000330: 52cb 9c3c a1a8 66bd a040 8ebd 6016 443e
00000340: ea1c 183e 9a3f 46be 6d0a 323e c66f f93d
00000350: f1c4 d53c 1d27 edbd 199a 59be 39fc bdbc
00000360: 8ad2 71be a2c8 08bd 768e 8b3d 21db 1cbe
00000370: b71d 15bd 950d b2bd cf00 0dbe 0403 3dbe
00000380: 5269 1abe 1c31 e0bc 0fa1 25bd 2ffb e7bd
00000390: de7c 8bbc 6fce 213e 5c3b ebbd 202c 18be
000003a0: 566b e2bd 30f0 f8bc 0ce8 3abe 283d 023e
000003b0: 6cb3 edbc 8da4 ab3d ec8c 05be f72b 88bd
000003c0: 2373 c43c 5868 403e d911 973d d937 abbd
000003d0: e87f fb38 ecb7 fcbc 3d63 9b3c 8b0d 46be
000003e0: a1a0 c6bd 80af 2abd f038 033e 02c6 373c
000003f0: 96f2 143e 1821 363d 7fa0 b43d ed82 a1bc

RNN.bias_ih_l1 f4 [200]
0.36938474 -0.13495049 -0.1506692 -0.07294135 0.24147467 -0.013338898 0.017315723 -0.18121456
-0.345927 0.22704056 0.021541044 -0.2535551 0.024042226 -0.115656085 0.15525152 0.052905634
-0.12624812 -0.04201071 -0.095914364 -0.107792646 0.02754006 -0.224554 0.042573743 0.21620233
0.016090838 0.2158255 0.1702574 -0.037936486 -0.09694361 -0.14243977 -0.04719974 0.05954132
-0.3340186 -0.15189804 0.4400028 0.021999482 -0.07662836 -0.17093797 0.097502574 -0.1572789
0.14130126 -0.07928992 0.06446011 -0.10280214 -0.06077144 -0.017423686 -0.03838982 0.036377747
-0.033655148 -0.20712484 0.15712819 -0.20146167 -0.09168132 -0.102128 0.0509588 -0.102392964
-0.02671677 -0.22674508 -0.14016338 -0.15606636 -0.10394435 -0.104119614 -0.030747253 -0.021360246
-0.21409048 -0.13114387 0.09375028 -0.11497867 -0.23166695 -0.0909003 -0.13878833 -0.22256498
0.020715235 0.0040127793 0.034561686 0.22701102 -0.07744513 -0.02795435 -0.20708731 -0.1239123
-0.13656472 0.06944308 0.007258717 -0.09756408 0.26948485 -0.17333671 -0.16973923 -0.118548684
-0.100244775 -0.25636402 -0.20520683 -0.2793167 -0.05635315 0.030234875 -0.22956075 -0.14876826
-0.21838684 0.06269189 -0.16866337 -0.03435704 -0.06748763 -0.092937194 -0.033895984 -0.110220775
0.07722389 0.047477268 -0.014580535 0.045355786 0.1543018 0.08201775 0.13847853 -0.046627384
-0.08509623 -0.05479987 -0.07412635 -0.20638575 -0.1287279 0.07806796 0.02175348 0.09416054
-0.0969881 -0.11182169 0.09152143 -0.13141939 -0.044151593 0.024813052 0.068035394 0.09629754
0.028832164 -0.0696292 -0.048726283 -0.056912553 -0.010552233 -0.0004976783 -0.13404791 0.018501246
-0.011915813 -0.050638966 0.007766173 0.002946064 -0.02722253 -0.09346555 0.07244272 0.034218095
-0.11516033 0.010393306 0.04759658 0.08628411 -0.006967242 -0.08325712 0.26590416 0.075270995
-0.08996289 -0.1707536 0.07201383 0.075156316 -0.10687022 -0.090220764 -0.14875649 -0.005995837
0.023159131 -0.2330115 -0.11728892 -0.16771902 -0.07149309 -0.00580349 -0.042491056 -0.012322121
-0.22370125 0.025645979 0.028357495 -0.34192094 0.034705423 -0.04794137 0.026373504 0.16179462
0.08116849 -0.21468145 -0.19093786 -0.20129178 -0.03504613 -0.050854158 -0.08853773 -0.13932543
0.2036729 0.03573295 -0.24274857 -0.12595609 -0.0015873383 -0.10994172 0.06816796 -0.27261212
-0.1389355 0.06700458 0.025574861 -0.105669826 -0.043311022 -0.09911282 0.0634869 -0.26343834
00000000: ff1f bd3e 7630 0abe 0749 1abe 4662 95bd
00000010: 2345 773e 658b 5abc b4d9 8d3c 4f90 39be
00000020: 581d b1be 527d 683e d876 b03c f9d1 81be
00000030: 34f4 c43c 19dd ecbd 41fa 1e3e 94b3 583d
00000040: 3047 01be 6c13 2cbd c06e c4bd 64c2 dcbd
00000050: b19b e13c 7cf1 65be ce61 2e3d 2564 5d3e
00000060: efd0 833c 5c01 5d3e f557 2e3e 4a63 1bbd
00000070: 5f8a c6bd bbdb 11be 8454 41bd 99e1 733d
00000080: 7c04 abbe 298b 1bbe 0c48 e13e 4238 b43c
00000090: 54ef 9cbd 5d0a 2fbe 6eaf c73d b80d 21be
000000a0: 47b1 103e c162 a2bd aa03 843d ee89 d2bd
000000b0: 79eb 78bd 1ebc 8ebc a53e 1dbd d500 153d
000000c0: fbd9 09bd 8918 54be 36e6 203e f84b 4ebe
000000d0: 6ac3 bbbd 7c28 d1bd 2dba 503d 67b3 d1bd
000000e0: 21dd dabc dd2f 68be fd86 0fbe dccf 1fbe
000000f0: c6e0 d4bd aa3c d5bd aae1 fbbc affb aebc
00000100: 893a 5bbe 944a 06be 2600 c03d f079 ebbd
00000110: 1a3a 6dbe f029 babd 871e 0ebe 13e8 63be
00000120: ffb2 a93c a27d 833b 8e90 0d3d 9475 683e
00000130: 8d9b 9ebd 8500 e5bc b20e 54be bbc5 fdbd
00000140: 9fd7 0bbe 2c38 8e3d 88da ed3b adcf c7bd
00000150: ebf9 893e 2e7f 31be 1fd0 2dbe a7c9 f2bd
00000160: 224d cdbd 2542 83be bd21 52be 9902 8fbe
00000170: 90d2 66bd 21af f73c f911 6bbe b556 18be
00000180: cda0 5fbe 9b64 803d 17b6 2cbe f8b9 0cbd
00000190: f436 8abd db55 bebd 84d6 0abd 6ebb e1bd
000001a0: 8f27 9e3d 8677 423d 32e3 6ebc fdc6 393d
000001b0: 4b01 1e3e ecf8 a73d 51cd 0d3e 5bfc 3ebd
000001c0: ef46 aebd d475 60bd 8ecf 97bd c956 53be
000001d0: 3fd1 03be 18e2 9f3d 5b34 b23c 3ed7 c03d
000001e0: b2a1 c6bd c502 e5bd 966f bb3d ce92 06be
000001f0: 4dd8 34bd be44 cb3c 2456 8b3d a537 c53d
00000200: 6e31 ec3c c199 8ebd 3695 47bd 231d 69bd
00000210: 46e3 2cbc a076 02ba db43 09be ed8f 973c
00000220: 8b3a 43bc ce6a 4fbd 627b fe3b c112 413b
00000230: c901 dfbc de6a bfbd d95c 943d 4628 0c3d
00000240: 2ed9 ebbd af48 2a3c a2f4 423d b9b5 b03d
00000250: 764d e4bb b582 aabd 9724 883e ae27 9a3d
00000260: 773e b8bd 08da 2ebe fd7b 933d 8eeb 993d
00000270: c6de dabd aac5 b8bd 9f53 18be ba78 c4bb
00000280: 38b8 bd3c 919a 6ebe 2c35 f0bd 89be 2bbe
00000290: f86a 92bd 342b bebb 1a0b 2ebd b9e2 49bc
000002a0: f111 65be 8417 d23c fa4d e83c 4310 afbe
000002b0: 4627 0e3d 2c5e 44bd 3f0d d83c 7dad 253e
000002c0: aa3b a63d 74d5 5bbe 3785 43be 6f1f 4ebe
000002d0: 888c 0fbd 734c 50bd 4553 b5bd 53ab 0ebe
000002e0: a18f 503e b75c 123d 1593 78be a2fa 00be
000002f0: 3c0e d0ba 2029 e1bd a59b 8b3d d193 8bbe
00000300: 1c45 0ebe b239 893d 5f82 d13c 6c69 d8bd
00000310: e666 31bd aafb cabd 6b05 823d 64e1 86be

RNN.bias_hh_l1 f4 [200]
0.13730496 -0.028563773 -0.103825994 -0.13518958 0.26509804 0.06606405 -0.19753245 -0.17593662
-0.12123845 0.1546677 0.09718422 -0.16115177 0.018715922 -0.083650865 0.03966727 0.17872855
-0.041821204 0.061310727 -0.18998758 -0.095426634 -0.108280465 -0.1308478 0.07588815 0.051502272
-0.22039373 0.13999209 0.09867279 -0.09509097 0.007735217 -0.15581267 -0.12479127 -0.068201065
-0.15898165 0.03515193 0.24455385 -0.06488593 -0.3050717 -0.17228638 0.04715927 -0.124605566
-0.08695065 -0.25229108 0.06076603 0.037410058 -0.11084851 -0.23022948 -0.28155208 0.062140357
-0.07875278 -0.07221955 0.2989529 -0.16157506 -0.19192111 -0.27740532 0.20714957 -0.20657831
-0.14289355 -0.0036841207 -0.229682 -0.14533794 -0.16927959 -0.21350247 -0.005273418 0.037597016
0.013220222 0.092552505 0.047376323 -0.07019083 -0.15782216 -0.06268661 -0.04404201 -0.09702436
0.14194643 -0.076954074 0.051139046 0.10253763 0.01902962 -0.045385018 -0.10419421 -0.17486826
-0.15915535 -0.0875453 -0.1891847 -0.020383228 0.3431294 -0.0284175 -0.20975575 -0.13079992
-0.13073345 -0.094247304 -0.091024354 -0.031435467 0.033194143 -0.201718 -0.23535405 -0.074959844
-0.08558592 -0.16587201 -0.1422889 -0.04401286 -0.06410711 0.05285 0.012278695 0.08991955
0.08100272 0.031376854 -0.013692619 0.05022483 -0.07631047 -0.11522038 -0.09122292 0.09165443
-0.030027252 0.0035088076 0.0077156723 0.00993912 -0.045234475 0.11214505 -0.07568586 -0.05957207
0.13568957 0.014298426 0.027726522 0.031877555 -0.06271179 0.11398947 -0.10406585 -0.1299145
-0.0279478 0.13735501 0.029471131 -0.046288427 0.028219827 -0.03456982 0.11454433 0.08489602
0.044791963 0.07773996 -0.0924825 -0.02711012 -0.05365243 0.09951751 -0.066658795 0.03255769
0.048934013 -0.05979509 -0.03670895 0.007299881 -0.10607047 -0.13715857 0.28540918 0.014940081
-0.16985147 -0.30562124 0.2561324 0.007944566 -0.12336592 -0.19127357 -0.07956861 0.15522137
-0.02489796 -0.040715996 -0.01968794 -0.024097811 0.057796873 -0.016336435 0.109448105 0.06964805
-0.05212697 0.021729536 -0.1272408 -0.20114557 0.18886738 0.18476065 -0.03247354 0.20259383
-0.0059985816 -0.10669928 -0.065640755 -0.125715 -0.09979986 -0.1522583 -0.18319364 -0.10285485
0.44926536 -0.17964885 -0.10971739 -0.0146349 0.0011815955 -0.10805848 -0.025409576 -0.25977477
0.019733971 -0.16280307 -0.21500656 -0.22211063 -0.10467944 0.055350985 -0.03777773 -0.23375736
00000000: ac99 0c3e 93fe e9bc b9a2 d4bd 236f 0abe
00000010: eeba 873e 974c 873d f245 4abe bb28 34be
00000020: dd4b f8bd 3661 1e3e 8508 c73d f804 25be
00000030: 2252 993c 2551 abbd 267a 223d 9e04 373e
00000040: b64c 2bbd f520 7b3d 1b8c 42be 0a6f c3bd
00000050: 26c2 ddbd f7fc 05be 3f6b 9b3d 0cf4 523d
00000060: e5ae 61be 165a 0f3e f614 ca3d 0ebf c2bd
00000070: b477 fd3b 5b8d 1fbe 9192 ffbd 00ad 8bbd
00000080: 16cc 22be 78fb 0f3d 536c 7a3e eae2 84bd
00000090: 5c32 9cbe d76b 30be 142a 413d 3431 ffbd
000000a0: 2f13 b2bd 4c2c 81be cde5 783d 4a3b 193d
000000b0: 8b04 e3bd 47c1 6bbe 9827 90be e386 7e3d
000000c0: 2349 a1bd d8e7 93bd 5b10 993e ef73 25be
000000d0: f886 44be 1208 8ebe 041f 543e 4489 53be
000000e0: b052 12be 4a71 71bb c231 6bbe 78d3 14be
000000f0: a157 2dbe 64a0 5abe a3cc acbb 54ff 193d
00000100: a199 583c 2b8c bd3d ad0d 423d 36c0 8fbd
00000110: 229c 21be d661 80bd 6565 34bd b5b4 c6bd
00000120: 685a 113e 199a 9dbd 2d77 513d 40ff d13d
00000130: 01e4 9b3c a4e5 39bd c663 d5bd aa10 33be
00000140: 9ff9 22be f34a b3bd a2b9 41be bafa a6bc
00000150: a8ae af3e d1cb e8bc 36ca 56be 6af0 05be
00000160: fdde 05be bb04 c1bd fa6a babd 7ac2 00bd
00000170: 95f6 073d 2a8f 4ebe a700 71be 8c84 99bd
00000180: ac47 afbd 5ada 29be 2eb4 11be d446 34bd
00000190: 974a 83bd 3e79 583d 942c 493c be27 b83d
000001a0: c1e4 a53d 0485 003d 0257 60bc 8db8 4d3d
000001b0: aa48 9cbd aaf8 ebbd 15d3 babd 51b5 bb3d
000001c0: b6fb f5bc 06f4 653b c0d3 fc3b b1d7 223c
000001d0: c947 39bd 4eac e53d 3001 9bbd d801 74bd
000001e0: 35f2 0a3e f243 6a3c bb22 e33c 0a92 023d
000001f0: 0a6f 80bd 5073 e93d 7a20 d5bd 4f08 05be
00000200: c9f2 e4bc cba6 0c3e 716d f13c ef98 3dbd
00000210: 442d e73c 1599 0dbd 3896 ea3d f7dd ad3d
00000220: c777 373d 2136 9f3d 7767 bdbd 0b16 debc
00000230: a7c2 5bbd d6cf cb3d 6884 88bd 365b 053d
00000240: 086f 483d b2eb 74bd 205c 16bd d733 ef3b
00000250: 793b d9bd 4c73 0cbe 2721 923e 3ec7 743c
00000260: 8bed 2dbe 637a 9cbe c923 833e ed29 023c
00000270: 45a7 fcbd 38dd 43be def4 a2bd 5af2 1e3e
00000280: cef6 cbbc d1c5 26bd 9a48 a1bc c668 c5bc
00000290: 6abc 6c3d fdd3 85bc 5426 e03d a3a3 8e3d
000002a0: 1783 55bd 2402 b23c 6a4b 02be 1bf9 4dbe
000002b0: 7366 413e e531 3d3e fa02 05bd c274 4f3e
000002c0: c08f c4bb 2785 dabd a96e 86bd 6fbb 00be
000002d0: de63 ccbd 9ae9 1bbe 1d97 3bbe 90a5 d2bd
000002e0: 1c06 e63e def5 37be 83b3 e0bd 38c7 6fbc
000002f0: c4df 9a3a c44d ddbd be27 d0bc 3301 85be
00000300: 23a9 a13c d9b5 26be ae2a 5cbe f870 63be
00000310: 2d62 d6bd b7b7 623d d2bc 1abd 175e 6fbe
