saved_models/model.pt (torch, 47279 bytes, 8 tensors)

Controller.fc.weight f4 [1, 51]
00000000: 4a37 733f 36b5 423f 66de 6abf 1acb 563e
00000010: 80de 163d e86c 11bf ea85 e93e 1d7d 463e
00000020: 4b25 a33f 59bf 193f 0212 53bf 994b c7be
00000030: f923 513f 262d 9c3f 1a0b 1ebd 4e1d 24bf
00000040: dbeb c73f 8df9 873e c29f 173f 3f80 303d
00000050: b399 653e 0cc0 58bf 4ffc b83d 74be 223f
00000060: cffe 24bf 63ca 493f a1a2 c0be 5d14 a23e
00000070: 23d8 c0be 930f 833e 1098 9abe 0be6 9cbe
00000080: abeb 9abf fc12 5dbf 85aa 19be 3264 6c3f
00000090: 880d 823f 79a2 f93d c498 09bf 7127 3fbf
000000a0: 1a66 fc3c e21a 6ebf 5c34 4b3f 7326 82be
000000b0: 06b6 bb3e bd36 13bf 89b1 72be 147c b33e
000000c0: 68ba 16bf 3652 8cbf 025a 91bf
0.9500624 0.76057756 -0.91745603 0.20975915 0.036833286 -0.568068 0.4560998 0.19383664
1.2745756 0.600576 -0.8244935 -0.38924864 0.81695515 1.2201278 -0.038584806 -0.64107215
1.5618852 0.2655758 0.59228146 0.043091055 0.22421913 -0.8466804 0.09032499 0.6357186
-0.6445131 0.7882444 -0.37624076 0.3165616 -0.376649 0.2559782 -0.3019414 -0.3064426
-1.210317 -0.8635709 -0.15006454 0.92340386 1.016038 0.12189192 -0.53748727 -0.7466956
0.030810405 -0.9300977 0.7937677 -0.2541996 0.3666231 -0.575054 -0.23700537 0.35055602
-0.58878183 -1.0962589 -1.1355593

BaselineNetwork.fc.weight f4 [1, 51]
00000000: 0e00 933d 7ad7 74bc 5ba2 65bc f7dd d13d
00000010: 4c3b 953e e9f7 9ebe a4b1 613e e6c6 a73b
00000020: 908f 9e3e 11e1 113e 1c9c 04be 449a a43d
00000030: 74ae 113e be53 203e 7b9a 563e dfd2 053d
00000040: c934 a13d 2506 8dbd 7e0a e93e 0c7f fb3b
00000050: 6a5d 443e 96a6 cdbd 3705 92be ade8 10be
00000060: c76a 4cbe 5e01 4e3e e79e 7dbd b54d 933e
00000070: e637 ee3d a4e1 dabd 045b 2abe 9728 0cbd
00000080: 84cf 07bd 64c0 08be 4c22 c83e bf59 e13d
00000090: 1b48 4f3d 69b0 203e b3d9 c03c 4045 b23c
000000a0: c533 743e f4a3 ca3d ea63 1d3e cc4f 4fbe
000000b0: a868 3f3e efda 88bd dc75 6dbd 85c2 81bd
000000c0: e4aa 9e39 9b20 7cbd e41c 19bb
0.07177745 -0.014943952 -0.014015759 0.102474146 0.29146802 -0.31048515 0.22040421 0.005120146
0.30968904 0.14246012 -0.12950176 0.08037236 0.14226705 0.15656945 0.20957367 0.032671805
0.07871396 -0.068859376 0.45515817 0.0076750573 0.1917626 -0.10041539 -0.28519604 -0.14151259
-0.19962607 0.20117709 -0.06191912 0.28770223 0.116317555 -0.10687569 -0.16636282 -0.034218397
-0.033156887 -0.13354641 0.39088666 0.11003446 0.050605875 0.15692295 0.023541307 0.021761537
0.23847874 0.09894553 0.15370145 -0.20245284 0.18692267 -0.06682383 -0.057973728 -0.0633593
0.00030263432 -0.061554532 -0.0023363167

RNN.weight_ih_l0 f4 [200, 1]
00000000: 7439 0fbe 91b8 3abe 8e9d acbe b911 98be
00000010: 5ed8 c1be 3dae 4dbe c4a5 17be 5ed2 9ebc
00000020: 1d01 78bd a0bb 5cbe de98 a8be 4b90 ba3d
00000030: 41e6 55bd 5a16 fd3c 89bb 85be a72c 88be
00000040: 5749 de3e b950 a8be 45b0 6ebe 1041 9dbe
00000050: 128b a1bd f30a 3f3e 1c30 3cbe 3076 91be
00000060: 0e00 803e 0984 65bd 686d 333e 9c49 433e
00000070: 90c8 7cbe 7d15 7e3d dac5 55be 5f01 53be
00000080: 6eba 8bbe b83b 08be 3b5e b7bd d193 0fbe
00000090: 85a1 66be e413 a1be 5fb0 aebd 839e 99be
000000a0: 03aa 98be 791a fbbd 5a13 9c3e a7ec 19be
000000b0: a39e 8dbd 3416 7abe 2b4f 0fbe 6cc6 fbbd
000000c0: b263 a6be 0149 d2be c2e9 a03d 9cbb e1bd
000000d0: 3fb4 23bd f0c5 a6bb 4b86 14be bb0c 8ebe
000000e0: 12f2 b4bd 6c93 6ebd f239 04bc c14f 35be
000000f0: 68cf 1ebc 1f22 493e 8ba3 32bd 26dc 873e
00000100: 2f0c c2bc b427 28be 982b c33e d51b 25be
00000110: a192 c6bc 086c cfbd f3f4 8bbd cdda 2f3e
00000120: 133a 13be 9fd4 0cbe 10df 7f3e 535c 01be
00000130: e162 0b3e 92f2 a83d 3ba3 c13d eaff 8dbd
00000140: c478 313d f832 66bd fad2 4bbd 8d30 973c
00000150: ef58 63be 465b f5bb 21f2 99bd ae7c c8bd
00000160: 1052 72bd adbc 07bd fbe0 3ebe 4507 4ebd
00000170: 655d 403e 2bf5 c1bd 8414 bebd 4ee7 643c
00000180: a32a 4dbe e507 4abd 10bb 043e 6bda 19be
00000190: 4677 bbbc 725b d6bc 0437 10bd 9cb9 0bbd
000001a0: 3912 5fbd 6629 593d f897 ea3d ceec f83c
000001b0: 2e6d 89bd 2e18 213c 6076 183c 8cd3 653e
000001c0: 7ba0 a3bc a418 f0bd 245d 853d 49d8 873c
000001d0: c3b4 89be 512c 1ebe c863 203b ac3d 04bd
000001e0: 25f9 9abd cf3a 1b3e 6f09 843c 1050 15bc
000001f0: 0910 57be a189 c8bd 7dde 0dbe cca5 443e
00000200: 1c63 453d 3a55 033e 035d 1e3c a4d8 013d
00000210: 54f4 e73b 539f dfbd eb85 dfbc 505f 95bd
00000220: 3e8c c2bc ac6d 1fbd 2062 fc38 4ae9 043d
00000230: 2c96 fcbc fdfd f7bc 0b47 22be 4236 583b
00000240: cd40 d0bc 8cec c23c 97fd 7dbd f4d7 a8bd
00000250: 0747 153d 3cac 733d c170 3fbe 2f74 61be
00000260: 610a e5bd 00f3 a5be 6858 35be b6b0 69bd
00000270: bb9e 3ebe 9aee 36be d2a8 68bc 9766 19be
00000280: c767 2bbe 172f 843e e238 cbbd bde4 0f3e
00000290: 724f 6ebe 1333 99be 01e0 023f 2c78 d7be
000002a0: de46 fdbd 03c8 c7bd 614c 083e 9c55 5f3e
000002b0: 8a15 82be 3d7a 20be 8b59 763e c98c 2dbe
000002c0: 5e4f c63b ac13 493d 2c0d 07be b61e 13be
000002d0: 7bcb 63be bc2a 45be 5da0 87be 9e7a 283e
000002e0: 623a eebb 7fa6 0abe b464 9abe 0a0e 66be
000002f0: f2bc a6be c276 aabe 2e86 66be 2c5c 75be
00000300: f78a 053e 8361 8fbe 97c3 7abe 8091 2dbe
00000310: 420f 30be 2956 b8bd 60d3 bbbe 1e09 c4be
-0.1398676 -0.18234469 -0.33713955 -0.2970102 -0.37860388 -0.20085998 -0.14809328 -0.01938742
-0.060547937 -0.21555948 -0.32929128 0.09109553 -0.05222154 0.030894447 -0.2611964 -0.26596567
0.4341533 -0.32874086 -0.23309429 -0.307137 -0.07887854 0.1865652 -0.18377727 -0.28410482
0.25000042 -0.05603412 0.17522204 0.19071048 -0.24685884 0.06203221 -0.20876256 -0.20605992
-0.27290672 -0.13304031 -0.0895352 -0.14021231 -0.22522552 -0.31460488 -0.08529734 -0.30003747
-0.2981721 -0.12260909 0.30483514 -0.15031682 -0.06915023 -0.24422532 -0.13995044 -0.12293705
-0.32497936 -0.41071323 0.07857086 -0.11022112 -0.039966818 -0.005089514 -0.14504354 -0.27744088
-0.08835234 -0.05824606 -0.008070456 -0.17706205 -0.009693004 0.19641922 -0.043612998 0.26535147
-0.02368745 -0.16421396 0.38119197 -0.16123898 -0.02423984 -0.10128027 -0.0683383 0.1717331
-0.14377622 -0.13752984 0.24987435 -0.12632875 0.13611938 0.082493916 0.09454962 -0.06933577
0.04332806 -0.05620095 -0.04976175 0.018455768 -0.22201894 -0.0074876873 -0.075168855 -0.09789406
-0.059160292 -0.03313892 -0.1864051 -0.0502999 0.18785627 -0.0947059 -0.09281257 0.013971163
-0.20035796 -0.049323935 0.12961984 -0.15024726 -0.022884022 -0.026166651 -0.035208717 -0.034112558
-0.054460738 0.053017996 0.11454767 0.030386355 -0.067102775 0.009832425 0.009305567 0.2244398
-0.019973984 -0.1172345 0.06511906 0.016582625 -0.26895723 -0.15446593 0.0024473537 -0.032285377
-0.07567052 0.15159152 0.01611778 -0.009113327 -0.2100221 -0.09791876 -0.13854404 0.19203871
0.04819022 0.1282548 0.00966573 0.031700745 0.0070786867 -0.109190606 -0.027285537 -0.0729357
-0.023748513 -0.03892295 0.000120345736 0.032449044 -0.030833326 -0.030272478 -0.15847413 0.0032991325
-0.025421524 0.023794435 -0.06200942 -0.08244315 0.03644469 0.059490427 -0.18695356 -0.22016977
-0.1118362 -0.32411957 -0.17709506 -0.05705329 -0.18615238 -0.17864457 -0.014200406 -0.14980541
-0.16738807 0.25817177 -0.09922959 0.140521 -0.23272493 -0.2992178 0.5112305 -0.4208387
-0.123670325 -0.09754946 0.13310386 0.21810001 -0.25407058 -0.1567163 0.24057595 -0.16948237
0.006051942 0.049091026 -0.13188618 -0.14367184 -0.2224559 -0.19254583 -0.26489535 0.16453025
-0.0072701434 -0.13540076 -0.30154955 -0.22466293 -0.3256603 -0.3329373 -0.22512123 -0.23960942
0.13041292 -0.28004083 -0.24488674 -0.16950035 -0.1719332 -0.09000809 -0.36684704 -0.38288206

RNN.weight_hh_l0 f4 [200, 50]
00000000: 29fd 1b3c cfb9 273e 0be6 e8bd b0b4 67bd
00000010: 61d0 cebd 0714 01be dec6 1f3e d441 ebbd
00000020: 3804 ec39 2b7e 2d3e 663f 7cbb f3ee 0c3d
00000030: 8417 493e 1e2d f03e 370e 303e 8573 de3c
00000040: c7ce 783e 282a 07be cf26 363e 175f ecbd
00000050: 90a1 06bd 3b33 88be 73a0 30bd 232f a23c
00000060: f7e6 82be 8a57 e43d 110a 513e ac2f 81bc
00000070: 7ad8 41bd 06ae 02be d271 5abe 7450 a9be
00000080: 2bd8 afbd ae24 f83b 7dfc 6a3e 206a 993d
00000090: 2c17 0c3e f4aa 96bd 36a4 3abe 53d7 3abe
000000a0: d626 53be 6376 0cbe 123c f93e 8d4e 13be
000000b0: 31ec a43c 147e 4abd 4aed d9bd af30 8a3d
000000c0: cc94 a3bc 6ab0 133d efc3 a5bb 62d3 a53d
000000d0: ae41 07be 9cc4 56be cb82 19be 1dc2 943d
000000e0: 3fa9 ca3c 4a0e fcbd 34e8 1ebd e666 a93d
000000f0: 795e 353c c863 1d3e 438a c43d a409 37bd
00000100: 0064 db3c f159 8a3c f0f2 f53d deff ccbd
00000110: ff6e 19bc 9957 7cbd 201f 3ebe cdd3 0fbd
00000120: 98ff e43d 8301 e43d 1430 17be bb59 37bd
00000130: 2376 cbbd 20a7 3a3e c1f7 073e d6e0 473e
00000140: 0b3c 91bd 63a4 153d 8553 90be a661 53be
00000150: 1f57 f03d 73ba 80bd da41 d63d 7467 96bd
00000160: e8e1 aabc 19d2 b8bd 55b0 c33d ec51 9fbe
00000170: 1275 3fbe 9002 df3d 742d b63d a51b b03c
00000180: 5b32 dbbd 8271 00bc 674f f9bc 6740 8abe
00000190: 9d12 373e 6c27 d93c 562f 87be b25b 56bb
000001a0: f695 b13d cc5a 8abe d2d9 043d eedc 65bd
000001b0: eadb 763e 92a1 123e 7376 993c daa5 86bd
000001c0: 6881 cc3c 8283 8d3d 1970 08be 4a11 27bd
000001d0: c0ce ab3d 3dc1 85be 0da5 103e 5e27 fb3d
000001e0: 4b02 433e d02f c2bc c804 8cbd c53e 03be
000001f0: d17d 3bbe 94c1 733e f518 f6bd 03fa 393e
00000200: dce0 f3bd 7949 a53d 31a0 11be cfaa 683d
00000210: 37d9 3cbe 7a6b 19be b951 013e 7827 523e
00000220: feb6 3f3c 572a 823e e229 1f3d 42bd 8e3d
00000230: 6927 3d3e cb20 bcbd 04b3 66bc c8e8 eaba
00000240: bc42 a93e dcaa 1dbe 4cde 993d 5064 7cbb
00000250: 50a0 64be cbce dfbc ee1d 003e d154 acbb
00000260: d795 43be f5bd c33d bb40 ab3d a429 fbbc
00000270: 24dc dd3d d1fe 893e 3b64 053e a798 0fbe
00000280: 147d f1bd 4dd0 87bc a407 b1bd c200 2b3d
00000290: d1a1 243e aa59 e1bb 6fe7 b13e 3efa abbc
000002a0: 7701 383e d8a2 1e3d 7d90 40be 5a04 f93d
000002b0: c4ec 2dbe 9ab0 a0bc c62f 31be e8dd c13a
000002c0: 1abe aebd f1a7 063e 8600 69bd db34 d03c
000002d0: c1ad f3bd 628b 6a3b 3b3a 97bd e209 20be
000002e0: ed24 6c3e eab7 103e 282b 8a3e 2afd 563b
000002f0: 427f 6c3d 69d7 bb3d a099 513d bec1 7c3c
00000300: 261d 063e 4474 53bd ea15 a53c bd63 b6bd
00000310: 02c6 083d 6206 aabd 1a7c 41bd 072d 733d
00000320: a396 943e fb73 5a3e e7a7 0cbe 06a8 e9bb
00000330: b0b3 713d 8ea2 3bbe 5269 053e d976 e1bc
00000340: 54b0 6f3e 463f c73c 78dd 95be 409a 48be
00000350: bdfc 9e3e ead8 21bb 83a7 8d3d 5a92 97bd
00000360: ee4f a33e 5ab9 bbbd 4bcc 143e e339 283e
00000370: bac6 ae3d bc57 6abe 9a1c fabc 3a83 5a3e
00000380: 5c30 d3bc 1aeb 5b3e b8fd aebd 8125 043d
00000390: 9a5c bebd 592d 8e3d e770 7f3d ca4d f2bc
000003a0: 824e 38be 1eaf f9bd 62b4 983d 723b 743e
000003b0: ac7d b93d b9c5 9fbc 587c ff3c 9566 9e3d
000003c0: e76c a33d 5bb7 923d d4b0 9c3e 90e9 b2bd
000003d0: 41e8 af3e 7993 76be 9708 993c 8670 1d3e
000003e0: c6e2 96bd 0abd c43d 3752 503e 140c a23d
000003f0: 82f4 98bb 1722 613d 399a 193e f813 99bb
0.009520807 0.16379474 -0.11372002 -0.0565688 -0.10098339 -0.12605296 0.15603206 -0.11487165
0.0004501657 0.1694266 -0.0038489937 0.034407567 0.19637877 0.46909422 0.17192923 0.027154693
0.2429763 -0.13199675 0.17788242 -0.115415744 -0.03286892 -0.26601586 -0.043121766 0.019797867
-0.25566837 0.11149509 0.20413996 -0.015769802 -0.04732559 -0.12761697 -0.21332482 -0.33069193
-0.08586153 0.007572732 0.22947879 0.07490945 0.13680714 -0.073568255 -0.18226704 -0.18246202
-0.20620283 -0.13717036 0.48678643 -0.14385433 0.020132156 -0.049436644 -0.106409624 0.06747567
-0.019968413 0.036056913 -0.0050587575 0.08096959 -0.13208649 -0.20973438 -0.149913 0.07263587
0.024738906 -0.12307413 -0.038795665 0.082715794 0.011069887 0.15370095 0.09596684 -0.04468693
0.026781082 0.01688859 0.12009227 -0.1000974 -0.009364842 -0.061606977 -0.18566561 -0.0351141
0.11181563 0.11133101 -0.14764434 -0.044763308 -0.09934642 0.18227816 0.13278104 0.19519362
-0.070915304 0.036533725 -0.2818872 -0.20642719 0.11735367 -0.06285562 0.10461779 -0.07343951
-0.020859674 -0.09024448 0.09555117 -0.3111719 -0.18697003 0.10889161 0.08895388 0.021497557
-0.10702964 -0.007839562 -0.03043337 -0.2700226 0.17878194 0.026508056 -0.26403302 -0.0032708463
0.08671181 -0.27022398 0.032434292 -0.056118898 0.24107328 0.14319447 0.018733239 -0.065746024
0.02496405 0.06909849 -0.13324012 -0.040787973 0.08389044 -0.26123992 0.14125462 0.12263368
0.19043843 -0.02370444 -0.068368495 -0.12816913 -0.18309714 0.23804313 -0.12016479 0.18161778
-0.11908123 0.080706544 -0.14221264 0.05680352 -0.18442236 -0.14982405 0.12628831 0.20522869
0.011701344 0.25422928 0.038858302 0.06969692 0.18472065 -0.09185942 -0.014080767 -0.0017922157
0.33058727 -0.15397209 0.07513103 -0.003851194 -0.2232678 -0.027320286 0.12511417 -0.0052591343
-0.19100128 0.09557716 0.08361956 -0.030659504 0.10833004 0.26952222 0.13026516 -0.14023076
-0.11791435 -0.016578818 -0.086440355 0.04174877 0.16077353 -0.006877144 0.34746882 -0.020993348
0.17969309 0.03872952 -0.18805118 0.12159033 -0.1698485 -0.01961546 -0.1730338 0.0014790865
-0.08532353 0.13150002 -0.056885265 0.025415828 -0.11898375 0.0035788645 -0.073841535 -0.1562877
0.23060961 0.14132658 0.2698605 0.0032804706 0.05773855 0.091719456 0.0511719 0.015427051
0.13097057 -0.05162455 0.020152051 -0.08905742 0.03339196 -0.08301999 -0.047237493 0.059369113
0.29021177 0.21333306 -0.13735925 -0.0071306257 0.059009254 -0.18323728 0.13028458 -0.027522491
0.23407108 0.024322163 -0.2927053 -0.19590092 0.310522 -0.0024695941 0.06916716 -0.07400961
0.3189692 -0.091662124 0.14531057 0.16428332 0.08533998 -0.2288503 -0.030531216 0.21339121
-0.025779895 0.21476403 -0.08544487 0.03226233 -0.09295006 0.06942243 0.06236353 -0.029578108
-0.17998698 -0.12191604 0.0745628 0.23850802 0.09057173 -0.019503461 0.031187221 0.0773441
0.07979756 0.071638785 0.3060366 -0.08735955 0.34356883 -0.24079694 0.018680854 0.15374956
-0.07367472 0.09606369 0.20343862 0.0791246 -0.0046678195 0.05496415 0.15000238 -0.00467157

RNN.bias_ih_l0 f4 [200]
00000000: 8ff8 d0bd 8008 82be e24f 35be f10d d1be
00000010: 3efe a0be 8331 a8be fab4 09bf 8ed5 b3be
00000020: f769 94be 2e8f 5dbe 5287 02be 5ab8 cebd
00000030: 74e1 52be 3a50 e1bd 25e6 2fbe 7a40 e6be
00000040: 0f0d fd3c 833f a4be 07e6 47be 4254 1cbe
00000050: 245b a2be 87cf 25be bf73 92bd ee63 34be
00000060: d4b4 a93d fcb6 5dbe 83b2 6fbe e4ef 08bc
00000070: 6f0e 94be f983 6cbe 6452 78be c064 0fbe
00000080: 87f3 c6be e15b 08bd 2566 92bd e38d 96be
00000090: 731d 87bd be21 d0be 6136 d3bd 71e4 34be
000000a0: 395e 9fbe 73a8 6abe 0b21 5fbd b1a8 e5be
000000b0: e22c d6be fdba 36be f56c b8be f1e8 7cbe
000000c0: e12e a9be 7acf e9bd 37fe 2ebe aca3 80be
000000d0: 20eb f7bd a551 86be 1f09 03be 22c9 99be
000000e0: e051 dabe 9a97 eabe 9deb 2fbe c388 22be
000000f0: 5229 0abe db8b 37be 9820 d1bd 4c38 863b
00000100: e09e 56be b2e9 06be f650 273e 5dbc 96be
00000110: d46a 1ebe f100 79be da71 e6be 677d e6bd
00000120: d60b 84be 95e1 06be 2ec0 bb3c 5f77 53bd
00000130: dddb 98be dc05 cebe 2ce4 68be 10cd 86be
00000140: 5589 5b3d 6441 68be 9994 08be addd 26be
00000150: d86b aabe 2104 a0be d852 1ebe 3a7b e5be
00000160: b8b1 8cbe ec68 cebe c059 8fbe 4521 62be
00000170: 42ba 79be 3a65 bcbe 6823 8fbe 0b7a b7be
00000180: 65ae 30bd b369 82be f929 f9bd 8e6d 92be
00000190: 68bd 22bd e6bf c7bd c24c 3e3e f671 343e
000001a0: 9e19 7bbe 2124 ac3d 5fdb 65bd d988 6fbe
000001b0: 31c6 f33c 4b30 123e 94c0 0f3e 0699 02be
000001c0: ab12 8e3c ac05 103e b817 90bd 1689 733e
000001d0: 6033 553e cc5f 30be d9cb 7abe 85a1 6e3c
000001e0: 627a 1c3e be57 83be 3c15 57bd 7dde 513d
000001f0: 1166 973e ca87 a8bd fe9c 4b3e 1008 88be
00000200: 6809 b53c 849c a5be 4550 58be 4620 3a3d
00000210: c7e1 3b3d 8484 1c3e 2b7e 5d3e 9b7a 3e3e
00000220: b8c2 b3bd fe26 1bbe 26f9 f03d 6eab de3d
00000230: 5fcc 4abe a84b 4c3e 808c 603e 56cb ae3c
00000240: a573 01bd 77d4 60bd 942e 9c3d 5d89 153e
00000250: a195 ed3d b12d 6e3e 4bc9 31be 715c 5dbe
00000260: c2b9 00be d04b abbe 72f6 b3be 7480 57be
00000270: f725 fdbe 7c3b 2ebe 75ef 6dbe 96d0 25be
00000280: b9a5 31be 7e1e 4cbe 4261 8bbe d833 efbc
00000290: 51cd b0be 3166 9abe 9bac 803d 68ed f4be
000002a0: 365d 85be 4f09 75be b358 cebe 6667 5dbe
000002b0: a3ff c6bd aca6 b5be 9478 ffbd cd5a 8fbe
000002c0: e206 7bbd d984 c8bd fa6f 7cbe 6c91 7abe
000002d0: 4794 4dbe 1129 7bbe 290c 04be e789 26bd
000002e0: 45c2 15be 4ed7 bebe 8735 a8be 723f 06bf
000002f0: 33e7 79be 57b5 8fbe d585 afbe a2ac 39be
00000300: c31d 303d ed40 d7be d0a1 65be a955 8dbe
00000310: 251c 13be 91cb f6bd f8b8 bfbe 1353 82bd
-0.10203659 -0.2539711 -0.17706254 -0.4083095 -0.3144397 -0.32850274 -0.53791773 -0.35123867
-0.28987095 -0.2163665 -0.12746933 -0.10093756 -0.20593816 -0.1100163 -0.17177637 -0.44971067
0.030890016 -0.32079706 -0.19521342 -0.15266517 -0.3171016 -0.16192447 -0.07150983 -0.17616245
0.08286443 -0.21651834 -0.2340794 -0.008357976 -0.28917262 -0.23097219 -0.2425018 -0.14003277
-0.38857672 -0.033290748 -0.07148389 -0.29405126 -0.06597414 -0.40650743 -0.10313106 -0.17665268
-0.31126574 -0.22915821 -0.05447487 -0.44855264 -0.41831118 -0.17844768 -0.36020628 -0.24698235
-0.33043578 -0.11416526 -0.17089163 -0.25124872 -0.121053934 -0.26234165 -0.12796448 -0.30036265
-0.4264059 -0.45818788 -0.17179723 -0.15872483 -0.13492325 -0.17924444 -0.10211295 0.0040960666
-0.20959044 -0.13175085 0.16339478 -0.29440585 -0.15470439 -0.24316765 -0.45008737 -0.11254387
-0.2579028 -0.1317199 0.022918787 -0.051627513 -0.29855242 -0.40238845 -0.2274329 -0.26328325
0.053597767 -0.22681195 -0.13337936 -0.162955 -0.33285403 -0.3125315 -0.1546129 -0.44820577
-0.2747934 -0.40314424 -0.2799816 -0.22083004 -0.24387458 -0.3679598 -0.279567 -0.358353
-0.043135066 -0.25471267 -0.12166209 -0.2859921 -0.039731413 -0.097533986 0.18583968 0.17621598
-0.24521491 0.084053285 -0.05611741 -0.23392047 0.029757591 0.14276235 0.14038306 -0.12753686
0.017342886 0.14064664 -0.07035774 0.23782763 0.2082038 -0.17224044 -0.24491824 0.014564876
0.1528106 -0.2565288 -0.052510485 0.051237572 0.29570058 -0.08229025 0.19884107 -0.2656865
0.022099212 -0.32345974 -0.2112437 0.045440935 0.045869615 0.15284926 0.2163016 0.18601458
-0.08777374 -0.15151593 0.11766271 0.10872541 -0.19804524 0.19950736 0.21928596 0.021337193
-0.031604428 -0.054890122 0.076260716 0.14603181 0.11600805 0.23259617 -0.17361943 -0.21617295
-0.12570861 -0.33456278 -0.3514896 -0.21045095 -0.49443027 -0.17014879 -0.23235877 -0.1619285
-0.17348374 -0.19933507 -0.2722264 -0.029199526 -0.34531644 -0.3015609 0.06282922 -0.47837377
-0.26047677 -0.23929332 -0.40302047 -0.21621475 -0.097167276 -0.35478723 -0.1247417 -0.27998963
-0.06128586 -0.09790964 -0.2465209 -0.24469537 -0.20076095 -0.24527384 -0.12895264 -0.040658858
-0.14624889 -0.3727364 -0.32853338 -0.5244056 -0.24404602 -0.2806804 -0.34281793 -0.1813226
0.042997133 -0.42041722 -0.22425008 -0.27604416 -0.14366205 -0.12050546 -0.37445807 -0.063635014

RNN.bias_hh_l0 f4 [200]
00000000: eb12 1ebe af22 88be 7e66 8ebe 4dcd c4be
00000010: 4deb cbbd a3a1 b7be 7672 0bbf 72a0 9dbe
00000020: 6833 1cbe 2123 8abe c8f3 d8bd c138 87bc
00000030: b57b b8bd c410 6ebe ef5c 4cbe 77e3 8bbe
00000040: 4897 17be bb63 c3be d948 ffbd 5ec6 6fbe
00000050: dfe1 76be 0208 bc3c 8647 81bd c4c4 3ebe
00000060: 6003 713d 5a00 f1bd d5f2 41be 1cb3 debc
00000070: cd63 9dbe d030 76be 2b73 99be 350e c0bd
00000080: 2c28 7bbe 0633 ccbb 25fe 9bbe 6467 89be
00000090: 1094 72be fa65 a6be b8c9 9abe abdc b3be
000000a0: fea9 b1be 3af6 98be dc4b b6bd 0d02 f3be
000000b0: 151f 7dbe 31e3 81be 2895 9fbe 1bce 48be
000000c0: e572 b4be 0dc5 4abe f43e 34be 1f20 97be
000000d0: 19fa 35be c733 97be 51d4 f5bd dbf4 44be
000000e0: 2da4 7bbe 9bb5 50be df52 5bbe d439 acbe
000000f0: 12ab 3c3d 95b2 aebd 96e3 47be 52d5 27be
00000100: 695e 93bd ff9c b3be 5787 9d3d 22c4 0abf
00000110: 0752 a03c ad2c d4bd 9747 61be 124b a4bd
00000120: 578b c0bd 8858 a7bd be85 fbbb 5295 8abe
00000130: 84c7 88be 6172 4dbe 0825 95be 9a44 d9be
00000140: dda8 3dbe 0c24 8ebe bd78 69be c170 81be
00000150: 5cc0 c1be 863f fbbd 73d0 f2bd 577c e2be
00000160: 316e afbd 898d 00bf 4779 afbe e154 dfbd
00000170: 2410 c1bd b5ec bdbe d82d fdbd 8ab8 98be
00000180: 0240 18be 1705 eebd 8127 d8bd 0a11 10be
00000190: 6b96 3bbe 90c3 c5bd 30f6 323e 17df ea3d
000001a0: 9c9a abbc ffc8 be3d 8314 40be 60de f4bd
000001b0: e1ac 86bc 0769 98bd f96f 813e dfb2 84be
000001c0: b4bc cfbd 268e fd3d 47ae ca3d f68e 583d
000001d0: 2ced 9e3e d2ed 53be e997 efbd a3ba 91bd
000001e0: d222 b73d 2c19 e5bd 2d26 0cbe b103 b1bd
000001f0: 0db9 1b3e 31d6 e53d fad0 853e 45d2 8bbe
00000200: ac23 e0bd 2d62 a3bd 81bb babd c177 94bd
00000210: 5f4e 9c3d 3e67 6b3e 28a1 883d f4cb a9bd
00000220: 11f1 5bbe db24 413d 82c5 f23d bad2 453e
00000230: 93b5 3fbc d9ea a83d e4d5 383e 8765 8a3d
00000240: 7591 fcbd 52a1 c0bd 8c09 b7bd b1fd ca3d
00000250: d993 803d 9afa 353e 8be0 01be 5873 fdbd
00000260: 5ad9 5cbe d2de 79be 38de 2ebe 5b4d a7be
00000270: 49e8 f1be 059a b6be 61b8 a7be 1281 7dbe
00000280: eb9e 70be 242f c4bd cb9b 0cbe 0845 64bc
00000290: da55 8cbe 233b afbe 6526 563d 307c aebe
000002a0: 3ecf 9dbd 3e01 a9be 1342 e6be 571f 96bb
000002b0: 8a0e b8bd 6cb5 8dbe 249b 16bd df9a 93be
000002c0: 3dcb b5bd 8533 77be dafd 66be c75d e3be
000002d0: 81f0 6fbe 881e 91bd 8c94 9abe 3c99 03be
000002e0: 8964 56bd 04d8 a7be cf8b 22be 61a9 c0be
000002f0: 3c1c 07be 57b6 d6be 4c3f 1bbe 165b 03be
00000300: 453c 35be 3738 ebbe ea03 96be c021 6cbe
00000310: 32a7 3bbe 9d16 28be 67df 8cbe d830 9db9
-0.15436904 -0.2658896 -0.2781257 -0.38437882 -0.099569894 -0.35865507 -0.5447153 -0.30786473
-0.15253985 -0.26979926 -0.105933726 -0.016506555 -0.0900797 -0.23248583 -0.19957326 -0.2732198
-0.14803803 -0.38162026 -0.124650665 -0.23415515 -0.241096 0.022953037 -0.0631247 -0.18629748
0.05884111 -0.11767645 -0.1894029 -0.027185015 -0.30740204 -0.24042058 -0.2997068 -0.0937771
-0.24527043 -0.0062316684 -0.30467334 -0.26836693 -0.23689294 -0.32499677 -0.30232024 -0.35129294
-0.34700006 -0.29875356 -0.08901188 -0.47462502 -0.24718888 -0.25368646 -0.31168485 -0.19609873
-0.35243908 -0.19801731 -0.1760214 -0.29516694 -0.17771186 -0.2953169 -0.12003387 -0.1923403
-0.24574347 -0.20381777 -0.21418332 -0.3363787 0.046061583 -0.085301556 -0.19520411 -0.16389969
-0.07195742 -0.35080716 0.0769183 -0.54205525 0.019570364 -0.10360084 -0.21999966 -0.08022131
-0.09401577 -0.08171183 -0.0076758554 -0.27067047 -0.26714718 -0.20063163 -0.29129815 -0.4243515
-0.18521447 -0.27761877 -0.22799964 -0.25281337 -0.3784207 -0.122679755 -0.11856165 -0.4423549
-0.08565939 -0.50215966 -0.34272215 -0.10904861 -0.09426907 -0.37094656 -0.123622596 -0.29828292
-0.14868167 -0.116220646 -0.1055441 -0.14069 -0.18319099 -0.09656441 0.17476726 0.11468332
-0.020947747 0.09315681 -0.18757825 -0.11956477 -0.016439857 -0.074419074 0.2528074 -0.25917718
-0.10143414 0.12380628 0.09896522 0.052870713 0.31040323 -0.2069619 -0.116988964 -0.07115676
0.08942188 -0.11186442 -0.13686438 -0.08643282 0.1520731 0.112224944 0.26136 -0.2730886
-0.10944304 -0.0797771 -0.09117795 -0.07249404 0.076321356 0.22988603 0.06671363 -0.08290854
-0.21478678 0.04715429 0.11854078 0.19318667 -0.0117010055 0.08247919 0.18050343 0.06757646
-0.12332431 -0.094057694 -0.08937368 0.09911669 0.062782 0.17771378 -0.12683313 -0.12375516
-0.21567288 -0.24401405 -0.17076957 -0.32676205 -0.47247532 -0.35664383 -0.32757857 -0.24756268
-0.23498122 -0.09579304 -0.13731305 -0.013932474 -0.2740925 -0.34224805 0.05228271 -0.34079123
-0.07705544 -0.3300876 -0.44972286 -0.0045813727 -0.08987148 -0.27677476 -0.036769047 -0.28829095
-0.08876655 -0.24140747 -0.22557774 -0.44407484 -0.23431589 -0.070859015 -0.30191457 -0.12851423
-0.05234197 -0.32781994 -0.15873645 -0.37629226 -0.13194364 -0.4193599 -0.15160865 -0.12827715
-0.17698772 -0.45941326 -0.2929986 -0.2305975 -0.18325499 -0.16414876 -0.27514192 -0.00029981765

out.weight f4 [7, 50]
00000000: 4443 a13c 5468 b03d 8ced e93b aea3 f93d
00000010: ed3e eabc 3542 0f3d 5528 d73c a900 a7bd
00000020: 521b 443c 8f1a 9c3d cd60 f0bd 40c5 b63b
00000030: 0d8a ae3c 2eaf 5d3d a290 0bbd 140b 9dbd
00000040: e526 b23d 9089 adbd 2232 c4bc 5f49 74bc
00000050: 2511 9fbc 22b8 553b d34e 88bc 10c0 483d
00000060: 1a6a 8d3d 390e 3c3d 7a3c 393d 92ab 92bd
00000070: 24ae 77bd fc80 91bd 5fa3 a33d 11c2 efbd
00000080: b8dd 9f3c 607f 063b 6e7e 703d 019d 783d
00000090: 3b9e 00bd 0ec4 9a3d 890b 1d3d 6195 823d
000000a0: b71e 8cbc e446 b43c dad0 c0bb 31a7 a5bd
000000b0: 4ad8 cf3d 55c8 8d3d a106 e6bc cb08 403d
000000c0: 2877 9ebd e05c e73d cd73 0c3c 4c85 043c
000000d0: 25fd 9f3d a2e8 a43d e4b9 18be 571e 603d
000000e0: 2815 7cbe feca 28be 6b1e 8a3d 6669 c83c
000000f0: 6405 5a3d 8351 5fbe cdba 273d 2d57 373e
00000100: c8a7 113c 75a8 bc3c 9f89 133f 0692 46be
00000110: bb7d 3cbe 0077 3039 8a62 ea3d 586a 73be
00000120: ccec 33be 2d8c 25bc 151e 593e 724e e53c
00000130: 96f1 653e a845 bcbe 8989 62bd b3aa 2fbe
00000140: 75a6 a3bd 85f2 86bd cc0c 1c3c c832 c03d
00000150: 65af c93d db8e e93d 562a 06be c838 653d
00000160: 3e3a 993d 7954 ca3d f30c 24bd 3abb ca3d
00000170: 2a1c 903e 3ea9 d5bc ac53 b43d 093d 2b3b
00000180: 56c2 f83c 5b62 c53d 542c 80bb bbf2 173e
00000190: 9d06 d0bd 7550 013d eb56 513e d8f0 f23d
000001a0: 2fbf 71bd fff8 ed3c 8d35 c5bd 4b67 b6bd
000001b0: d3ab cdbd 9721 8c3d 25dc 573d 2be6 9dbc
000001c0: c073 e1bd f408 74bd 201e 363c fcfd 51bd
000001d0: ff17 703d 1bae 73bd 5cbe 57be ed46 253d
000001e0: d4e8 1ebd 07a5 863d 46d5 e6bd 4da4 0b3d
000001f0: c42e c13d 344c 1fbd 590a e83d 5e03 18be
00000200: 35eb 88bb 4c8e 37be 1c5f 303d 45cc bbbd
00000210: 2520 3b3e 6596 1c3e 2766 003d f77c b1bd
00000220: a957 10be d080 15b9 9a0f 8a3c 3164 473e
00000230: 0ff6 94bd 7d8d 1a3e 3a12 8f3d 4f86 85bd
00000240: 68c8 0e3e 115a 28bd a652 3a3d 9df5 85bc
00000250: 9620 4f3d 7b8a 5c3e 74df fc3d d46c 1e3d
00000260: 458c 0ebd d789 c63d 9c51 b2bb a8e0 d93c
00000270: b179 a23d 12c9 233e 8403 043d 591e b9bc
00000280: 32ff 98bd 8f99 af3d 4a73 20bd 1bf5 cf3d
00000290: 6e33 95bb 55a6 0e3d 13f6 0abe 2c8f 35bd
000002a0: 3e7e a33c 2e01 cd3c b295 a5bd 4d24 2e3e
000002b0: 517f f93c 57d3 7e3d c92e 84be 6580 4cb9
000002c0: 7f99 24be 6328 b53d 5743 be3c 3ac4 27bd
000002d0: eec9 573c 7f77 943d 89a4 2dbe 8128 3bbe
000002e0: 49d5 81bb e071 123e be34 003e a43f d23d
000002f0: e1ab 27bd 2e03 9dbd 40cf 973d 4b53 acbd
00000300: 540c 17be 4aab d73c fcdc 1ebd 6b2f 9b3d
00000310: 4c63 ab3c 0e6c 8b3c 7506 cabd 3dff 11bd
00000320: c011 143e 59fd ee3d a311 5bbe e02d 023d
00000330: 7fcc 683d 9067 52bc 7197 293e 80a2 ff3d
00000340: f6e4 ee3d 6d81 833d ecb5 40be 01ba 233e
00000350: 6b8c 203d aa2a 55be eade 79bc 918e 0bbe
00000360: 81f3 82be 532c 663c d160 813e 32c0 133d
00000370: 906b 18bd 2080 f53d 7e33 91bd 7a0a 4fbc
00000380: 8c01 4ebe a11d 08bb 14f2 12be 6dc9 5a3e
00000390: c752 77bd b572 9c3d f384 f23d 4625 013d
000003a0: 5406 22be a8cb 1ebe fcfc 7abd 8d02 093e
000003b0: 3e0a 553e 0728 2b3d 6fba dfbd db52 41bd
000003c0: c52f bf3d 5723 27bd 647a dabd af82 fabd
000003d0: 7215 8a3d 4cfa d13c 53fc 603d 7363 3cbb
000003e0: 271f 67bd a48b 48be 0116 be3c 2957 9d3d
000003f0: 31e5 4dbd 215c 793b 5898 a1bc 019a 04be
0.019685395 0.08613649 0.0071389135 0.121894225 -0.028594458 0.03497525 0.026264349 -0.08154423
0.011969404 0.07622253 -0.11737213 0.0055777133 0.021306062 0.054122142 -0.03407348 -0.076681286
0.08698825 -0.084735036 -0.023949686 -0.014910071 -0.019417355 0.0032610972 -0.016639149 0.04901129
0.06905003 0.045912 0.04522369 -0.07161631 -0.060468808 -0.0710468 0.07990145 -0.11706937
0.019514903 0.0020522699 0.058714323 0.060696606 -0.0314009 0.07556926 0.03834108 0.06376148
-0.01710449 0.02200646 -0.005884272 -0.0808853 0.10148676 0.06922976 -0.028079333 0.046883386
-0.07737571 0.112970114 0.008572531 0.008088421 0.07811955 0.08052184 -0.14914662 0.054716434
-0.24617445 -0.16483685 0.06744083 0.02446432 0.053227797 -0.21808438 0.04094963 0.17904349
0.0088901 0.023029545 0.5763187 -0.19391641 -0.18407337 0.00016828999 0.11444576 -0.23771036
-0.175708 -0.010104221 0.21202882 0.027991507 0.22455439 -0.36771894 -0.055306945 -0.1715496
-0.079907335 -0.06589226 0.009524535 0.09384686 0.09847907 0.11404201 -0.13102087 0.055962354
0.07481812 0.09879393 -0.04005141 0.09898992 0.28146487 -0.026081678 0.08805022 0.002612891
0.030366104 0.096379004 -0.0039115343 0.14838688 -0.101575114 0.03157087 0.20443313 0.118623435
-0.059020218 0.029049395 -0.096293546 -0.0890642 -0.100425385 0.06842344 0.05270018 -0.019274792
-0.11008406 -0.05957885 0.011115581 -0.05126761 0.058616634 -0.05949221 -0.2106871 0.040350843
-0.03879626 0.06574445 -0.112711474 0.034092236 0.09432748 -0.038891032 0.11330099 -0.14845034
-0.0041784295 -0.17925376 0.043059453 -0.09169821 0.18273981 0.15291746 0.03134742 -0.08666413
-0.1409594 -0.00014257734 0.016853143 0.19471814 -0.072734945 0.15093036 0.06985898 -0.06519758
0.13943636 -0.04110152 0.045488976 -0.01635247 0.050568186 0.21537201 0.12347308 0.038678005
-0.03480174 0.096942596 -0.0054418575 0.026596382 0.07933367 0.15994671 0.032229915 -0.022597479
-0.0747055 0.08574211 -0.03917245 0.10154172 -0.00455325 0.034826595 -0.13570432 -0.044325992
0.019957658 0.025024977 -0.08085193 0.17006035 0.030456217 0.062213268 -0.25816944 -0.00019502787
-0.16074179 0.08845594 0.02322547 -0.04095862 0.013170702 0.072493546 -0.16957296 -0.1827717
-0.003962193 0.14301252 0.1252012 0.10266045 -0.0409354 -0.07666622 0.07412577 -0.084143244
-0.14750797 0.026326794 -0.038784966 0.07577404 0.020921372 0.017019298 -0.09864513 -0.035643805
0.14459896 0.11669416 -0.21393447 0.03178203 0.056835648 -0.012842074 0.16561677 0.12482166
0.116647646 0.064211704 -0.18819398 0.15988924 0.039196413 -0.20817056 -0.015250901 -0.13628604
-0.25576404 0.014048654 0.25269178 0.036071964 -0.037211955 0.119873285 -0.070898995 -0.012636775
-0.20117778 -0.0020769613 -0.14350158 0.213659 -0.060381677 0.07639066 0.11841764 0.031529687
-0.15822726 -0.15507376 -0.06127642 0.1337988 0.20804688 0.04178622 -0.10924231 -0.047198158
0.09335283 -0.040805187 -0.106678754 -0.12231957 0.067423716 0.025632046 0.054928135 -0.00287458
-0.056426194 -0.19584519 0.023203852 0.0768264 -0.050267402 0.0038049298 -0.019725963 -0.12949373

out.bias f4 [7]
00000000: 6a4d 183e 5caf 1a3e 6c5e 443e ded0 adbd
00000010: 93e3 eebd 48b8 b23d d130 8a3d
0.14873281 0.15105957 0.19176644 -0.08487104 -0.116645 0.08726555 0.06747592
