saved_models/model_ChlorineConcentration_5_02_2_50.pt (torch, 129755 bytes, 12 tensors)

Controller.fc.weight f4 [1, 51]
0	0x3e0d0a23	0.13773398
1	0x3e542312	0.20716503
2	0xbde51aaf	-0.1118673
3	0x3d2c1333	0.042010497
4	0x3d58beb6	0.05291625
5	0xbdcff349	-0.10153825
6	0x3ca31537	0.019907577
7	0x3e56770d	0.20943852
8	0x3d855658	0.065106094
9	0x3caba30d	0.020951772
10	0x3cede1d5	0.02903835
11	0x3dee9e77	0.116513185
12	0x3e6a0a59	0.2285551
13	0xbde41fb7	-0.111388616
14	0x3e44824d	0.19190331
15	0xbdd5d7cf	-0.10441553
16	0x3d171486	0.036884807
17	0x3e222b61	0.1583686
18	0xbd2d98eb	-0.042382162
19	0xbd63c709	-0.055609737
20	0xbe19c5dd	-0.15016885
21	0xbdd90599	-0.10596771
22	0xbe1a1263	-0.15046076
23	0xbbc8872d	-0.00611963
24	0xbe7439e6	-0.23850212
25	0x3cbb1ada	0.022839952
26	0xbe0ac4c2	-0.1355162
27	0x3d368646	0.044561647
28	0x3e0d46d2	0.13796547
29	0xbc396875	-0.011316408
30	0x3e80a415	0.25125185
31	0xbe500f78	-0.20318401
32	0x3e43fd36	0.19139561
33	0xbd913dd6	-0.070918724
34	0x3d61ed97	0.055158224
35	0xbcc6c50c	-0.024263881
36	0x3de923eb	0.11383804
37	0x3a0dd5c0	0.00054105744
38	0x3e1063e5	0.14100607
39	0xbe2b6508	-0.16737759
40	0xbdb7acc9	-0.08968503
41	0xbe29a21a	-0.16565743
42	0xbd9c5320	-0.07633042
43	0x3e5879d6	0.21140227
44	0x3d411c31	0.047146026
45	0x3d5c3d33	0.0537693
46	0x3e4a9eea	0.19787183
47	0x3e1980bf	0.14990519
48	0x3e37dde9	0.17955746
49	0xbe2ec3ec	-0.17066926
50	0xbd0deb26	-0.034648083

BaselineNetwork.fc.weight f4 [1, 51]
0	0x3d81cc54	0.063378006
1	0x3e255e12	0.16149166
2	0x3cb55123	0.022133416
3	0x3c52e59b	0.012872125
4	0x3daca849	0.08430535
5	0xbd61838f	-0.055057105
6	0x3e4e6ff9	0.20159902
7	0xbdafa7d5	-0.08576933
8	0xbd99b9b5	-0.07506124
9	0xbc8df3bc	-0.017328136
10	0xbcc2b595	-0.023768226
11	0xbba2410d	-0.0049516023
12	0x3e2514d9	0.16121234
13	0xbd7d56ec	-0.061850473
14	0x3e89425a	0.26808435
15	0xbe2aba75	-0.1667269
16	0xbe61be59	-0.22045268
17	0xbdd923fc	-0.106025666
18	0x3e948475	0.29007307
19	0xbdc618d4	-0.09672704
20	0x3dbe9574	0.0930585
21	0xbe3547cc	-0.1770317
22	0xbe5948fc	-0.21219248
23	0xbe9737fc	-0.295349
24	0xbde6cf5f	-0.11270022
25	0x3dde45d4	0.108531624
26	0xbd8beee3	-0.068326734
27	0x3e4c1710	0.19930673
28	0xbcaf0d05	-0.021368513
29	0x3dda5220	0.10660195
30	0x3e00d505	0.1258126
31	0xbdd8f9da	-0.105945304
32	0x3e055d17	0.13023792
33	0xbd90d773	-0.07072344
34	0x3e65411f	0.22388123
35	0xbe5d7645	-0.21627147
36	0x3a1c1168	0.00059535215
37	0xbde70bc6	-0.112815425
38	0x3dbaa1fe	0.09112929
39	0xbd984af9	-0.07436175
40	0x3d2e06b9	0.04248688
41	0x3d82100e	0.063507184
42	0xbe2b9c6d	-0.1675889
43	0xbca2e34e	-0.019883778
44	0xbd4caf03	-0.04997159
45	0x3dbc830f	0.09204685
46	0x3d8ad20e	0.06778346
47	0xbdd62c63	-0.10457685
48	0x3d8005da	0.06251116
49	0xbc5883b8	-0.013214998
50	0xbc875f0f	-0.01652482

RNN.weight_ih_l0 f4 [200, 1]
0	0xbd053848	-0.032524377
1	0xbe68c66c	-0.22731942
2	0xbe66067e	-0.22463414
3	0xbe1479ee	-0.14499637
4	0xbe86a019	-0.2629402
5	0xbdf3a607	-0.118969016
6	0x3d534806	0.05158236
7	0xbc8e93bb	-0.017404428
8	0x3d27e43a	0.04098914
9	0xbe29af90	-0.16570878
10	0xbe678241	-0.22608282
11	0xbd1c0ddd	-0.03809916
12	0x3ceebcc0	0.029142737
13	0xbe9bd6ff	-0.30437467
14	0xbda400ed	-0.08007989
15	0xbdcbe513	-0.09955802
16	0xbd458881	-0.048225883
17	0xbda58f0f	-0.08083927
18	0xbd02f242	-0.031969316
19	0xbd82a7fc	-0.06379697
20	0xbe094ed9	-0.13408984
21	0xbe6b79b3	-0.22995643
22	0xbe167f54	-0.1469701
23	0xbe770b2a	-0.24125353
24	0x3dbc9fef	0.092101924
25	0xbd74b9d9	-0.05974755
26	0x3e17ca12	0.14823177
27	0xbd40fc33	-0.047115516
28	0xbe3c1439	-0.1836709
29	0x3dbee849	0.09321649
30	0xbe46e935	-0.19424899
31	0xbe4fa151	-0.20276381
32	0xbe35dc37	-0.17759787
33	0xbe81a1cd	-0.25318757
34	0x3d209aca	0.03921012
35	0xbe35f3c6	-0.17768773
36	0x3d08d9e0	0.033410907
37	0xbe4ce41f	-0.20008896
38	0x3dd9d04f	0.10635435
39	0xbe1dd80e	-0.1541445
40	0xbdae64d7	-0.085153274
41	0xbd864552	-0.065561906
42	0x3d0580d1	0.032593552
43	0x3db4d8da	0.08830424
44	0x3d9ae52e	0.07563244
45	0xbe77277f	-0.2413616
46	0xbdf42eb4	-0.119229704
47	0xbe422daf	-0.1896274
48	0xbe5e8c2c	-0.21733159
49	0xbe6e32b6	-0.23261532
50	0x3d8b82a2	0.068120256
51	0xbe811e9a	-0.2521866
52	0x38aac600	8.143112e-05
53	0xbd64ffe4	-0.0559081
54	0xbde57776	-0.11204426
55	0xbe357f3f	-0.17724322
56	0xbc60dd1d	-0.0137245925
57	0xbd714715	-0.05890568
58	0xbd3fb810	-0.046806395
59	0xbe426059	-0.18982066
60	0xbdce6f90	-0.100798726
61	0xbd9418ed	-0.07231317
62	0xbe595b58	-0.21226251
63	0xbdb11277	-0.086461
64	0xbcae45c6	-0.021273505
65	0xbe036f6d	-0.12835474
66	0xbe100fcc	-0.14068526
67	0xbdafcebc	-0.08584353
68	0xbcc57fa2	-0.024108712
69	0xbd861a5a	-0.06547995
70	0xbe1a5ac6	-0.1507369
71	0xbe4838d7	-0.19552933
72	0xbe5d7a81	-0.21628763
73	0xbdb25728	-0.0870803
74	0xbd1d002f	-0.038330253
75	0xbe431c2e	-0.19053718
76	0xbd72d014	-0.05928047
77	0xbd09478b	-0.033515494
78	0xbdc37475	-0.09543697
79	0xbdcd5a95	-0.10027043
80	0xbddf7345	-0.10910658
81	0xbd207a0c	-0.039178893
82	0xbc8dfb84	-0.017331846
83	0xbe0d2587	-0.13783847
84	0xbda5324c	-0.08066234
85	0xbe16a2b8	-0.1471051
86	0xbda5ae68	-0.08089906
87	0xbe17a07b	-0.14807312
88	0x3d4034ec	0.04692547
89	0x3c797f1e	0.015228061
90	0xbdbddb0a	-0.09270294
91	0xbddcc072	-0.107788935
92	0xbd70a1c8	-0.058748037
93	0xbd7e1786	-0.062034152
94	0xbd97fc02	-0.074211136
95	0xbe353769	-0.17696919
96	0xbe8f1484	-0.2794534
97	0xbe45d765	-0.19320448
98	0xbd54b2b2	-0.05192823
99	0xbd71effd	-0.05906676
100	0xbc8da0b0	-0.017288536
101	0x3c4247e8	0.011857964
102	0xbd238d26	-0.03992953
103	0xbd3b9a8f	-0.045801695
104	0x3d86e70e	0.06587039
105	0x3cd71b9a	0.026258279
106	0x3d5183dc	0.05115114
107	0x3d104571	0.035222474
108	0xbdf4f525	-0.1196082
109	0xbd948064	-0.07251051
110	0xbd42796b	-0.047479074
111	0x3e3230a9	0.17401375
112	0x3d62a240	0.055330515
113	0xbdb34eeb	-0.08755287
114	0x3d70b088	0.058762103
115	0xbd8efe83	-0.06982138
116	0xbcdfa920	-0.027302325
117	0x3dd26ef6	0.1027507
118	0x3c386ee0	0.011256903
119	0xbdded434	-0.10880318
120	0xbdd38300	-0.10327721
121	0x3d0b135b	0.033954006
122	0x3d510fc8	0.05104044
123	0xbb731441	-0.003709093
124	0xbd718c88	-0.05897191
125	0xbdf59e2d	-0.1199306
126	0xbde95e42	-0.113949314
127	0x3d1a3277	0.037645783
128	0x3c8ae263	0.016953653
129	0x3e0f55f2	0.1399763
130	0x3da94c71	0.08266533
131	0x3dc45e97	0.09588354
132	0x3afe9cbe	0.0019425375
133	0xbcb5de1f	-0.022200642
134	0xbe0a1b0e	-0.13486883
135	0xbd515cae	-0.051113777
136	0x3d6e02f5	0.05810829
137	0xbcb142b2	-0.021638248
138	0xbdb18584	-0.08668044
139	0xbd05e6b2	-0.03269071
140	0x3cb5dc50	0.02219978
141	0x3c8649f5	0.016392687
142	0xbd5ae54e	-0.05344134
143	0x3d7ce0a0	0.061737657
144	0xbc15003b	-0.009094293
145	0x3dc63036	0.09677164
146	0xbc3fd2f0	-0.011708006
147	0x3c83a7bc	0.016071193
148	0x3dbb8cba	0.09157701
149	0xbdc84d31	-0.09780348
150	0xbdb5c050	-0.08874571
151	0xbe88c30f	-0.26711318
152	0xbce6fa81	-0.028195621
153	0xbe2a221d	-0.16614576
154	0xbd9bb965	-0.076037206
155	0x3d0f7be7	0.03503027
156	0x3b9a1ddb	0.004703266
157	0xbe450a81	-0.19242288
158	0x3d9ef875	0.07762233
159	0xbdda78ff	-0.106676094
160	0xbd440f25	-0.047866005
161	0x3de84d47	0.113428645
162	0xbc5d8320	-0.013520032
163	0xbe47ccbf	-0.19511698
164	0xbd802642	-0.06257297
165	0xbe0d653f	-0.13808154
166	0x3c9921f8	0.018692955
167	0xbe3ed741	-0.186368
168	0x3d6ebe5f	0.05828702
169	0x3de163a1	0.11005331
170	0x3da86706	0.08222775
171	0xbe3161dc	-0.17322487
172	0xbe58505e	-0.21124408
173	0xbdb913e2	-0.090369955
174	0x3d32a542	0.043614633
175	0xbe35eaf0	-0.17765403
176	0x3b97653b	0.004620222
177	0xbe44bda1	-0.19212963
178	0xbd9ea8a5	-0.0774701
179	0xbdb68fc1	-0.08914138
180	0xbe5a484b	-0.2131664
181	0xbe390004	-0.18066412
182	0xbe4823df	-0.19544934
183	0x3c62b6d2	0.013837533
184	0x3de52e0c	0.11190423
185	0xbe230a55	-0.1592191
186	0xbd2d94e1	-0.04237831
187	0xbe0cd217	-0.13752018
188	0xbe0f304a	-0.13983265
189	0xbe3ece0c	-0.18633288
190	0xbc5754f8	-0.013142817
191	0xbe3b279e	-0.18276832
192	0xbe095d64	-0.13414532
193	0xbd133b31	-0.03594512
194	0xbdcbe049	-0.099548884
195	0xbe361f68	-0.17785418
196	0xbe16e251	-0.1473477
197	0xbe223353	-0.15839891
198	0xbe7f300b	-0.2492067
199	0xbe32e9c0	-0.17471981

RNN.weight_hh_l0 f4 [200, 50]
0	0xbd3dd023	-0.046341073
1	0x3e23b734	0.15987855
2	0x3bdf9f30	0.0068243966
3	0x3db424d4	0.08796087
4	0xbbde3323	-0.0067809983
5	0xbd490cd6	-0.049084507
6	0x3de08e8e	0.1096469
7	0x3e64e9b5	0.22354777
8	0xbd7c7f36	-0.061644755
9	0x3dfcd197	0.123446636
10	0x3ce42a9e	0.027852353
11	0xbccdefa4	-0.025138684
12	0xbc9d2b8c	-0.019185804
13	0x3d071413	0.03297813
14	0xbdb443f2	-0.08802022
15	0x3dc3b85a	0.09556647
16	0xbd0d40b6	-0.03448554
17	0xbdc22043	-0.0947881
18	0x3e223697	0.15841137
19	0x3e1009cb	0.14066236
20	0xbce4144b	-0.027841708
21	0xbdeaf5fa	-0.114726976
22	0xbe1187ff	-0.14212035
23	0xbe30789a	-0.17233506
24	0xbdaa7374	-0.08322802
25	0x3cef6104	0.029221065
26	0x3df0fe23	0.11767223
27	0x3e612c24	0.21989495
28	0xbe221c8c	-0.15831202
29	0xbe3452e0	-0.1760974
30	0x3e4c9dde	0.19982097
31	0x3c8712ea	0.016488511
32	0xbdb7d3ec	-0.08975968
33	0x3de9376f	0.11387526
34	0xbb352752	-0.0027641845
35	0xbd2839e5	-0.041070838
36	0xbda07c42	-0.078362
37	0x3c8a0ac9	0.016850846
38	0xb9f76e58	-0.00047193724
39	0xbd8572d1	-0.0651604
40	0xbd4357ee	-0.04769128
41	0xbe8a79a8	-0.2704594
42	0x3e4d7660	0.20064688
43	0xbe0ae4e3	-0.13563876
44	0xbd3845a6	-0.044988297
45	0x3e13ec0e	0.14445516
46	0xbe2599dd	-0.16171975
47	0x3dd7346f	0.10508048
48	0x3d7aa27c	0.061190113
49	0xbd310d34	-0.043225482
50	0xbb251032	-0.0025186655
51	0x3e2e4453	0.17018251
52	0x3e5f48a1	0.2180505
53	0x3dfc4d22	0.123193994
54	0x3dac6332	0.084173575
55	0xbc0a0f66	-0.008426523
56	0xbe47d715	-0.19515641
57	0xbe08bc85	-0.13353164
58	0x3c824628	0.015902594
59	0x3e0dd480	0.13850594
60	0x3dec2aeb	0.115316235
61	0xbde54e2d	-0.111965515
62	0xbcf13a05	-0.029446611
63	0xbeac795b	-0.33686337
64	0xbe883ff7	-0.266113
65	0x3e0b85c1	0.13625242
66	0x3e8186cc	0.25298154
67	0xbd6c3b98	-0.05767402
68	0x3d92c310	0.071661115
69	0x3df95fad	0.12176452
70	0x3d1800ea	0.037110247
71	0xbe35c2df	-0.17750119
72	0xbde092d4	-0.10965505
73	0xbd8b172b	-0.06791528
74	0x3e85fc3f	0.2616901
75	0x3b53b415	0.0032303382
76	0x3e70dfca	0.23522869
77	0xbe004415	-0.12525971
78	0xbdc825f8	-0.09772867
79	0xbcad6605	-0.02116681
80	0x3da6070f	0.08106815
81	0x3e4bb678	0.19893825
82	0xbe715049	-0.23565783
83	0x3dbca172	0.09210481
84	0x3e5ebf47	0.21752654
85	0x3d8e6a4c	0.06953868
86	0xbe27e8a3	-0.16397338
87	0x3dab58c5	0.08366541
88	0x3e6b6b5a	0.2299017
89	0x3e54be53	0.20775728
90	0x3e3b1932	0.1827133
91	0xbdbbf47b	-0.0917749
92	0x3c705a87	0.014670021
93	0xbdd5d214	-0.1044046
94	0x3e4b86ff	0.19875716
95	0x3cec270c	0.028827213
96	0x3d0156f0	0.03157705
97	0x3e74d774	0.23910314
98	0x3e27329b	0.16327898
99	0x3d2dc766	0.04242649
100	0x3d1b1439	0.037861083
101	0xbd8706fb	-0.06593128
102	0xbd8a0895	-0.06739918
103	0xba7ce39c	-0.00096469535
104	0xbd1ae308	-0.03781417
105	0xbcd01153	-0.025398886
106	0xbda095ce	-0.07841073
107	0x3dfe3a07	0.124134116
108	0x3e55b638	0.20870292
109	0x3dfcce8e	0.12344085
110	0x3d526482	0.051365383
111	0xbe134556	-0.14381918
112	0xbe211620	-0.15731096
113	0xbdae3b15	-0.08507363
114	0xbe2b08c3	-0.16702561
115	0xbc8f8ee9	-0.0175242
116	0x3d695a93	0.056971144
117	0xbe04b116	-0.12958178
118	0xbd29482c	-0.041328594
119	0x3e271eb0	0.163203
120	0x3e3de1e2	0.18543199
121	0xbc880f88	-0.016608968
122	0xbdb0f368	-0.08640176
123	0xbe39e7ab	-0.1815478
124	0x3c258eed	0.010104877
125	0x3dde7d26	0.10863714
126	0x3e2756e3	0.16341738
127	0x3e5ce5d0	0.21572042
128	0xbdf7a6d4	-0.12092367
129	0x3bb0523b	0.0053808964
130	0xbba989af	-0.005173884
131	0x3e443c44	0.19163615
132	0xbe015b28	-0.1263243
133	0x3d51326c	0.051073477
134	0x3d317a98	0.043329805
135	0x3d3e8e75	0.046522576
136	0xbded4a0a	-0.115863875
137	0x3e3067a3	0.17227034
138	0x3d999696	0.07499425
139	0x3e354f7e	0.17706105
140	0x3e5324c0	0.20619488
141	0xbe90a11d	-0.2824792
142	0xbd145121	-0.036210183
143	0x3d2e588c	0.042564914
144	0x3e39c271	0.1814058
145	0xbca456d6	-0.020060938
146	0xbe87ce71	-0.2652469
147	0xbdbe62f8	-0.092962205
148	0xbe166dad	-0.14690275
149	0x3b8c95ce	0.004290319
150	0x3e1769f9	0.14786519
151	0x3e14578b	0.1448652
152	0x3d8e185d	0.06938241
153	0x3e747f28	0.23876631
154	0x3e21e47e	0.15809819
155	0xbe46e3c8	-0.19422829
156	0xbdff6743	-0.124708675
157	0x3e091fde	0.13391063
158	0x3e21809e	0.1577172
159	0x3bd76031	0.006572746
160	0xbd393c46	-0.045223497
161	0xbe389cac	-0.18028516
162	0xbe30f9ba	-0.17282763
163	0xbeb1b70b	-0.34709963
164	0x3cef7c88	0.029234186
165	0x3e682374	0.22669774
166	0x3e6e4635	0.2326897
167	0xbccc0775	-0.0249059
168	0x3e65f3cf	0.22456287
169	0x3db5fc4e	0.08886014
170	0x3cfc822f	0.030823795
171	0xbc4d2fd2	-0.012523608
172	0xbe36d1dc	-0.17853492
173	0xbe617071	-0.22015549
174	0x3d7d599c	0.061853036
175	0x3e09c1f4	0.13452893
176	0x3e12c771	0.14333893
177	0x3d425b54	0.04745038
178	0xbe4c4cbd	-0.19951148
179	0xbdb54086	-0.088501975
180	0x3c3faae8	0.011698462
181	0x3bbd95e4	0.0057856906
182	0xbd0b3422	-0.033985265
183	0x3dc7fd03	0.09765055
184	0x3e6fb90f	0.23410438
185	0x3e53cb30	0.20682979
186	0xbd850231	-0.064945586
187	0x3e202983	0.15640835
188	0x3e0f9cae	0.14024612
189	0x3de562ed	0.11200509
190	0x3dcd73de	0.100318655
191	0xbdc81ac4	-0.0977073
192	0x3e22cca9	0.15898384
193	0x3ce2980e	0.027660396
194	0x3da29593	0.07938685
195	0x3d91fef7	0.07128709
196	0xbe06ae8d	-0.13152523
197	0x3d25e245	0.04049899
198	0x3e190c3d	0.14946075
199	0xbce7252c	-0.028215967
200	0x3e83d422	0.25747782
201	0x3e4d9538	0.20076454
202	0xbc51d4fe	-0.012807129
203	0x3d500526	0.05078616
204	0xbc0d9603	-0.008641723
205	0xbe26ef56	-0.16302237
206	0xbd7d6918	-0.061867803
207	0xbe277bff	-0.16355895
208	0x3e57431c	0.21021694
209	0x3d144e87	0.036207702
210	0x3d7ba185	0.061433334
211	0xbe9380c2	-0.28809172
212	0x3c6098ca	0.013708303
213	0xbda4c218	-0.08044833
214	0xbd31f4e6	-0.043446444
215	0x3e1cb165	0.15302046
216	0x3d4fbbcb	0.050716203
217	0xbd8e161a	-0.06937809
218	0x3dddf0f8	0.10836977
219	0x3e85f5c4	0.26164067
220	0x3e83ca9c	0.25740516
221	0xbe775f88	-0.24157536
222	0xbd6df82d	-0.058098007
223	0xbda07a5c	-0.07835838
224	0x3e859d62	0.26096636
225	0x3e2b359c	0.16719669
226	0x3e766138	0.24060524
227	0xbd0f8f4c	-0.035048768
228	0xbe077733	-0.13229065
229	0xbcfa97f6	-0.030590039
230	0x3d7ec2bb	0.06219743
231	0xbdbce064	-0.092224866
232	0xbe60e377	-0.21961771
233	0x3d5487a5	0.051887173
234	0x3d903c9c	0.0704281
235	0x3e863d74	0.2621876
236	0xbe723f48	-0.23656952
237	0x3e20037c	0.15626329
238	0x3e027cba	0.12742892
239	0x3e00bdc8	0.12572396
240	0x3e7b4e79	0.24541654
241	0xbd3d9d12	-0.046292372
242	0x3e487e20	0.19579363
243	0xbd0fc6a4	-0.035101548
244	0x3e9e141c	0.30874717
245	0xbdd67a6e	-0.1047257
246	0xbc499a80	-0.012304902
247	0x3e10d982	0.14145473
248	0x3c89e938	0.01683484
249	0x3e9940ca	0.29932243
250	0x3d9dcbf0	0.077049136
251	0x3b0d0a80	0.002152115
252	0x3e25959f	0.16170357
253	0x3df4d2a5	0.1195424
254	0x3e2bbaaf	0.16770433
255	0x3d140254	0.036135033

RNN.bias_ih_l0 f4 [200]
0	0x3bebcd2d	0.0071960897
1	0xbe15b482	-0.1461964
2	0xbd6c57c0	-0.057700872
3	0xbe6882c9	-0.2270614
4	0xbe6fa7f1	-0.23403908
5	0xbdc32e64	-0.09530333
6	0xbe824291	-0.2544141
7	0xbe61dfc5	-0.22058018
8	0xbe01fb3a	-0.12693492
9	0xbba91974	-0.005160505
10	0xbdc78e5b	-0.09743949
11	0xbb77f9aa	-0.003783802
12	0xbe12748d	-0.14302273
13	0xbe7036a9	-0.23458351
14	0x3d6b6c8b	0.05747656
15	0xbe01e3b0	-0.12684512
16	0x3d2cc833	0.042183112
17	0x3cb8cead	0.022559488
18	0xbe00d77a	-0.12582198
19	0x3df6a15b	0.12042495
20	0xbd41fa99	-0.04735813
21	0xbe6c108e	-0.2305319
22	0x3ceb76b9	0.028743135
23	0xbdb390d5	-0.08767859
24	0x3d07971c	0.033103094
25	0xbda2198d	-0.0791503
26	0xbe1ec549	-0.15504946
27	0x3cb3e164	0.02195806
28	0xbd931161	-0.07181049
29	0x3d5bde67	0.053678896
30	0xbe581020	-0.21099901
31	0xbd994b08	-0.07485014
32	0xbe303eb2	-0.17211416
33	0xbde8cb64	-0.11366919
34	0x3dbb467e	0.09144305
35	0xbe35d470	-0.1775682
36	0x3db44e0d	0.088039495
37	0xbd2d5bb8	-0.042323798
38	0x3d5f95ce	0.054586224
39	0x3d2ec876	0.042671643
40	0xbdcf539a	-0.101233676
41	0xbdccfb19	-0.100088306
42	0x3d18e68d	0.037329245
43	0xbddc1a34	-0.10747185
44	0xbe207d77	-0.15672861
45	0xbdb2f8cf	-0.08738863
46	0xbe876407	-0.26443502
47	0xbe4d8f4b	-0.20074193
48	0xbe11d740	-0.14242268
49	0xbdf59262	-0.11990811
50	0xbe170681	-0.14748575
51	0xbe457b46	-0.19285306
52	0x3c88597d	0.016644234
53	0xbe53aa6f	-0.20670484
54	0xbdaae8fb	-0.08345219
55	0xbdf3d34e	-0.119055375
56	0xbe537411	-0.20649745
57	0xbe75bd60	-0.23998022
58	0xbde0f70c	-0.109846205
59	0x3d4c09e9	0.04981414
60	0xbe742b56	-0.23844656
61	0xbe2d17bf	-0.1690359
62	0xbe36a3f1	-0.17835976
63	0xbe2264f5	-0.15858825
64	0xbdc20e50	-0.09475386
65	0x3db0409b	0.086060725
66	0x3d802ec7	0.06258922
67	0x3d5db190	0.054124415
68	0xbe42bdbe	-0.19017693
69	0xbe09ffba	-0.13476458
70	0xbe5129f1	-0.20426156
71	0xbe377a89	-0.17917837
72	0xbe49b3d2	-0.19697502
73	0xbda3c0ce	-0.07995759
74	0xbe2f4fce	-0.17120287
75	0x3d55e17a	0.052216984
76	0xbe8afadf	-0.27144524
77	0xbe6f13d8	-0.23347414
78	0xbe223119	-0.15839042
79	0xbc93a8e6	-0.018024873
80	0xbd986e66	-0.07442932
81	0xbdcde552	-0.10053505
82	0x3d4b6c92	0.049664088
83	0xbe1ee448	-0.1551677
84	0xbd926275	-0.071476854
85	0xbe58ba3e	-0.21164796
86	0xbdf5e16d	-0.12005887
87	0xbe27ae2e	-0.16375038
88	0xbe2d4153	-0.1691945
89	0xbe019145	-0.12653072
90	0xbe0054a8	-0.12532294
91	0xbe1f5226	-0.15558681
92	0xbe2d82c7	-0.16944419
93	0xbe4764fe	-0.19472119
94	0xbe20f40c	-0.15718096
95	0xbeb62206	-0.35572833
96	0xbca14a46	-0.019688737
97	0xbe3da202	-0.18518832
98	0xbe0b253d	-0.13588424
99	0xbe471922	-0.19443181
100	0x3b76db14	0.0037667202
101	0xbcad5825	-0.021160195
102	0x3ddce20d	0.10785303
103	0x3e146e9c	0.14495319
104	0xbd1e43b3	-0.03863878
105	0x3d0b270b	0.03397278
106	0xbd031770	-0.032004774
107	0xbdd98ce4	-0.10622576
108	0xbd6cc8f8	-0.057808846
109	0x3e114791	0.14187457
110	0xbddd8dd0	-0.10818064
111	0x3e27d286	0.16388902
112	0x3d637648	0.055532724
113	0x3ce59810	0.02802661
114	0xbd95d8b1	-0.07316721
115	0x3cdee12d	0.027206982
116	0x3dd09cab	0.10186132
117	0x3e0a6d33	0.13518219
118	0xbd46beec	-0.04852192
119	0xbe0574b8	-0.13032806
120	0x3d0c7f46	0.034301065
121	0xbe1fa033	-0.15588455
122	0xbd04fc3b	-0.03246711
123	0x3d12e357	0.03586134
124	0x3e15a939	0.14615335
125	0xbd6bac70	-0.057537496
126	0x3d95277e	0.07282923
127	0xbe354ee2	-0.17705873
128	0x3d374459	0.044742916
129	0xbdba5870	-0.09098899
130	0xbdf3e3a9	-0.11908657
131	0x3de2b619	0.110698886
132	0xbb789272	-0.0037929085
133	0x3df023c5	0.117255725
134	0x3dfd38ac	0.12364325
135	0x3e67a8ff	0.2262306
136	0x3d9ca17c	0.07647988
137	0xbdb594cb	-0.08866271
138	0xbda74c67	-0.081688695
139	0x3c80a455	0.01570336
140	0xbdbc2f73	-0.09188738
141	0x3e715e84	0.23571211
142	0x3e04cd50	0.12968946
143	0xbd533c43	-0.051571142
144	0x3c6b8369	0.014374592
145	0xbdc06fe8	-0.093963444
146	0x3dbc0188	0.091799796
147	0x3e0b0fcb	0.13580243
148	0x3d7159dc	0.058923587
149	0x3d505e30	0.050871074
150	0xbd9fbe23	-0.077999376
151	0xbdf6ca98	-0.120503604
152	0x3d0d792c	0.034539387
153	0xbe1d9b19	-0.15391196
154	0xbe880b5b	-0.26571164
155	0x3d27e371	0.04098839
156	0xbe618294	-0.22022468
157	0xbd50824e	-0.05090552
158	0xbda55bac	-0.08074126
159	0x3d36142c	0.04445283
160	0xbe1bf106	-0.15228662
161	0xbdbe71f5	-0.09299079
162	0xbe4ca9d8	-0.19986665
163	0xbe15026b	-0.14551704
164	0xbe011312	-0.12604931
165	0x3c60905d	0.013706294
166	0x3d466e3c	0.04844497
167	0xbe2eb182	-0.17059901
168	0xbe4be70c	-0.19912356
169	0x3c2dee10	0.010615841
170	0xbde4bebb	-0.111691914
171	0xbe8aab19	-0.27083662
172	0xbb9a2f8b	-0.0047053746
173	0xbe875e5e	-0.26439184
174	0xbe116f3a	-0.14202586
175	0xbe25e30c	-0.16199893
176	0x3cc89be7	0.024488403
177	0xbdacacb9	-0.08431382
178	0xbce15e2e	-0.027510729
179	0x3cf68ac0	0.030095458
180	0xbe3365d7	-0.17519318
181	0xbe3174ea	-0.17329755
182	0x3d8275f1	0.06370152
183	0xbdf7c051	-0.12097228
184	0x3c42f125	0.011898314
185	0xbe816c13	-0.25277767
186	0xbe341189	-0.17584814
187	0xbe281c72	-0.16417101
188	0xbdcd6d37	-0.10030597
189	0xbd609524	-0.05482973
190	0xbe04ff71	-0.12988068
191	0xbd78d519	-0.0607501
192	0x3da58f68	0.08083993
193	0xbd9e6a7e	-0.077351555
194	0xbc96e42a	-0.018419344
195	0xbe3c406e	-0.18383953
196	0xbd3c5c54	-0.04598649
197	0xbd960790	-0.07325661
198	0xbe3dee43	-0.18547921
199	0xbd6ac8b8	-0.057320327

RNN.bias_hh_l0 f4 [200]
0	0xbd38e0d1	-0.045136277
1	0xbe21e8e2	-0.15811494
2	0xbe22930d	-0.15876408
3	0xbe500186	-0.20313081
4	0xbc9d08f9	-0.019169318
5	0xbe007774	-0.12545568
6	0xbe85bd89	-0.26121166
7	0xbe357592	-0.17720631
8	0x3c2a5496	0.010396143
9	0xbd6fff5e	-0.058593147
10	0xbd9b7388	-0.07590395
11	0x3da52a5a	0.080647185
12	0xbcde8790	-0.02716425
13	0xbeb6cfa4	-0.35705292
14	0x3cf322c8	0.02967967
15	0x3d4b593c	0.049645647
16	0xbe0c06df	-0.13674496
17	0xbd1cba5a	-0.038263656
18	0xbd6257a2	-0.055259354
19	0x3d1f7a31	0.03893489
20	0x3ceaae02	0.028647427
21	0xbd3b0024	-0.04565443
22	0x3d1813cc	0.037128255
23	0xbdc85282	-0.09781362
24	0x3c14c34c	0.0090797655
25	0x3ca1502c	0.01969155
26	0xbde20b28	-0.11037284
27	0x3b4d3144	0.0031309882
28	0xbdb866db	-0.09003993
29	0x3d352b0e	0.044230513
30	0xbe895208	-0.26820397
31	0xbcea3ef0	-0.028594464
32	0xbcebfea0	-0.028807938
33	0xbdb160aa	-0.08661015
34	0xbe1125fc	-0.14174646
35	0xbe1b8771	-0.15188386
36	0xbda9bc9e	-0.08287929
37	0x3d20825c	0.03918682
38	0xbe1412cc	-0.14460295
39	0xbe0722ca	-0.13196865
40	0xbe0c4159	-0.13696803
41	0xbe2dc190	-0.1696837
42	0x3b36fda8	0.0027922187
43	0xbe08bfd0	-0.1335442
44	0x3c6bd3f8	0.014393799
45	0xbe2687cb	-0.16262738
46	0xbe5d1876	-0.21591362
47	0xbe197475	-0.14985831
48	0xbe285f48	-0.16442597
49	0xbe50a683	-0.20376019
50	0xbe1c473f	-0.15261553
51	0xbe72742a	-0.23677126
52	0xbd23e569	-0.040013704
53	0xbe756eb0	-0.23968005
54	0xbd9aab11	-0.075521596
55	0xbc34c465	-0.011033152
56	0xbcd3a404	-0.025835045
57	0x3c6bc3cd	0.014389944
58	0xbe1be2c6	-0.15223226
59	0xbe02e864	-0.12783962
60	0xbd6b5d0d	-0.057461787
61	0xbd99ca55	-0.07509295
62	0xbe8afb9d	-0.2714509
63	0xbea73604	-0.32658398
64	0x3d2fa220	0.042879224
65	0xbe082ffa	-0.13299552
66	0xbcc3af40	-0.023887277
67	0xbe462b71	-0.19352509
68	0xbc824535	-0.015902141
69	0x3b9d5b71	0.0048021604
70	0x3cd3913a	0.025826085
71	0xbe16615f	-0.14685582
72	0xbd078771	-0.03308815
73	0xbcf558b9	-0.029949533
74	0xbe4ea3fe	-0.20179746
75	0xbe2ad468	-0.16682589
76	0xbe75cd06	-0.24003991
77	0xbd01e9f3	-0.031717252
78	0xbe6396fe	-0.22225568
79	0xbe376437	-0.17909323
80	0xbea06136	-0.31324166
81	0xbe1af962	-0.15134194
82	0xbd3823f9	-0.04495618
83	0xbe7ae822	-0.24502614
84	0xbdefb487	-0.11704355
85	0xbcb28ddc	-0.02179616
86	0xbdac0c2e	-0.084007606
87	0xbe21b067	-0.15789948
88	0x3ca357f6	0.019939404
89	0xbe66f596	-0.22554621
90	0xbe4093b8	-0.1880635
91	0xbd336d45	-0.04380538
92	0xbca28492	-0.019838605
93	0xbe4a73f3	-0.19770794
94	0xbaa2151e	-0.0012365913
95	0xbe976081	-0.29565814
96	0xbe003db5	-0.1252354
97	0xbd3f44bf	-0.04669642
98	0xbdf54802	-0.11976625
99	0xbd493c44	-0.04912974
100	0xbe0f0ba6	-0.13969287
101	0xbca566cd	-0.02019062
102	0x3dc634ed	0.096780635
103	0x3daad865	0.08342055
104	0x3e3e155f	0.1856284
105	0x3d3070c7	0.043076303
106	0xbe276389	-0.16346563
107	0x3c053369	0.008129933
108	0xbdd50140	-0.10400629
109	0xbd9a3a81	-0.0753069
110	0x3b8b0fa2	0.004243807
111	0x3d041749	0.03224877
112	0xbd81863f	-0.063244335
113	0x3c3746b4	0.0111862905
114	0x3dc4ed4c	0.09615573
115	0xbe218933	-0.15774994
116	0x3e50f54b	0.20406072
117	0x3dcdbe55	0.100460686
118	0x3da2a05b	0.07940742
119	0xbe5d3c21	-0.21604969
120	0xbcee4952	-0.029087696
121	0xbc37d494	-0.011220116
122	0xbdef3fd6	-0.116820976
123	0xbdd0813f	-0.10180902
124	0x3b25886e	0.002525832
125	0x3e0c43e2	0.1369777
126	0x3e0a98b3	0.13534813
127	0xbe3ce34c	-0.18446082
128	0xbdb1c3dc	-0.08679935
129	0x3e1c5bb1	0.15269352
130	0x3a80564b	0.0009791342
131	0xbbed1ca6	-0.007236081
132	0x3cda638c	0.026658796
133	0x3e46f499	0.19429244
134	0xbcd489e4	-0.025944658
135	0xbd2ede67	-0.04269257
136	0xbd4efbb8	-0.050533026
137	0x3de14ba3	0.11000755
138	0xbda5800d	-0.080810644
139	0x3dcd2318	0.10016459
140	0x3dc1729e	0.094456896
141	0x3df3108c	0.118683904
142	0x3dba2d66	0.0909069
143	0xbbaeb6f2	-0.0053318674
144	0xbd9e672f	-0.077345245
145	0xbe085381	-0.13313104
146	0xbd973697	-0.07383459
147	0x3db60a88	0.088887274
148	0x3bbab295	0.005697558
149	0xbb837215	-0.0040114024
150	0xbcffb2a8	-0.03121312
151	0xbce6143d	-0.028085822
152	0xbd63053e	-0.05542492
153	0xbd81c494	-0.063363224
154	0xbdae1014	-0.084991604
155	0xbd9a42c2	-0.07532264
156	0xbe4b0738	-0.19826972
157	0xbe73191b	-0.23740046
158	0xbe342f23	-0.17596106
159	0xbd28adc9	-0.04118136
160	0xbe5aea38	-0.2137841
161	0x3c2cdead	0.010551137
162	0xbd850646	-0.06495337
163	0xbe056041	-0.13024999
164	0xbd609080	-0.054825306
165	0xbcdd06ea	-0.026980836
166	0x3d1b3b74	0.037898496
167	0xbd073c0d	-0.033016253
168	0xbc80a1d8	-0.015702173
169	0xbda4348f	-0.08017837
170	0xbe22321e	-0.1583943
171	0xbd727f24	-0.059203282
172	0x3b29c3ee	0.0025904137
173	0xbe3eda3d	-0.18637939
174	0xbd5d66d3	-0.05405314
175	0xbe2e632e	-0.17030022
176	0xbb44198d	-0.0029922456
177	0xbe694771	-0.22781159
178	0xbbd734e2	-0.0065675834
179	0xbe2d58d1	-0.16928412
180	0xbe55c217	-0.2087482
181	0x3a9271d0	0.0011172835
182	0xbddfc3eb	-0.1092604
183	0xbe55d6f0	-0.20882773
184	0x3dd8b068	0.10580522
185	0xbe54d98d	-0.20786114
186	0xbbc648fc	-0.006051181
187	0xbc838b52	-0.016057644
188	0x3c41454c	0.011796307
189	0xbe462748	-0.19350922
190	0x3d7b33cd	0.061328698
191	0xbbfc76a2	-0.007704572
192	0xbe0e7c00	-0.1391449
193	0xbdee47a9	-0.11634762
194	0xbdb28512	-0.087167874
195	0xbe0db6dc	-0.13839287
196	0xbdaf443a	-0.08557935
197	0xbdef692f	-0.11689984
198	0xbdb07646	-0.08616309
199	0x3bc51850	0.006014861

RNN.weight_ih_l1 f4 [200, 50]
0	0x3d92d36c	0.07169232
1	0x3dc53b2d	0.096304275
2	0xbcaf8b5a	-0.021428753
3	0xbd5884a5	-0.052860875
4	0xbdf068c0	-0.117387295
5	0x3dbac053	0.09118714
6	0x3e3d362d	0.18477698
7	0x3e2e9b79	0.17051496
8	0x3d696bfd	0.05698775
9	0xbd0edec5	-0.03488042
10	0x3bcc05e7	0.0062262896
11	0xbe6e1ef7	-0.23254
12	0xbdca3d55	-0.098749794
13	0x3de9be4d	0.1141325
14	0xbcf96ab0	-0.03044638
15	0x396a66c0	0.00022354256
16	0xbe0dbc04	-0.13841254
17	0xbe3c80a9	-0.18408455
18	0xbdf59040	-0.11990404
19	0x3decde7e	0.115658745
20	0x3bf5c838	0.0075006746
21	0x3d7a3842	0.061088808
22	0x3e5d6e18	0.21624029
23	0x3de02788	0.1094504
24	0x3e985c04	0.29757702
25	0xbd3e565e	-0.046469085
26	0x3e6b692b	0.22989337
27	0xbdbe8954	-0.09303537
28	0x3dc6a1a7	0.096988015
29	0xbe505ea7	-0.20348607
30	0x3df58f18	0.119901836
31	0xbe5197bb	-0.20468037
32	0x3e0eb31b	0.13935511
33	0xbe5b634b	-0.21424596
34	0x3e114835	0.14187701
35	0x3c61fe96	0.013793608
36	0xbdb3b49f	-0.08774685
37	0xbd837a4f	-0.06419813
38	0x3e351e81	0.17687418
39	0xbe26b311	-0.16279246
40	0x3b671654	0.0035261111
41	0xbdb23b05	-0.08702663
42	0xbe12db24	-0.14341408
43	0xbdecd655	-0.11564318
44	0x3e65108b	0.22369592
45	0xbd1ea710	-0.038733542
46	0xbdc2b64d	-0.09507427
47	0xbd9a4726	-0.07533102
48	0xbb905667	-0.004404831
49	0x3e5ff396	0.21870264
50	0x3db5be3e	0.088741764
51	0x3d32c1d1	0.04364187
52	0x3cbdce3b	0.023169627
53	0x3da3e964	0.080035
54	0xbdc5635a	-0.096380904
55	0xbe4ccbb3	-0.1999958
56	0xbd45c411	-0.048282687
57	0x3d2f0318	0.04272756
58	0xbd13f76b	-0.036124628
59	0x3d2d459d	0.042302717
60	0xbd81ca1d	-0.06337378
61	0x3bdb519c	0.006693078
62	0xbe26c515	-0.16286118
63	0xbde5aecb	-0.1121498
64	0x3d849840	0.06474352
65	0x3dc0cbf1	0.09413899
66	0x3e26c501	0.16286089
67	0xbdf8c143	-0.12146237
68	0xbd953a84	-0.072865516
69	0x3b19c8ac	0.0023465557
70	0x3d988f9d	0.07449267
71	0xbd21c2e3	-0.0394925
72	0xbded50e3	-0.115876935
73	0x3e133744	0.14376551
74	0xbdfcf8c0	-0.12352133
75	0x3d8b35a7	0.06797343
76	0x3d755e5f	0.059904452
77	0x3de4ec0d	0.111778356
78	0x3c22fada	0.009947503
79	0xbd816e1f	-0.06319832
80	0x3ce63486	0.028101217
81	0x3d310588	0.043218166
82	0xbe09115c	-0.13385528
83	0xbdb164fe	-0.08661841
84	0x3e1e25c5	0.15444095
85	0xbce2ffdc	-0.027709894
86	0xbe0e0be8	-0.1387173
87	0x3d499bb8	0.04922077
88	0x3df2d12e	0.11856304
89	0x3dd220f9	0.10260195
90	0xbc38f079	-0.011287802
91	0xbe8321b6	-0.25611657
92	0x3e506ac5	0.2035323
93	0x3c55686b	0.013025383
94	0x3e2798be	0.1636686
95	0x3e2316a4	0.15926605
96	0xbe494a40	-0.1965723
97	0x3e0c3fd3	0.13696222
98	0xbd7594ab	-0.059956234
99	0xbe203e79	-0.15648831
100	0xbc55701b	-0.013027216
101	0x3da96f9e	0.082732424
102	0xbc765ba7	-0.0150365
103	0xba941024	-0.0011296314
104	0xbe29fdce	-0.16600725
105	0x3d0a90a7	0.033829357
106	0x3d851082	0.06497289
107	0x3da82a77	0.082112245
108	0xba1e6024	-0.0006041548
109	0x3db621cc	0.08893165
110	0xbd1753f2	-0.03694529
111	0xb9c9e98c	-0.00038511714
112	0xbdd16460	-0.10224223
113	0xbe09cbaf	-0.13456605
114	0x3c8113b8	0.015756473
115	0xbca350f2	-0.019936059
116	0xbe00cd84	-0.12578398
117	0xbdbc6c9c	-0.09200403
118	0xbe1842e6	-0.1486927
119	0x3d93e65f	0.07221674
120	0x3ce8506a	0.028358657
121	0x3e6c3ac2	0.2306929
122	0xbcc94f2e	-0.024573889
123	0x3d613698	0.054983705
124	0xbd8db2d0	-0.069188714
125	0xbc1f7c3c	-0.00973421
126	0xbd2e475c	-0.042548522
127	0x3e0d3677	0.13790308
128	0x3bff2ae5	0.007787096
129	0xbda3fdaf	-0.08007371
130	0x3e2b5e3d	0.16735168
131	0xbcdcd138	-0.026955232
132	0x3bc7a14e	0.006092227
133	0x3d47a66e	0.048742704
134	0xbdc63b1b	-0.09679242
135	0xbe9fe9e3	-0.3123313
136	0xbdd29496	-0.10282247
137	0x3d367c3d	0.044552077
138	0xbceddfa0	-0.029037297
139	0x3d0b7bf6	0.034053765
140	0x3d467116	0.04844769
141	0xbe05a5fe	-0.13051602
142	0xbd78fc58	-0.06078753
143	0xbcb17034	-0.021659948
144	0x3d04dfc4	0.032439962
145	0x3dfdac92	0.12386431
146	0xbdaf1207	-0.0854836
147	0xbe313fab	-0.17309444
148	0xbce64ef1	-0.028113814
149	0xbdcce210	-0.100040555
150	0x3e0f99c0	0.14023495
151	0x3cde0437	0.02710162
152	0xbcab58da	-0.020916391
153	0x3cb9fae6	0.022702646
154	0xbdd8e8bd	-0.10591266
155	0x3c845971	0.01615593
156	0x3dcf876d	0.10133252
157	0x3da0c4eb	0.07850059
158	0x3d5a8af2	0.053355165
159	0x3e28415e	0.16431186
160	0xbd40ae2c	-0.047041103
161	0x3dfa50f8	0.12222475
162	0xbd8abe11	-0.067745335
163	0x3e00d19a	0.12579957
164	0x3b7306ff	0.0037083027
165	0x3d35c0ac	0.0443732
166	0xbd7c600c	-0.061615035
167	0xbdcb452e	-0.09925304
168	0xbe1c4016	-0.15258822
169	0xbd27047d	-0.040775765
170	0xbb75e46e	-0.0037520188
171	0x3e5ed01f	0.2175908
172	0x3e050aed	0.12992449
173	0x3dce8f31	0.10085905
174	0xbe56ca5d	-0.20975633
175	0x3df4600e	0.119323835
176	0xbc8710e0	-0.016487539
177	0x3d2b43c4	0.041812673
178	0x3d9b8a35	0.0759472
179	0xbe0a262c	-0.13491124
180	0xbc3e7fa2	-0.01162711
181	0xbd1d66ec	-0.038428232
182	0xbe31466e	-0.17312023
183	0xbd67acb9	-0.056561206
184	0x3d0f86e0	0.035040736
185	0xbdf6416c	-0.12024197
186	0x3df0da73	0.11760416
187	0x3d87249a	0.06598778
188	0xbdb736cc	-0.089459985
189	0xbd03fde4	-0.03222455
190	0x3dc46eea	0.09591468
191	0xbe8a1f74	-0.26977122
192	0xbbdcd9a7	-0.0067398134
193	0x3d062d63	0.032758128
194	0xbe03872d	-0.12844534
195	0x3e30c22e	0.17261574
196	0xbe286dd4	-0.16448146
197	0xbe32a9d7	-0.17447601
198	0xbe3f28e2	-0.1866794
199	0xbd1c249d	-0.038120855
200	0x3d977544	0.073954135
201	0xbc8bbfc0	-0.017059207
202	0xbd91d38b	-0.07120427
203	0x3dc08cb2	0.094018355
204	0xbdefa715	-0.1170179
205	0x3df897d2	0.121383324
206	0x3d9d2216	0.07672517
207	0xbd723e88	-0.059141666
208	0x3db8fb71	0.09032334
209	0x3d5aa213	0.053377222
210	0xbd96a0f6	-0.073549196
211	0x3d9b374d	0.07578907
212	0x3dd504ce	0.10401307
213	0xbd27352c	-0.040822193
214	0xbd34ff85	-0.044188995
215	0xbdca9f37	-0.09893649
216	0x3da548f0	0.08070552
217	0x3da873e5	0.0822523
218	0x3d9c3f12	0.07629217
219	0x3d6855d7	0.05672249
220	0xbd0da77e	-0.03458356
221	0x3ccb905d	0.024849111
222	0xbd8516f2	-0.06498517
223	0x3e00aad3	0.12565164
224	0xbd930d20	-0.07180238
225	0x3c916760	0.017749488
226	0xbd057214	-0.032579497
227	0x3d826e7f	0.06368732
228	0xbdaff4bf	-0.085916035
229	0xbcb801d0	-0.022461802
230	0x3d7fae13	0.06242187
231	0xbe1f49f1	-0.1555555
232	0xbdccafc0	-0.09994459
233	0xbdca2fe5	-0.098724164
234	0xbdeba16a	-0.11505397
235	0x3d0b23f6	0.033969842
236	0x3df90af8	0.12160295
237	0x3d894c86	0.06704049
238	0xbdca57f1	-0.09880055
239	0x3c866113	0.01640371
240	0x3cb86bfb	0.022512427
241	0xbbc5dcda	-0.0060382904
242	0x3ce84c62	0.028356735
243	0xbddebe78	-0.10876173
244	0xbcaf7e99	-0.021422671
245	0xbda7e184	-0.081973106
246	0x3d741343	0.059588682
247	0x3d101d3d	0.035184134
248	0xbdd47c55	-0.10375277
249	0xbd834f99	-0.064116664
250	0x3d8313ec	0.06400284
251	0x3dbe1627	0.09281569
252	0xbd54ba54	-0.05193551
253	0x3dbab974	0.091174036
254	0x3d9fbce2	0.077996984
255	0xbe282d93	-0.16423635

RNN.weight_hh_l1 f4 [200, 50]
0	0x3e1d6dc4	0.15373904
1	0x3dee2379	0.116278596
2	0xbc9fa1c4	-0.019486316
3	0x3d44a33d	0.04800724
4	0xbdc84f33	-0.09780731
5	0xbc825f3c	-0.015914552
6	0xbb6b8854	-0.0035939412
7	0xbdaa7cfa	-0.08324619
8	0x3e033842	0.1281443
9	0xbde598f9	-0.11210818
10	0x3d01c279	0.031679604
11	0x3d50bd1b	0.050961595
12	0x3c9e31fa	0.01931094
13	0xbdc784bf	-0.09742116
14	0x3d66f7fb	0.056388836
15	0x3df67907	0.12034803
16	0xb9cd1d80	-0.00039122626
17	0x3cb1b711	0.021693738
18	0x3e12c7b0	0.14333987
19	0x3db6bbef	0.08922564
20	0xbc99ae54	-0.018759884
21	0xbd919a2c	-0.07109484
22	0xbd754c32	-0.05988712
23	0xbea252fe	-0.31703943
24	0x3da46467	0.08026963
25	0xbd2f0b16	-0.04273518
26	0x3c55904a	0.0130348895
27	0x3e047ecb	0.12938993
28	0xbd8cb54b	-0.068705164
29	0x3e165147	0.14679442
30	0xbca09a40	-0.019604802
31	0x3d948154	0.0725123
32	0x3d26cc7f	0.040722366
33	0x3e0b0a3c	0.13578123
34	0xbe1953c6	-0.14973363
35	0x3e20d7b8	0.1570729
36	0x3e145d53	0.14488725
37	0x3c507fb0	0.012725756
38	0xbd99e819	-0.07514972
39	0xbcc9c898	-0.024631783
40	0x3e441693	0.19149236
41	0x3de90e6f	0.11379706
42	0x3db95473	0.090493105
43	0xbcbe0c15	-0.02319912
44	0xbe7004aa	-0.23439279
45	0xbc23f01e	-0.010005979
46	0xbdc84d62	-0.097803846
47	0xbe4f3c7b	-0.20237915
48	0x3d0a27d6	0.033729397
49	0x3de15b94	0.11003795
50	0xbe65c91a	-0.22439995
51	0xbe1b1753	-0.15145616
52	0x3d185d63	0.037198436
53	0x3de91dcf	0.11382639
54	0x3d010dd4	0.03150733
55	0x3e096697	0.13418041
56	0xbdb2f503	-0.087381385
57	0x3d34aa7c	0.0441079
58	0xbdc3f882	-0.095688835
59	0xbd9ccc5e	-0.076561674
60	0xbd2e00a8	-0.042481095
61	0xbe1f0cbe	-0.15532205
62	0xbdc144f3	-0.09436979
63	0x3dfb4f2c	0.1227096
64	0xbdd09e46	-0.10186438
65	0x3e473886	0.19455156
66	0x3e45b03d	0.19305511
67	0xbe080b07	-0.13285457
68	0xbe4850dd	-0.19562097
69	0x3e055c0b	0.13023393
70	0x3e18ed5a	0.14934292
71	0x3b571df9	0.0032824262
72	0x3c8e5fc4	0.017379649
73	0x3e23ae4c	0.15984458
74	0x3df0be7a	0.117550805
75	0x3d773d0e	0.06036096
76	0x3e6ce869	0.23135532
77	0xbe08b799	-0.13351287
78	0xbce19f65	-0.027541826
79	0xbe57e9d9	-0.210853
80	0xbdaa6506	-0.0832005
81	0x3d806944	0.06270078
82	0xbd3a60fb	-0.045502644
83	0x3e467f13	0.19384412
84	0xbe82d17e	-0.25550455
85	0x3ea2fb8a	0.31832534
86	0x3d007a6d	0.031366754
87	0x3daddbbb	0.08489176
88	0xbdef578d	-0.11686621
89	0x3d3a48fc	0.04547976
90	0x3e2a9279	0.16657437
91	0x3d0e4bed	0.034740377
92	0x3df8b6d7	0.12144249
93	0xbe08b742	-0.13351157
94	0x3e911739	0.2833803
95	0xbe46735b	-0.19379942
96	0x3c77e462	0.015130134
97	0xbe350bb0	-0.1768024
98	0xbe52ce72	-0.20586565
99	0x3e2bee2f	0.16790079
100	0x3d898bba	0.06716104
101	0xbe112de7	-0.14177667
102	0xbd1bded7	-0.038054314
103	0xbca82511	-0.020525487
104	0xbe5a09c7	-0.21292792
105	0x3ba7abc0	0.0051169097
106	0xbe9ef828	-0.31048703
107	0xbdf237a5	-0.118270196
108	0x3e18785e	0.14889666
109	0xbde0d85c	-0.10978767
110	0xbc253713	-0.0100839315
111	0xbc9d5d8f	-0.019209651
112	0xbe62ae2b	-0.22136752
113	0xba2b1c98	-0.0006527393
114	0xbdbfe0dc	-0.093690604
115	0x3dcbb296	0.09946172
116	0x3d85c059	0.06530828
117	0xbe32361b	-0.17403452
118	0xbe2ddaa4	-0.16977936
119	0x3d84a059	0.064758964
120	0x3e278854	0.16360599
121	0x3dc92352	0.0982119
122	0x3e6e6382	0.23280147
123	0x3dc3c3cb	0.09558829
124	0xbce16aa2	-0.027516667
125	0xbd9059b1	-0.07048357
126	0x3d8c6dee	0.06856905
127	0x3c72b5ad	0.014813823
128	0xbd4f8fb0	-0.05067414
129	0x3d23e80e	0.040016226
130	0xbe62df26	-0.22155437
131	0x3c6d4d4a	0.014483759
132	0xbe614ef1	-0.2200277
133	0x3dac26da	0.08405848
134	0xbe5f4508	-0.21803677
135	0x3e0a2ff3	0.13494854
136	0x3dac00d5	0.08398596
137	0x3dd02c04	0.10164645
138	0xbcf82ea3	-0.030295676
139	0x3e3e3d09	0.1857797
140	0x3e4d52ca	0.20051113
141	0x3e447dd4	0.19188625
142	0x3e1dd26e	0.15412304
143	0xbd8a0912	-0.06740011
144	0x3e080d0f	0.13286231
145	0x3c1f4333	0.009720611
146	0xbe46e40b	-0.19422929
147	0xbd627139	-0.05528376
148	0xbd4758a0	-0.048668504
149	0xb9e1abf0	-0.00043043448
150	0x3df76f5b	0.12081786
151	0x3c78a037	0.015174917
152	0x3dacc4e3	0.08435991
153	0x3d40a243	0.047029745
154	0xbddd0aba	-0.107930616
155	0x3e57de93	0.21080999
156	0xbea4573b	-0.32097802
157	0xbcd29dc1	-0.025709989
158	0xbd82503b	-0.06362959
159	0x3caecc7f	0.021337746
160	0x3ca12e43	0.01967538
161	0xbd723112	-0.05912883
162	0xbc443ec2	-0.011977853
163	0x3d61ef41	0.05515981
164	0xbd4e88a4	-0.05042328
165	0x3e52fc56	0.20604071
166	0x3e90d844	0.28289998
167	0x3c1943ce	0.009354545
168	0xbb59a054	-0.0033207135
169	0x3e01638d	0.12635632
170	0x3c057752	0.008146124
171	0x3e40aacb	0.18815152
172	0x3e15d015	0.14630158
173	0x3e2b2c87	0.16716205
174	0xbc368996	-0.0111412015
175	0xbd596d9b	-0.053083044
176	0x3e31f09b	0.1737694
177	0xbde505d1	-0.1118275
178	0xbddc65a6	-0.107615754
179	0xbd843359	-0.06455106
180	0xbe09635f	-0.13416813
181	0x3e62b039	0.22137536
182	0xbe6824c1	-0.2267027
183	0x3d520c58	0.051281303
184	0xbe32b956	-0.17453513
185	0x3e890e65	0.26768795
186	0xbdc5ffa1	-0.09667898
187	0x3ddfdddd	0.10930989
188	0x3c8f7f9d	0.017516905
189	0xbcf33ac0	-0.0296911
190	0x3d511dcb	0.051053803
191	0x3e51ee04	0.20500952
192	0x3e292573	0.16518192
193	0xbdf607f9	-0.120132394
194	0xbd3b65b2	-0.04575128
195	0xbe173f2c	-0.14770192
196	0xbde20f07	-0.110380225
197	0xbd3ca23d	-0.04605316
198	0xbca7e6bf	-0.02049577
199	0x3e221a58	0.15830362
200	0x3de57c3c	0.112053365
201	0xbdc79b62	-0.09746434
202	0xbd034989	-0.03205255
203	0x3e1e1543	0.15437798
204	0xbdad4f85	-0.08462433
205	0xbc55fe4c	-0.013061117
206	0xbe097829	-0.13424744
207	0x3d84f359	0.064917274
208	0xbd03763f	-0.03209519
209	0xbe3bf7b1	-0.18356206
210	0x3e1e1129	0.15436234
211	0x3cd145a1	0.025545897
212	0xbe04c11a	-0.12964287
213	0xbd58d229	-0.0529348
214	0xbdb6ca35	-0.08925287
215	0x3e07671e	0.1322293
216	0x3d869c69	0.065728016
217	0xbe57fba4	-0.21092087
218	0xbce9d8d8	-0.028545782
219	0x3d183760	0.037162185
220	0x3d2b596c	0.041833326
221	0x3d025e50	0.031828225
222	0x3cfc52a8	0.030801132
223	0xbcdc7014	-0.026908912
224	0x3d423783	0.04741622
225	0xbe300a86	-0.17191514
226	0x3de46d83	0.111537
227	0xbe272a62	-0.16324762
228	0xbd8f5d04	-0.07000163
229	0x3c89290e	0.01674321
230	0xbe0df472	-0.1386278
231	0x3d7dd5f5	0.061971623
232	0xbdda3140	-0.10653925
233	0x3cb3155e	0.021860775
234	0xbe2fd7ee	-0.17172214
235	0x3e0d7ab3	0.13816337
236	0xbd6b9df7	-0.057523694
237	0x3e033b23	0.12815528
238	0xbe02f30e	-0.1278803
239	0xbc840c9c	-0.016119294
240	0x3cfa49ba	0.030552734
241	0x3e1d6bb2	0.15373114
242	0x3e21d10a	0.15802398
243	0xbdd88717	-0.10572641
244	0x3d99dec1	0.0751319
245	0xbdd49420	-0.10379815
246	0xbe0460d5	-0.12927563
247	0xbe52d26b	-0.2058808
248	0xbdaf57d9	-0.085616775
249	0x3dfb9b8d	0.12285528
250	0x3df5cb2c	0.120016426
251	0xbcbe28f7	-0.023212893
252	0x3e14f5b6	0.14546856
253	0x3d5dd980	0.054162502
254	0x3d45ded3	0.048308205
255	0xbd0f4db2	-0.034986205

RNN.bias_ih_l1 f4 [200]
0	0xbaee7e44	-0.0018195589
1	0xbddc9627	-0.10770827
2	0xbdb5ecb6	-0.0888304
3	0x3e02950c	0.1275217
4	0x3ddf7e99	0.109128185
5	0x3c8de5fa	0.017321575
6	0xbcbcda84	-0.023053415
7	0xbd2eb71e	-0.042655103
8	0xbe6dda0f	-0.23227714
9	0x3d8d7758	0.06907529
10	0xbd955747	-0.072920375
11	0xbda92290	-0.082585454
12	0x3bb8df4e	0.0056418544
13	0xbd82fe2b	-0.06396135
14	0xbdb6bc04	-0.0892258
15	0xbd1cc705	-0.038275737
16	0xbe50baab	-0.20383708
17	0xbe1ef767	-0.15524064
18	0xbdc7c517	-0.09754389
19	0xbe220028	-0.15820372
20	0x3e0dce84	0.1384831
21	0xbb53fe28	-0.0032347534
22	0xbe0d25e9	-0.13783993
23	0xbe3e1622	-0.1856313
24	0x3ddf53e1	0.109046705
25	0xbd016927	-0.03159442
26	0xbd506a76	-0.05088278
27	0x3c8794f1	0.016550513
28	0x3dab3f47	0.083616786
29	0xbe17477b	-0.14773361
30	0x3dd59349	0.10428483
31	0x3dcbda90	0.09953797
32	0xbbc0f137	-0.00588813
33	0xbe1761cd	-0.14783402
34	0xbdb34c61	-0.087548025
35	0xbdb09688	-0.086224616
36	0x3d1c2ea6	0.038130425
37	0xbe7012cd	-0.23444672
38	0x3e282414	0.16420013
39	0x3d251cd9	0.040310714
40	0x3e7528ba	0.23941317
41	0x3ca26c15	0.019826928
42	0x3d4b8aae	0.049692802
43	0xbdc81ec4	-0.09771493
44	0xbe057a9e	-0.13035056
45	0xbd02bbbc	-0.03191732
46	0x3da3c90a	0.079973295
47	0x3d908ebf	0.07058477
48	0xbe2a6ecb	-0.16643827
49	0x3d7f9d2c	0.06240575
50	0xbe61c5b6	-0.22048077
51	0xbe40e09d	-0.18835683
52	0xbd97dea3	-0.074155115
53	0x3caf95e7	0.021433784
54	0xbd86dcc9	-0.0658508
55	0xbd8c133d	-0.06839607
56	0xbdf3669b	-0.11884805
57	0xbe2b470a	-0.16726318
58	0xbdbbe4d6	-0.09174506
59	0xbe2d3262	-0.16913751
60	0xbdadd7b7	-0.0848841
61	0xbcc5efdc	-0.024162225
62	0x3d8e9fe3	0.0696409
63	0xbc9930a4	-0.018699951
64	0xbe63c4f7	-0.22243105
65	0xbe45153a	-0.19246379
66	0xbd8cbd05	-0.0687199
67	0xbe142bb6	-0.144698
68	0xbe7f887a	-0.24954405
69	0xbe265f4f	-0.16247295
70	0xbd9da8e5	-0.0769823
71	0xbdbf5217	-0.09341829
72	0xbd902a2d	-0.070392944
73	0xbe34f92b	-0.17673175
74	0x3d07514b	0.03303651
75	0x3cb365ae	0.02189907
76	0xbe3ae9f4	-0.18253309
77	0xbc2a56f4	-0.010396708
78	0xbda5ec2d	-0.081016876
79	0xbdd4873c	-0.103773564
80	0x3983fbc6	0.00025173853
81	0x3d8b9481	0.06815434
82	0x3e1d3fe2	0.153564
83	0xbd3866eb	-0.045020025
84	0xbe1af7da	-0.1513361
85	0xbe7be18c	-0.24597758
86	0xbdb2dcea	-0.08733542
87	0xbde501c6	-0.11181979
88	0xbd4663e3	-0.048435103
89	0xbe183716	-0.14864764
90	0xbd2beff4	-0.041976884
91	0xbe39e562	-0.18153909
92	0xbd47ddc3	-0.048795473
93	0xbbf4e89f	-0.0074740197
94	0xbe80b577	-0.25138447
95	0xbe110521	-0.14162113
96	0xbe05eff3	-0.13079815
97	0x3d84e332	0.064886466
98	0xbe931f03	-0.28734598
99	0x3d4a81ab	0.049440067
100	0xbe2027ff	-0.15640257
101	0x3d5b3937	0.05352136
102	0xbe62a925	-0.22134836
103	0xbe841468	-0.2579682
104	0x3e66ef25	0.22552164
105	0xbe0490cc	-0.1294586
106	0x3d6369c8	0.055520803
107	0x3e46ed26	0.19426402
108	0x3d7216cd	0.059103776
109	0x3e56d6b6	0.20980343
110	0x3c1b4ea4	0.009479199
111	0x3e250dc7	0.16118537
112	0xbdd7e9bf	-0.105426304
113	0xbe342988	-0.17593968
114	0xbe10d519	-0.1414379
115	0xbe67922b	-0.22614352
116	0xbe39af63	-0.18133311
117	0x3dbe199d	0.09282229
118	0xbcf9fd00	-0.030516148
119	0xbd03731c	-0.0320922
120	0xbe97c39b	-0.29641423
121	0xbe6f7381	-0.23383905
122	0xbdbebbb7	-0.093131475
123	0xbdbe5d73	-0.09295168
124	0xbe68333f	-0.22675799
125	0x3e220857	0.15823494
126	0xbd8ece12	-0.069728985
127	0x3e6d7380	0.23188591
128	0x3e4e0e1a	0.20122567
129	0xbd335c89	-0.04378942
130	0x3e58b84f	0.21164058
131	0xbe097e44	-0.13427073
132	0x3e728657	0.23684059
133	0xbdf97f58	-0.12182492
134	0xbd8a65b4	-0.067576796
135	0xbd92e129	-0.07171852
136	0xbc0a2bf0	-0.008433327
137	0xbdfbd85f	-0.12297129
138	0x3e81fa0c	0.25386083
139	0xbe646294	-0.2230323
140	0xbe8baaff	-0.27278897
141	0xbe626a05	-0.22110756
142	0xbc9018dc	-0.017589979
143	0x3db75ce1	0.08953262
144	0x3d0cfec0	0.034422636
145	0xbd5a0812	-0.053230353
146	0x3e52387d	0.20529361
147	0x3e8809ef	0.2657008
148	0x3cf9f7f4	0.030513741
149	0xbe33b5c6	-0.1754981
150	0xbd9ca27a	-0.076481774
151	0x3db5f348	0.08884293
152	0xbd5d6f44	-0.05406119
153	0xbc86a29d	-0.016434962
154	0xbe095d35	-0.13414462
155	0x3d91d345	0.071203746
156	0xbe1528f1	-0.14566399
157	0x3ca1fc8c	0.019773744
158	0xbd55740c	-0.052112624
159	0xbd966158	-0.073427856
160	0xbd7d5afd	-0.06185435
161	0xbdff248b	-0.12458142
162	0xbe009659	-0.12557353
163	0xbe0990f8	-0.13434207
164	0xbe93ba2f	-0.28852984
165	0xbddc31b7	-0.1075167
166	0xbdfaf828	-0.12254363
167	0xbde23ede	-0.11047147
168	0xbe5e4bdb	-0.21708624
169	0xbc958163	-0.018250173
170	0x3dcabf9c	0.09899828
171	0xbe25833a	-0.1616334
172	0xbd976a11	-0.073932774
173	0xbeb4aab2	-0.3528648
174	0x3d8efd19	0.06981868
175	0xbd616f46	-0.05503776
176	0xbd4399a8	-0.04775396
177	0xbe280db1	-0.16411473
178	0xbcbe8773	-0.023257947
179	0xbe5668c9	-0.2093841
180	0x3d86fed5	0.06591574
181	0xbbe2d3ff	-0.0069222446
182	0x3e0e1965	0.13876875
183	0xbe15d9c1	-0.14633848
184	0xbe8f9c1e	-0.28048795
185	0xbd8e1789	-0.06938083
186	0xbe04bab5	-0.12961848
187	0xbe47f63d	-0.19527526
188	0x3d9c0bfa	0.07619472
189	0x3d563e9a	0.052305795
190	0x3e07e01f	0.13269089
191	0xbe33d221	-0.17560627
192	0xbe174845	-0.14773662
193	0x3d221aa0	0.039576173
194	0x3c3f4764	0.011674736
195	0xbdffb07c	-0.124848336
196	0x3d891092	0.06692614
197	0xbd7b7848	-0.061394006
198	0xbd667a0d	-0.05626874
199	0xbdcc9979	-0.0999021

RNN.bias_hh_l1 f4 [200]
0	0xbe6f834f	-0.23389934
1	0xbaad372b	-0.0013215294
2	0xbd2bfac6	-0.041987203
3	0x3d85ae14	0.065273434
4	0x3e07f007	0.13275157
5	0x3dc61782	0.096724525
6	0xbe739c79	-0.23790158
7	0xbd1918d0	-0.03737718
8	0xbbf8a990	-0.007588573
9	0xbb581c6c	-0.0032975925
10	0x3b3270e8	0.0027227942
11	0x3c20dafa	0.009817833
12	0x39a570a0	0.00031555165
13	0xbd02e469	-0.03195611
14	0xbe51b9bb	-0.20481007
15	0x3db34bee	0.08754717
16	0xbdf48d48	-0.1194101
17	0xbd54a93d	-0.05191921
18	0xbe443748	-0.19161713
19	0xbe15567c	-0.14583772
20	0x3b2e7f84	0.0026626298
21	0x3db9491a	0.09047146
22	0xbdd6117e	-0.10452555
23	0xbeb35ea0	-0.3503313
24	0xbe027f11	-0.12743784
25	0xbddc0321	-0.10742784
26	0xbdfad02e	-0.122467384
27	0xbd26505c	-0.04060398
28	0x3e40d092	0.18829563
29	0xbe24f91a	-0.1611065
30	0x3cdaabd7	0.026693268
31	0xbce70cf3	-0.028204417
32	0x3e2d355a	0.16914883
33	0x3d20a0e4	0.039215937
34	0xbe90e4fa	-0.28299695
35	0xbe3143bf	-0.17311
36	0xbe42e165	-0.19031294
37	0xbe717447	-0.23579513
38	0x3de92dc2	0.11385681
39	0x3d9578ab	0.07298406
40	0x3c36ddf3	0.011161315
41	0xbe1cd9b5	-0.15317424
42	0x3d3c6925	0.04599871
43	0x3d2e11a1	0.04249728
44	0xbe38c206	-0.18042764
45	0xbe7a98b3	-0.24472313
46	0xbe271afe	-0.1631889
47	0x3dc551c8	0.09634739
48	0xbe589cde	-0.2115359
49	0x3e4a0bea	0.19731107
50	0xbda1166a	-0.07865603
51	0xbe180897	-0.14847027
52	0xbe329492	-0.17439488
53	0xbe1d8928	-0.15384352
54	0x3db90424	0.09033993
55	0xbe30b931	-0.17258145
56	0xbe70aa59	-0.23502482
57	0x3d648c37	0.05579778
58	0xbe399d30	-0.18126369
59	0xbe223600	-0.15840912
60	0xbe19d31f	-0.15021943
61	0xbe08c00a	-0.13354507
62	0x3dc2cb83	0.09511473
63	0x3d24e4d5	0.040257294
64	0x3b9fe5c7	0.0048796865
65	0x3cffdb77	0.031232579
66	0xbdebb655	-0.115093865
67	0xbdcc9db4	-0.09991017
68	0xbe33ea85	-0.17569931
69	0xbe097b42	-0.13425925
70	0x3c9185dc	0.017764024
71	0x3d0392b9	0.032122348
72	0x3d503bc1	0.050838236
73	0xbe83f112	-0.2576986
74	0x3d4b37ee	0.049613886
75	0xbdd21278	-0.10257429
76	0xbdb03f5e	-0.08605836
77	0xbce3f639	-0.027827369
78	0x3cb335bc	0.021876208
79	0xbe1e716d	-0.15472956
80	0xbcb7001a	-0.022338916
81	0xbdb5ee9f	-0.08883404
82	0xbd2fa24a	-0.04287938
83	0x3d03bb15	0.032160837
84	0xbd9f1cc5	-0.07769159
85	0xbdcef7b3	-0.101058386
86	0xbe02688c	-0.12735194
87	0xbdfe18f5	-0.12407104
88	0xbda1a2cc	-0.07892379
89	0x3c5cad2e	0.013469024
90	0x3d93e088	0.0722056
91	0x3d87de71	0.06634224
92	0x3d26eb5f	0.04075181
93	0xbe752c54	-0.23942691
94	0xbe83accf	-0.2571778
95	0xbd8ae161	-0.06781269
96	0x3b034110	0.0020027794
97	0xbe279b0c	-0.1636774
98	0xbe859e10	-0.26097155
99	0x3d22f4d1	0.039784256
100	0xbe1cb1d1	-0.15302207
101	0x3e4c178a	0.19930854
102	0xbe3360bb	-0.17517368
103	0xbd6cdcf2	-0.057827897
104	0x3e6acdbf	0.22930048
105	0xbe150d6d	-0.14555903
106	0x3d670cd4	0.05640872
107	0x3e4be98a	0.19913307
108	0xbe2f9fee	-0.17150852
109	0x3c4ddeab	0.012565295
110	0xbe6181f0	-0.22022223
111	0x3e9953c1	0.29946712
112	0xbd4e437d	-0.05035733
113	0xbdf0e887	-0.11763101
114	0xbd741ad4	-0.059595898
115	0xbc20de41	-0.009818614
116	0xbdc8602d	-0.09783969
117	0x3e01f1e8	0.12689936
118	0xbe0306c6	-0.12795553
119	0xbe3e48dc	-0.18582481
120	0xbd828845	-0.063736476
121	0xbddc9bbf	-0.10771894
122	0xbe20b14f	-0.15692638
123	0x3d90112f	0.070345275
124	0xbe7b34b1	-0.24531819
125	0x3e7d5967	0.24741136
126	0xbe77a256	-0.2418302
127	0x3bb9eba9	0.005673845
128	0x3e13e994	0.14444572
129	0x3e271c8c	0.16319484
130	0x3e9465a8	0.28983808
131	0xbdfd3a6c	-0.12364659
132	0x3e8d1d19	0.27561262
133	0xbe1fa37a	-0.15589705
134	0x3e395c1b	0.18101542
135	0xbbae72f7	-0.0053237635
136	0x3d45bb6f	0.048274454
137	0x3bb132d9	0.005407673
138	0x3e1d4c84	0.1536122
139	0xbe8194d0	-0.25308847
140	0xbe993337	-0.29921886
141	0xbce6657a	-0.02812456
142	0xbe2073bb	-0.15669148
143	0x3db3f659	0.087872215
144	0x3e4b4808	0.19851696
145	0xbdfcc2f7	-0.12341874
146	0x3df7c893	0.12098803
147	0x3e3f329f	0.18671654
148	0xbd8c78a5	-0.068589486
149	0xbe6ae7b9	-0.22939958
150	0xbd69607a	-0.056976773
151	0x3ce99205	0.02851201
152	0xbe092a23	-0.1339498
153	0xbe1aef0e	-0.15130255
154	0x3d4cb182	0.049973972
155	0x3b82cf4e	0.003991998
156	0xbe260d31	-0.1621597
157	0xbda675a2	-0.081279054
158	0x3c8be16a	0.01707526
159	0x3db3cae7	0.08778935
160	0xbde1193f	-0.109911434
161	0x3d8aadad	0.06771407
162	0xbce526b0	-0.02797255
163	0x3c180769	0.0092791105
164	0xbe230fcc	-0.15923995
165	0xbdf1c403	-0.118049644
166	0x3cf0ced9	0.029395508
167	0xbce97b8b	-0.028501293
168	0xbd3a6abf	-0.045511957
169	0xbcb596c2	-0.022166613
170	0xbd67d569	-0.05660001
171	0xbcaade63	-0.020857995
172	0x3da44f31	0.08022917
173	0xbdf617f3	-0.12016287
174	0x3c33c281	0.010971666
175	0xbc6948f3	-0.014238584
176	0xbe0a28be	-0.13492104
177	0xbd65eb46	-0.056132577
178	0x3dd0f9e9	0.102039166
179	0xbe0904c7	-0.13380729
180	0x3a984eb8	0.001162014
181	0xbdddda3a	-0.10832639
182	0x3d34afb8	0.04411289
183	0xbde10267	-0.10986786
184	0xbd0eee90	-0.03489548
185	0xbe91cc6a	-0.28476268
186	0x3b5fa783	0.0034126944
187	0xbdabf01e	-0.08395408
188	0x3da1b7b2	0.07896365
189	0x3d5df552	0.054189034
190	0x3d20354e	0.039113335
191	0xbe26ace3	-0.16276889
192	0x3c331fb8	0.010932855
193	0xbe42cc08	-0.19023144
194	0xbe6a6680	-0.22890663
195	0xbe77147e	-0.24128911
196	0x3bb61d8a	0.0055577205
197	0x3dbe9b63	0.093069814
198	0xbe21506c	-0.15753335
199	0xbd8fd017	-0.07022112
