saved_models/model_Beef_5_02_2_50model.pt (torch, 129947 bytes, 12 tensors)

Controller.fc.weight f4 [1, 51]
0.112025775 0.07532838 -0.029266363 0.11224621 -0.040874824 0.081995025 -0.054879796 0.07849771
0.08841326 -0.09362663 0.16297923 0.020460848 0.1522073 0.06235912 0.021643514 -0.0678682
0.069230765 -0.012060158 -0.06775795 0.05566497 -0.06890766 0.0063521853 -0.03875143 0.10184565
-0.07411173 -0.16062269 0.029148968 -0.17503645 0.022002619 -0.13446862 0.051544867 -0.17023277
0.10360782 0.044216953 -0.08997494 0.03628868 0.05134461 0.11148405 -0.04553767 -0.045088597
0.051581323 -0.035037894 0.11655089 0.15696491 0.053135075 0.02636291 0.018106606 -0.009973254
0.065087125 -0.116838574 -0.15077616
00000000: c56d e53d c445 9a3d 03c0 efbc 57e1 e53d
00000010: 5c6c 27bd 02ed a73d a3c9 60bd 68c3 a03d
00000020: 0312 b53d 52bf bfbd 07e4 263e 829d a73c
00000030: 3bdc 1b3e 476c 7f3d bd4d b13c 7cfe 8abd
00000040: dcc8 8d3d f897 45bc aec4 8abd f400 643d
00000050: 761f 8dbd fe25 d03b d2b9 1ebd 7494 d03d
00000060: e4c7 97bd 467a 24be d1c9 ee3c c13c 33be
00000070: d63e b43c 24b2 09be b620 533d 8051 2ebe
00000080: 5630 d43d d61c 353d c844 b8bd 70a3 143d
00000090: ba4e 523d c051 e43d b585 3abd d2ae 38bd
000000a0: f046 533d e583 0fbd 3cb2 ee3d 69bb 203e
000000b0: 2aa4 593d 08f7 d73c 4e54 943c dc66 23bc
000000c0: 664c 853d 1049 efbd 1165 1abe

BaselineNetwork.fc.weight f4 [1, 51]
-0.017810382 0.09116387 0.12764674 0.1465321 -0.03628225 0.07362833 0.19818936 -0.18724674
0.092765845 -0.1797118 0.051679637 -0.12876932 0.04260857 0.049460713 0.12471318 -0.09570052
-0.12191558 -0.16513361 0.21670602 0.0046525775 0.22386453 -0.1967804 -0.2287365 -0.19062544
-0.013307843 0.026922112 0.03977248 0.08705481 -0.15772079 -0.14800173 0.054108568 -0.030676309
0.0072206394 0.05371369 0.099225156 -0.17869882 -0.15931927 -0.04416985 0.0046656565 0.054952413
0.16819847 0.17788321 -0.03023136 -0.15659496 0.07531475 -0.04615434 -0.026743218 -0.21178585
0.011974362 0.10743667 -0.09191784
00000000: 14e7 91bc 20b4 ba3d d4b5 023e 830c 163e
00000010: b29c 14bd 73ca 963d 27f2 4a3e 9cbd 3fbe
00000020: 05fc bd3d 5f06 38be 07ae 533d 1bdc 03be
00000030: 5386 2e3d 5197 4a3d a069 ff3d a2fe c3bd
00000040: e0ae f9bd c918 29be 2fe8 5d3e a674 983b
00000050: be3c 653e cd80 49be e739 6abe 5133 43be
00000060: 2409 5abc c38b dc3c 78e8 223d cb49 b23d
00000070: 8f81 21be c48d 17be f2a0 5d3d e24c fbbc
00000080: 1d9b ec3b e302 5c3d 8f36 cb3d d3fc 36be
00000090: 9724 23be 72eb 34bd 5de2 983b c815 613d
000000a0: 383c 2c3e 0427 363e c2a7 f7bc 6e5a 20be
000000b0: 9f3e 9a3d 550c 3dbd 9814 dbbc 64de 58be
000000c0: 1d30 443c c207 dc3d 6c3f bcbd

RNN.weight_ih_l0 f4 [200, 1]
0.053720795 -0.011106993 -0.115326226 -0.1664109 -0.090557665 -0.07810406 0.21230981 -0.017719937
0.13260636 -0.16394728 -0.0117756305 -0.08442156 0.06941808 -0.053341813 -0.019621518 -0.04892523
-0.057445846 -0.052037932 -0.026626829 -0.10207883 -0.099864684 -0.016481563 -0.08107522 -0.08359061
0.16782898 -0.12025696 0.15026972 0.010244064 -0.08888727 0.009881409 0.051592715 -0.09029713
-0.13634335 -0.17989178 0.023324389 0.046859495 0.085956976 -0.14522345 0.17323785 -0.19297327
0.06717524 0.056638114 0.1563744 0.1315552 0.2112253 -0.06759988 0.030276993 -0.0037487552
-0.1119523 -0.10307119 0.18786362 -0.025448546 0.04532655 0.040191863 0.07514246 -0.09940441
0.18979475 0.08959778 0.09790293 -0.1412437 0.11666971 -0.07419939 -0.008520861 0.19245753
0.07760017 -0.05046363 -0.10755171 0.05335121 0.056933034 -0.06548994 -0.094614804 0.014650193
-0.13338101 0.05332808 0.15155417 -0.22383502 0.08685613 0.08114457 0.014309224 -0.11763358
0.15740757 0.042382397 0.03717577 -0.054500774 -0.05295115 0.09689097 -0.030194636 -0.025090476
0.14722635 0.10378549 0.06844147 0.0022833599 0.075335234 0.05668867 0.0561422 0.091619454
-0.10427587 0.0061932034 0.09406306 0.071900465 -0.073087335 -0.17306212 -0.07489662 -0.21326372
-0.097077444 0.062105574 0.07636644 0.15596773 -0.21933487 -0.13318998 0.052794352 0.14819701
0.021030318 0.018330794 0.14695412 -0.076669544 -0.15874662 0.10046652 -0.037493333 -0.010031369
-0.22746667 0.03632996 0.13083711 0.08103706 -0.094877176 -0.2310651 -0.079659216 0.14201963
0.106886834 0.21342151 -0.017682485 0.08911853 0.03884537 -0.1524387 -0.11232831 -0.11807157
0.14570549 -0.06557702 -0.11595005 -0.16703828 -0.11069677 -0.08724308 -0.012754425 0.007714203
-0.08604482 0.05422421 -0.12518314 -0.13897468 0.066651754 -0.07351855 0.007154771 -0.048988115
0.08728862 -0.1872854 0.10402359 0.07862073 0.17385207 -0.15179658 0.191375 -0.09707256
0.13454203 0.09833892 0.027483623 0.0704094 0.009047383 -0.08152519 0.010097044 -0.13924111
0.07085569 0.09852793 0.13463876 0.0325101 -0.14802843 0.060460325 0.12865444 -0.23311059
-0.006327158 -0.117819875 0.019237705 -0.15757985 0.03282243 -0.08185002 -0.15469246 0.07617611
0.10118802 0.055357255 0.016347807 -0.086417556 -0.05876993 -0.22723551 0.14456889 -0.05102305
-0.0066711837 -0.0033867732 0.035238426 -0.0016858288 -0.0040607974 0.0292065 -0.14496535 -0.06532048
00000000: 560a 5c3d 1bfa 35bc 2830 ecbd 9e67 2abe
00000010: 4c76 b9bd 05f5 9fbd be67 593e 6729 91bc
00000020: f6c9 073e cce1 27be 93ee 40bc 36e5 acbd
00000030: 112b 8e3d f27c 5abd 4ebd a0bc d265 48bd
00000040: 564c 6bbd ba25 55bd 8220 dabc b50e d1bd
00000050: db85 ccbd 5804 87bc c40a a6bd 8e31 abbd
00000060: 5cdb 2b3e 4849 f6bd 4ee0 193e b8d6 273c
00000070: 870a b6bd a2e5 213c e252 533d b4ed b8bd
00000080: 979d 0bbe 8d35 38be ca12 bf3c beef 3f3d
00000090: 360a b03d 75b5 14be 4365 313e c99a 45be
000000a0: 2c93 893d 5efd 673d 9c20 203e 68b6 063e
000000b0: 724b 583e ce71 8abd 7507 f83c adad 75bb
000000c0: 3f47 e5bd fd16 d3bd 525f 403e 7879 d0bc
000000d0: 55a8 393d 39a0 243d 4ae4 993d 8a94 cbbd
000000e0: 8e59 423e 0a7f b73d 5581 c83d 30a2 10be
000000f0: 87f0 ee3d daf5 97bd 159b 0bbc 9613 453e
00000100: d7ec 9e3d f4b2 4ebd 1244 dcbd cc86 5a3d
00000110: 9d32 693d 971f 86bd 68c5 c1bd 5d07 703c
00000120: 0895 08be 8b6e 5a3d 0431 1b3e 0235 65be
00000130: a0e1 b13d 202f a63d 3c71 6a3c e0e9 f0bd
00000140: 732f 213e 2a99 2d3d 9f45 183d 343c 5fbd
00000150: 4ee3 58bd c66e c63d be5a f7bc 8b8a cdbc
00000160: 81c2 163e 7d8d d43d 0b2b 8c3d 6ca4 153b
00000170: 5c49 9a3d 6132 683d 5df5 653d fba2 bb3d
00000180: 968e d5bd 5bf0 ca3b 22a4 c03d 8d40 933d
00000190: d0ae 95bd 3237 31be 6663 99bd ce61 5abe
000001a0: 8ad0 c6bd 6a62 7e3d 0266 9c3d 01b6 1f3e
000001b0: 5299 60be f462 08be e43e 583d f5c0 173e
000001c0: c647 ac3c 762a 963c 247b 163e ec04 9dbd
000001d0: 798e 22be 64c1 cd3d 9c92 19bd 9c5a 24bc
000001e0: 06ed 68be b9ce 143d 2afa 053e c2f6 a53d
000001f0: f74e c2bd 549c 6cbe 5f24 a3bd 986d 113e
00000200: 7ce7 da3d 2b8b 5a3e dcda 90bc c783 b63d
00000210: 531c 1f3d e418 1cbe 630c e6bd 82cf f1bd
00000220: d233 153e 3f4d 86bd 3877 edbd 150c 2bbe
00000230: fdb4 e2bd 80ac b2bd f0f7 50bc 6dc7 fc3b
00000240: 4438 b0bd 351a 5e3d 0230 00be 614f 0ebe
00000250: b780 883d e590 96bd 9272 ea3b c3a7 48bd
00000260: 60c4 b23d bec7 3fbe 520a d53d e803 a13d
00000270: 4706 323e 9070 1bbe cff7 433e facd c6bd
00000280: 63c5 093e ea65 c93d 5625 e13c ce32 903d
00000290: 7a3b 143c aef6 a6bd 126e 253c 3995 0ebe
000002a0: ca1c 913d 03c9 c93d bede 093e 5029 053d
000002b0: c494 17be 3fa5 773d fdbd 033e 8bb4 6ebe
000002c0: 0c54 cfbb 8c4b f1bd 6498 9d3c 9d5c 21be
000002d0: d070 063d fca0 a7bd b367 1ebe 3802 9c3d
000002e0: aa3b cf3d 4abe 623d d6eb 853c b0fb b0bd
000002f0: bdb8 70bd 6db0 68be de09 143e 8cfd 50bd
00000300: f299 dabb a0f4 5dbb 2b56 103d 07f7 dcba
00000310: 7010 85bb 7842 ef3c cc71 14be bec6 85bd

RNN.weight_hh_l0 f4 [200, 50]
-0.05818758 0.16629481 -0.089420184 -0.023162242 -0.05162269 -0.02568723 0.19437642 0.11151125
-0.08296688 0.025744447 0.11258779 -0.03922056 0.1458299 0.07615395 -0.053346455 0.063480675
-0.13294202 -0.094347715 0.13830917 0.11126722 -0.09030906 -0.054088946 -0.066510186 -0.165353
-0.14575152 -0.056215383 0.03873242 0.09450215 -0.13314131 -0.09273116 0.1158096 -0.08497685
-0.011226261 0.03279137 -0.10080358 -0.049454466 -0.01322135 -0.03123291 0.0109604 -0.17380334
-0.031449053 -0.146474 0.08839249 -0.005097556 -0.06292496 0.09368292 0.09288681 0.059788737
0.18304385 0.040506363 -0.11202192 0.028840505 0.05664398 -0.09783843 -0.14372125 0.12390324
0.010309924 0.00602944 -0.12461455 -0.023916088 0.038211904 0.1193865 0.077097684 -0.12939215
-0.09517132 -0.02558181 0.10686379 0.072566524 -0.0679171 -0.0018239575 -0.19056831 -0.016811777
0.05389733 0.06416331 0.089567795 -0.20475024 0.058604877 -0.024891086 0.0454076 0.19212061
0.022863552 0.16095647 -0.08384102 -0.07922617 0.06064252 -0.06654891 0.05464743 -0.06030941
0.053113926 -0.013252404 0.04705116 -0.12765484 -0.15681688 0.03264637 0.031217817 -0.030244652
-0.037932385 0.027159002 0.017815169 -0.025951825 -0.050175484 -0.14732094 -0.11415678 -0.027788818
-0.057439487 0.06046363 -0.09235621 -0.070188105 0.11832477 0.06534708 0.12336705 -0.079268575
-0.074072324 0.08576212 -0.08181842 -0.104686834 0.010649277 -0.04528772 -0.122214146 0.06673866
0.14994575 0.0021967941 -0.04242126 -0.11553363 -0.022470789 0.015639449 0.08838675 -0.027238822
-0.041881688 0.064436376 -0.13178378 0.07450329 -0.06478693 0.019545265 -0.0093869595 0.044960693
-0.05164112 0.17105311 -0.07936616 0.13573259 0.08751165 -0.042634964 -0.08192516 0.09408081
0.09756495 -0.13572574 -0.06084509 -0.115474306 -0.10234434 0.04366814 0.10709736 0.009174002
-0.018086368 0.057113107 0.07108464 -0.064926445 0.06095227 0.1027737 0.024571648 -0.07346763
0.06532385 -0.080869965 -0.03874205 -0.123043835 0.16304825 0.09305116 0.1518296 0.04059803
0.07888454 -0.045146737 -0.110182546 0.0549647 -0.100993074 -0.06400865 -0.12271256 -0.049651295
0.09295982 -0.028273694 -0.051844284 -0.012534978 -0.10677573 -0.1195826 0.049463373 0.0025036968
0.15513763 0.06009589 0.11715062 0.054174356 0.011598474 -0.051951524 0.0013080891 0.0172286
0.06451894 0.10311853 -0.04805703 -0.07132444 0.04030199 -0.14461249 0.04983174 0.13067959
0.12660389 0.10163528 -0.13816102 -0.06805765 -0.03966191 -0.06266855 0.0058854087 -0.08130718
0.07807147 -0.14019951 -0.120219044 -0.12029892 0.13969079 -0.15268557 0.07168455 0.025444662
-0.049792334 0.07377697 0.020121917 0.12217926 0.14049748 -0.090589814 0.08715358 -0.0037639914
0.026510078 -0.014286356 0.0040742224 -0.036122553 -0.048426498 0.1624658 0.12976873 0.02592085
-0.1134222 -0.027114948 -0.12951463 0.10963986 -0.046680383 0.050721094 -0.048266374 -0.00980542
0.13301834 -0.016007675 0.043383718 0.14264315 0.15111622 -0.012253877 -0.019264646 0.0638271
-0.035200395 0.032519516 -0.010075387 -0.12462452 0.07914738 0.02634285 0.07559491 0.13393883
00000000: 1a56 6ebd 3049 2a3e ee21 b7bd bebe bdbc
00000010: 5072 53bd 076e d2bc 9d0a 473e 0360 e43d
00000020: 8aea a9bd 05e6 d23c 6d94 e63d bda5 20bd
00000030: 6f54 153e 9af6 9b3d d081 5abd 2802 823d
00000040: f421 08be 6039 c1bd eba0 0d3e 11e0 e33d
00000050: f5f3 b8bd 5f8c 5dbd 7e36 88bd 4c52 29be
00000060: e33f 15be 1a42 66bd e3a5 1e3d 588a c13d
00000070: 3256 08be d6e9 bdbd 952d ed3d 5808 aebd
00000080: 5aee 37bc 3e50 063d 1b72 cebd c490 4abd
00000090: 5c9e 58bc 29dc ffbc 4093 333c 81f9 31be
000000a0: b9d0 00bd 48fd 15be 1f07 b53d 6609 a7bb
000000b0: cdde 80bd d5dc bf3d 713b be3d 09e5 743d
000000c0: d96f 3b3e 00ea 253d c06b e5bd ec42 ec3c
000000d0: 8503 683d 845f c8bd aa2b 13be fbc0 fd3d
000000e0: f5ea 283c 9c92 c53b ea35 ffbd aceb c3bc
000000f0: 1684 1c3d e980 f43d 64e5 9d3d 607f 04be
00000100: 2ee9 c2bd f290 d1bc 67db da3d c29d 943d
00000110: 1f18 8bbd dc11 efba 5724 43be dab8 89bc
00000120: 72c3 5c3d 0e68 833d 526f b73d 0caa 51be
00000130: ab0b 703d 64e8 cbbc 52fd 393d 44bb 443e
00000140: 584c bb3c c6d1 243e d7b4 abbd 5541 a2bd
00000150: 4b64 783d cc4a 88bd fcd5 5f3d 0007 77bd
00000160: fd8d 593d 9c20 59bc b8b8 403d f3b7 02be
00000170: 9b94 20be 33b8 053d 82bc ff3c a2c3 f7bc
00000180: fd5e 1bbd 8e7c de3c 1ef1 913c ec98 d4bc
00000190: cf84 4dbd 4ddb 16be 08cb e9bd 60a5 e3bc
000001a0: ab45 6bbd b6a8 773d 4125 bdbd c8be 8fbd
000001b0: 4254 f23d b1d4 853d dda7 fc3d 9057 a2bd
000001c0: 3bb3 97bd 0da4 af3d 6a90 a7bd 0d66 d6bd
000001d0: 4e7a 2e3c 9e7f 39bd 694b fabd 47ae 883d
000001e0: 618b 193e 17f8 0f3b eac1 2dbd e59c ecbd
000001f0: a914 b8bc 4d1e 803c 1d04 b53d f323 dfbc
00000200: 228c 2bbd 38f7 833d 54f2 06be 2e95 983d
00000210: 03af 84bd 641d a03c c3cb 19bc b428 383d
00000220: a485 53bd 8c28 2f3e ba8a a2bd 7cfd 0a3e
00000230: 4f39 b33d 00a2 2ebd 61c8 a7bd 71ad c03d
00000240: 22d0 c73d b0fb 0abe b338 79bd cb7d ecbd
00000250: e999 d1bd 5ddd 323d dc55 db3d 8e4e 163c
00000260: dd29 94bc 6fef 693d d394 913d 28f8 84bd
00000270: 16a9 793d 057b d23d 7b4a c93c 3276 96bd
00000280: 83c8 853d 279f a5bd fcaf 1ebd 68fe fbbd
00000290: 1ff6 263e 9b91 be3d 3879 1b3e 1f4a 263d
000002a0: 388e a13d c9eb 38bd 63a7 e1bd aa22 613d
000002b0: 75d5 cebd f816 83bd b950 fbbd 285f 4bbd
000002c0: b861 be3d 3c9e e7bc ac5a 54bd 825f 4dbc
000002d0: 3cad dabd b9e7 f4bd 1b9a 4a3d 1015 243b
000002e0: 66dc 1e3e 1c27 763d aaec ef3d eee5 5d3d
000002f0: 8707 3e3c 1fcb 54bd 3074 ab3a fe22 8d3c
00000300: 8222 843d cf2f d33d 73d7 44bd 8c12 92bd
00000310: b313 253d 4c15 14be 5e1c 4c3d dfd0 053e
00000320: 73a4 013e 2826 d03d 157a 0dbe cf61 8bbd
00000330: 8774 22bd 5e58 80bd 63da c03b 6184 a6bd
00000340: efe3 9f3d 7690 0fbe 6735 f6bd 485f f6bd
00000350: 1a0b 0f3e 9b59 1cbe 59cf 923d 5371 d03c
00000360: 0cf3 4bbd 6118 973d b8d6 a43c 1f39 fa3d
00000370: 92de 0f3e 2787 b9bd 937d b23d 4cad 76bb
00000380: aa2b d93c 5211 6abc 0e81 853b 3ef5 13bd
00000390: dd5a 46bd 6f5d 263e 18e2 043e f657 d43c
000003a0: e649 e8bd 2b20 debc 7c9f 04be dd8a e03d
000003b0: ee33 3fbd ecc0 4f3d f6b2 45bd eaa6 20bc
000003c0: f635 083e 8722 83bc 20b3 313d 0c11 123e
000003d0: 36be 1a3e 7cc4 48bc e4d0 9dbc c8b7 823d
000003e0: 4a2e 10bd 2f33 053d 3c13 25bc 243b ffbd
000003f0: 0618 a23d f6cc d73c 81d1 9a3d 4327 093e

RNN.bias_ih_l0 f4 [200]
-0.010236822 -0.0156262 -0.0027940585 -0.10812946 -0.13268167 -0.11375717 -0.141447 -0.09572426
-0.0699536 0.053759456 -0.037677906 -0.036922827 -0.08452222 -0.058674388 0.13466108 -0.12583931
0.117405295 -0.0039135637 -0.06769164 0.08125732 0.082413815 -0.13980214 0.13952097 0.03305391
0.077676326 0.04513736 -0.15210865 0.099393494 0.01309113 0.13504843 -0.05838463 0.052769106
-0.1213498 -0.013293004 0.101571985 -0.04821583 0.18650587 0.024114104 0.07079699 0.17351466
-0.040825978 -0.056671634 0.016820267 -0.0795017 -0.18427114 0.0181663 -0.15799862 -0.07294343
0.016187102 4.9359165e-05 -0.1410502 -0.057781734 0.114360586 -0.071691684 0.04700686 0.015303348
-0.07298572 -0.1453362 0.04960167 0.12767394 -0.1362663 -0.14210036 -0.06159284 0.029148076
-0.010575093 0.16679496 0.14999846 0.06025174 -0.0779441 -0.098313294 -0.051332165 -0.09170504
-0.07789101 0.09583562 -0.015161511 0.19369343 -0.21487059 -0.15480933 0.005689868 0.061372608
0.067988396 0.002371503 0.13003425 -0.027071912 -0.0064724665 -0.06991482 -0.014417446 -0.0856856
-0.108359486 -0.010097266 -0.108784206 -0.15140887 -0.14546618 -0.16905671 -0.0023805103 -0.18809944
0.09207307 -0.0070776762 0.006500829 -0.09025565 0.0805285 -0.123529 0.0052010138 0.01104881
-0.14870451 0.0075722244 0.10903629 -0.0068669664 -0.064301066 0.15310156 -0.07705831 0.11360113
0.065317325 0.011963744 -0.07705276 0.03729598 0.041814227 0.039432555 -0.13265662 -0.038283274
-0.015289996 -0.0943059 0.039232038 0.0892016 0.059661847 -0.12765601 0.030005833 -0.024006575
0.08212812 -0.11581277 -0.11585496 0.05486979 -0.008702434 0.010073674 0.12554537 0.07855545
0.12104817 -0.09933114 -0.029151734 -0.06627335 -0.16707729 0.08281724 0.030222625 -0.053461943
0.030087722 -0.007074071 0.09553403 0.0013884613 -0.022425327 0.06325052 -0.08578288 0.012334723
0.052973658 -0.03543458 -0.16637018 0.022691268 -0.10508438 0.06367976 -0.0054449216 0.10764855
-0.08589394 -0.09808938 -0.15161018 0.0322046 -0.0402119 0.021349732 0.12528998 -0.17982554
-0.13670295 -0.0031752777 0.027093634 -0.17907804 0.106870145 -0.14067097 -0.093872 -0.03409624
0.0066679744 -0.0040895427 0.062830985 0.123800136 -0.02234051 -0.056438155 0.11429453 -0.0077540786
0.030670894 -0.1267122 -0.072610885 -0.097277954 -0.071990326 0.074721605 -0.06949585 -0.010012666
0.05897091 -0.05022009 -0.043562464 -0.07167955 0.058413826 0.05561617 -0.025230791 0.056920044
00000000: 58b8 27bc 8402 80bc 861c 37bb fa72 ddbd
00000010: b4dd 07be 85f9 e8bd 7bd7 10be 150b c4bd
00000020: d543 8fbd e032 5c3d 2654 1abd 643c 17bd
00000030: fc19 adbd 8e54 70bd 98e4 093e 05dc 00be
00000040: 3072 f03d 5a3d 80bb eaa1 8abd 3d6a a63d
00000050: 93c8 a83d 4b28 0fbe 96de 0e3e 8963 073d
00000060: c414 9f3d f4e1 383d 5fc2 1bbe d18e cb3d
00000070: 2e7c 563c 234a 0a3e b924 6fbd 6b24 583d
00000080: 3e86 f8bd e6ca 59bc f904 d03d f67d 45bd
00000090: 65fb 3e3e f18a c53c 03fe 903d d4ad 313e
000000a0: 2439 27bd 8420 68bd a8ca 893c cad1 a2bd
000000b0: 93b1 3cbe 7ed1 943c 64ca 21be 5d63 95bd
000000c0: d09a 843c 0007 4f38 776f 10be 8aac 6cbd
000000d0: e235 ea3d 17d3 92bd 448a 403d e5ba 7a3c
000000e0: 8a79 95bd 03d3 14be 1f2b 4b3d f5bc 023e
000000f0: 6589 0bbe c282 11be c648 7cbd f2c7 ee3c
00000100: 2843 2dbc 4ccc 2a3e 3299 193e 87ca 763d
00000110: 28a1 9fbd 7b58 c9bd ad41 52bd dacf bbbd
00000120: 5285 9fbd 7745 c43d fc67 78bc 9257 463e
00000130: 0907 5cbe 5686 1ebe 1272 ba3b d861 7b3d
00000140: 803d 8b3d 386b 1b3b b327 053e eac5 ddbc
00000150: fc16 d4bb 802f 8fbd 2737 6cbc ef7b afbd
00000160: 94eb ddbd 016f 25bc 41ca debd ed0a 1bbe
00000170: 16f5 14be 341d 2dbe 5602 1cbb 249d 40be
00000180: ce90 bc3d daeb e7bb e804 d53b f4d7 b8bd
00000190: 20ec a43d c6fc fcbd 446d aa3b 1106 353c
000001a0: ff45 18be 6c20 f83b 6b4e df3d 4a04 e1bb
000001b0: 47b0 83bd a8c6 1c3e bfd0 9dbd b6a7 e83d
000001c0: 17c5 853d 9403 443c d6cd 9dbd abc3 183d
000001d0: 6545 2b3d 0884 213d 23d7 07be ecce 1cbd
000001e0: e482 7abc 7423 c1bd c6b1 203d 54af b63d
000001f0: fb5f 743d 42b8 02be cbce f53c 70a9 c4bc
00000200: ca32 a83d 3f2f edbd 5e45 edbd 25bf 603d
00000210: a794 0ebc 0d0c 253c f78e 003e aee1 a03d
00000220: 1ae8 f73d 206e cbbd 9ecf eebc 52ba 87bd
00000230: 4f16 2bbe 169c a93d 7095 f73c e9fa 5abd
00000240: 877a f63c 9ccd e7bb 58a7 c33d 08fd b53a
00000250: 52b5 b7bc 7d89 813d efae afbd 9417 4a3c
00000260: e8fa 583d da23 11bd f25c 2abe 0ae3 b93c
00000270: 7b36 d7bd 896a 823d 506b b2bb d876 dc3d
00000280: 29e9 afbd 16e3 c8bd b33f 1bbe f8e8 033d
00000290: 3cb5 24bd a2e5 ae3c 044c 003e 3024 38be
000002a0: dcfb 0bbe 5218 50bb 78f3 dd3c 3c60 37be
000002b0: bcde da3d 0d0c 10be f73f c0bd 80a8 0bbd
000002c0: 067f da3b 9201 86bb 88ad 803d ed8a fd3d
000002d0: 7203 b7bc b22b 67bd 4013 ea3d ed15 febb
000002e0: 8741 fb3c d8c0 01be 04b5 94bd aa39 c7bd
000002f0: aa6f 93bd a407 993d d753 8ebd 2a0c 24bc
00000300: 7b8b 713d 95b3 4dbd 8e6e 32bd bacc 92bd
00000310: 5643 6f3d c8cd 633d ceb0 cebc fe24 693d

RNN.bias_hh_l0 f4 [200]
-0.06256919 -0.027544752 -0.10385725 -0.08419885 0.0821881 -0.14390951 -0.14824457 -0.05235043
0.06737747 0.0003268104 -0.016142372 0.047508165 0.031336285 -0.18114384 0.106864184 0.050651472
-0.061522786 -0.06473671 0.0028709932 -0.00023272028 0.15841937 0.045075364 0.1479061 0.022918869
0.053653017 0.14397919 -0.10743202 0.08056643 -0.0051383097 0.12560005 -0.11558953 0.09902479
0.021956459 0.01376603 -0.13161756 -0.022531508 0.0155870775 0.10562474 -0.12839219 -0.0011256048
-0.076560326 -0.12626705 -0.017716762 -0.105574094 -0.013148699 -0.05707248 -0.10947724 -0.022059828
-0.0058161914 -0.08380271 -0.14617997 -0.101699926 0.057702646 -0.104666896 0.05493746 0.12332558
0.10767667 0.10903395 0.0072156033 -0.049979836 0.044718467 -0.048157454 -0.15468398 -0.13884765
0.127058 -0.052261256 0.06352196 -0.1873978 0.09633069 0.04125344 0.17875545 -0.059382487
0.08599587 0.14584367 -0.045756076 -0.025349427 -0.18346524 0.046947557 -0.058175404 -0.09969573
-0.17082393 -0.048435405 0.03541399 -0.116930366 -0.052039165 0.11993697 0.02163383 -0.07983469
0.08077442 -0.10911274 -0.17152475 -0.03962743 0.0041393987 -0.17204346 0.15356383 -0.12802932
-0.013473569 0.13141425 0.022618804 0.055046447 -0.062931076 -0.12255943 -0.0058713984 -0.050483808
0.075562656 0.016675744 -0.02242456 0.10748874 -0.1104985 -0.06407988 0.03536614 -0.018039117
-0.053459752 -0.0048765824 0.09227021 -0.14766093 0.14401366 0.0047110673 -0.004727266 -0.12400493
-0.07867873 0.050358515 -0.045121834 -0.048468765 -0.08396567 0.06685917 0.092524715 -0.031408664
-0.049414128 0.12786976 0.00421076 -0.06306518 0.021749265 0.087110385 -0.024042552 -0.1903677
-0.0059647504 0.09933911 -0.028273683 0.018187901 0.019266974 -0.034210987 -0.0085599115 -0.0072226664
-0.061632134 -0.046241667 -0.07010037 -0.045526665 -0.07565136 0.008368066 -0.038996626 0.10475249
-0.03699064 0.055114172 0.014349936 -0.093619764 -0.08312942 -0.122815154 -0.100664735 0.022014381
-0.14739144 0.0054525207 -0.016696882 0.047471657 0.031012084 -0.019337397 0.11474349 -0.04224277
0.046718437 -0.09396949 -0.019608755 0.032555304 0.114165924 -0.06265854 -0.005899284 -0.04239753
-0.020812687 -0.14758731 0.083774135 -0.07557947 -0.055895526 0.11797667 -0.0586674 -0.09560954
0.12457783 -0.08179565 0.09718609 0.05083539 0.040111955 -0.06395788 0.12171354 0.04303286
-0.1610139 -0.08921616 -0.11231099 -0.026232883 0.018820964 0.011972919 0.07408532 0.12025523
00000000: 4724 80bd 88a5 e1bc 1cb3 d4bd 7270 acbd
00000010: 3c52 a83d 045d 13be 6dcd 17be 686d 56bd
00000020: 33fd 893d c057 ab39 023d 84bc ec97 423d
00000030: 7a5a 003d c57d 39be 9cdb da3d eb77 4f3d
00000040: 51ff 7bbd ae94 84bd 4627 3c3b 6006 74b9
00000050: b038 223e f2a0 383d b274 173e 5ac0 bb3c
00000060: 44c3 5b3d 486f 133e 5205 dcbd 0300 a53d
00000070: 445f a8bb 4d9d 003e 34ba ecbd 82cd ca3d
00000080: 08de b33c ea8a 613c c1c6 06be ff93 b8bc
00000090: f160 7f3c c951 d83d 3e79 03be 0889 93ba
000000a0: a9cb 9cbd 264c 01be be22 91bc 3b37 d8bd
000000b0: a46d 57bc d5c4 69bd 9a35 e0bd d0b6 b4bc
000000c0: c095 bebb c1a0 abbd 34b0 15be 0d48 d0bd
000000d0: 9c59 6c3d 995b d6bd 1a06 613d 1f92 fc3d
000000e0: 9685 dc3d 314d df3d de70 ec3b a8b7 4cbd
000000f0: b62a 373d c040 45bd 7a65 1ebe 142e 0ebe
00000100: 7e1b 023e e60f 56bd cd17 823d 35e5 3fbe
00000110: 0649 c53d 5ef9 283d ab0b 373e 0d3b 73bd
00000120: 9a1e b03d 0b58 153e b96a 3bbd 9aa9 cfbc
00000130: 50de 3bbe 154c 403d 5549 6ebd 462d ccbd
00000140: 78ec 2ebe 3464 46bd 430e 113d 3079 efbd
00000150: 0527 55bd 84a1 f53d 6e39 b13c 5f80 a3bd
00000160: 0f6d a53d 8076 dfbd 2fa4 2fbe 5f50 22bd
00000170: cba3 873b 292c 30be d63f 1d3e 1e1a 03be
00000180: 3fc0 5cbc 7591 063e 124b b93c 6278 613d
00000190: 02e2 80bd 7000 fbbd dc64 c0bb 1cc8 4ebd
000001a0: 98c0 9a3d 929b 883c b6b3 b7bc 0e23 dc3d
000001b0: 0a4d e2bd 503c 83bd 16dc 103d c5c6 93bc
000001c0: 9df8 5abd bdcb 9fbb 2af8 bc3d 6d34 17be
000001d0: 5178 133e 4c5f 9a3b 2ee7 9abb 4cf6 fdbd
000001e0: 5022 a1bd bb44 4e3d acd1 38bd 2f87 46bd
000001f0: 31f6 abbd 76ed 883d 997d bd3d 5fa6 00bd
00000200: 7866 4abd 4af0 023e 6afa 893b 5128 81bd
00000210: 842b b23c ee66 b23d e3f4 c4bc c0ef 42be
00000220: f473 c3bb 4e72 cb3d 369e e7bc cbfe 943c
00000230: c6d5 9d3c d220 0cbd df3e 0cbc 1eac ecbb
00000240: fa71 7cbd e767 3dbd c890 8fbd 2b7a 3abd
00000250: 1aef 9abd 361a 093c edba 1fbd 7988 d63d
00000260: 7f83 17bd 66bf 613d fe1b 6b3c b8bb bfbd
00000270: c23f aabd 8386 fbbd 5029 cebd 8157 b43c
00000280: c8ed 16be 0fab b23b e6c7 88bc a471 423d
00000290: 0e0d fe3c 7669 9ebc a3fe ea3d c106 2dbd
000002a0: d55b 3f3d 1373 c0bd 8aa2 a0bc b658 053d
000002b0: d3cf e93d 1f53 80bd c84e c1bb 08a9 2dbd
000002c0: 5e7f aabc 2121 17be c691 ab3d 69c9 9abd
000002d0: b5f2 64bd c19d f13d 3a4d 70bd efce c3bd
000002e0: a922 ff3d 7a84 a7bd 8009 c73d c538 503d
000002f0: 6f4c 243d 59fc 82bd f344 f93d 3943 303d
00000300: d4e0 24be f6b6 b6bd 4e03 e6bd 58e6 d6bc
00000310: 6c2e 9a3c 102a 443c 0bba 973d 6048 f63d

RNN.weight_ih_l1 f4 [200, 50]
0.016013557 0.057171024 0.09309736 0.111977905 0.025007844 0.087579906 0.020815065 0.006061049
-0.00556832 -0.05441598 -0.06917065 -0.18465477 -0.046313763 0.11829822 -0.060670044 -0.011123903
-0.0093355235 -0.13838226 -0.05485564 0.008273238 0.0026232684 -0.013341578 0.104123786 -0.0003192639
0.15525486 0.0027678218 0.022444637 -0.22879247 -0.039253384 -0.13153993 0.1224266 -0.13065122
0.07626856 -0.07178392 0.049825072 0.061542336 -0.08982294 0.027350996 0.14037022 0.06900385
0.032242406 0.038854163 -0.08816757 -0.07600069 0.15814434 0.11292758 -0.04454682 0.08190108
0.02897608 0.13871782 0.09159698 0.0445892 -0.072928585 0.0074741207 -0.16752532 -0.19738331
0.02741999 -0.06356382 -0.042454194 -0.030919991 -0.0010604728 0.09082532 0.006631559 -0.07455493
0.04703596 0.041827906 0.0797932 -0.10808437 -0.10006331 -0.04541388 0.007581328 -0.0030981996
-0.059450246 0.087250195 -0.16456828 0.0034170607 0.029988602 -0.015822837 0.011512684 -0.0072562285
-0.048696287 -0.064263895 -0.06607397 -0.15368465 0.06401643 0.08382483 -0.04682652 -0.015870187
0.11634705 0.017631613 -0.03571791 -0.112750486 0.09489324 0.11473036 0.16594839 0.13930847
0.07330726 0.074201584 -0.022413705 -0.013852299 -0.034051016 0.11955227 0.011941527 0.003214308
-0.06275318 0.060427006 -0.051332384 -0.02525076 -0.045152508 0.05851939 0.06881411 -0.03906803
-0.07283538 -0.11096293 0.09905082 0.00050923205 -0.107757784 -0.13432172 -0.16672064 0.04290667
0.025519319 0.13735503 -0.112426266 -0.030835032 0.026073629 -0.11161518 0.09191565 0.047107067
0.0337732 -0.038095314 0.09213476 -0.094754696 0.04745003 0.09396503 -0.08015281 -0.12885107
-0.13277388 0.07583894 -0.060563248 -0.0012072371 0.03855072 0.007449434 -0.070193514 0.03565858
0.16693541 0.0680614 -0.029677952 -0.09127602 0.14538006 -0.07903764 0.093920276 0.088161275
-0.057625823 0.09311826 -0.12359128 -0.0060486905 -0.030837921 -0.021774622 0.0863165 0.09970358
-0.09826338 0.12077287 -0.0753524 0.13432437 -0.0026470507 0.047185753 -0.08339823 -0.08280122
-0.10240835 -0.04493028 0.032863647 0.14009228 0.11357668 -0.014328973 -0.057357594 0.14344567
0.0746081 -0.056805976 0.01801607 -0.07838634 -0.041619133 -0.005322149 -0.08673233 -0.043041382
-0.0068779513 0.12797084 0.055882793 0.06067628 -0.10898113 -0.044255286 0.093383655 -0.1513164
-0.031248664 0.07479562 -0.06641676 0.13921438 -0.15527602 -0.027454201 -0.100014575 -0.05400168
0.04652388 0.022508044 -0.10202912 0.035604578 -0.1348576 0.15483436 0.1255123 0.038260892
0.055871997 0.0047039655 -0.14747792 0.14709774 0.13372271 -0.16451918 0.053685635 -0.13522401
0.06357062 0.07331933 0.07280247 0.026636407 -0.11409183 0.042527027 -0.068285674 0.12582272
-0.13646115 -0.06971935 -0.046090987 0.081590675 -0.06957595 0.059809484 0.09997057 -0.06684984
-0.019221853 -0.11688216 -0.15037814 0.05383982 0.19536537 0.0012885453 -0.13422465 -0.085052826
0.024339672 -0.0030309502 -0.01717252 -0.07294536 -0.007262078 -0.060143746 0.016045421 0.0025395034
-0.04658085 -0.16962785 0.06711469 0.040848583 -0.012365365 0.0701455 0.15929541 -0.09609906
00000000: dd2e 833c 2a2c 6a3d d4a9 be3d ac54 e53d
00000010: 40dd cc3c 185d b33d 5b84 aa3c c49b c63b
00000020: 7476 b6bb 4ae3 5ebd 57a9 8dbd 2416 3dbe
00000030: 80b3 3dbd 5646 f23d 2781 78bd 0841 36bc
00000040: 06f4 18bc 14b4 0dbe 4fb0 60bd 7a8c 073c
00000050: 24eb 2b3b a296 5abc da3e d53d e062 a7b9
00000060: 21fb 1e3e 5864 353b d1dd b73c 9348 6abe
00000070: 28c8 20bd 67b2 06be ccba fa3d 6fc9 05be
00000080: b132 9c3d 7303 93bd 6015 4c3d d113 7c3d
00000090: 17f5 b7bd 320f e03c 36bd 0f3e e451 8d3d
000000a0: 9d10 043d 8b25 1f3d 3391 b4bd 40a6 9bbd
000000b0: 97f0 213e 9346 e73d ba76 36bd c1bb a73d
000000c0: 3e5f ed3c 0b0c 0e3e 3397 bb3d 2aa3 363d
000000d0: 955b 95bd 78e9 f43b c28b 2bbe da1e 4abe
000000e0: e39f e03c c02d 82bd 73e4 2dbd ec4b fdbc
000000f0: 90ff 8aba a002 ba3d 8d4d d93b 41b0 98bd
00000100: c7a8 403d bd53 2b3d 9e6a a33d 575b ddbd
00000110: feed ccbd e803 3abd ca6c f83b 2a0b 4bbb
00000120: 1a82 73bd 3bb0 b23d 9684 28be c4f0 5f3b
00000130: a8aa f53c e59e 81bc b29f 3c3c a8c5 edbb
00000140: c275 47bd ca9c 83bd ca51 87bd 825f 1dbe
00000150: 0c1b 833d 5aac ab3d 2acd 3fbd 3202 82bc
00000160: 5d47 ee3d 2c70 903c f14c 12bd bae9 e6bd
00000170: 6357 c23d c0f7 ea3d 60ee 293e e1a6 0e3e
00000180: 1e22 963d 00f7 973d f29c b7bc c1f4 62bc
00000190: 1479 0bbd d2d7 f43d 65a6 433c 24a7 523b
000001a0: bd84 80bd 4f82 773d e841 52bd afda cebc
000001b0: d6f1 38bd 07b2 6f3d 69ee 8c3d cc05 20bd
000001c0: b72a 95bd 8840 e3bd 28db ca3d fc7d 053a
000001d0: 1db0 dcbd a28b 09be d1b8 2abe e8be 2f3d
000001e0: e40d d13c cca6 0c3e be3f e6bd c099 fcbc
000001f0: 5d98 d53c 8096 e4bd 463e bc3d 57f3 403d
00000200: c455 0a3d d509 1cbd 26b1 bc3d c00e c2bd
00000210: f65a 423d bd70 c03d 2827 a4bd 89f1 03be
00000220: e0f5 07be 7251 9b3d 2b11 78bd 283c 9eba
00000230: 5ce7 1d3d 621a f43b 9ec1 8fbd bb0e 123d
00000240: 1ef1 2a3e c663 8b3d 2d1f f3bc ecee babd
00000250: 83de 143e 7cde a1bd 4659 c03d e68d b43d
00000260: 0e09 6cbd c9b4 be3d 6d1d fdbd 1834 c6bb
00000270: cf9f fcbc b160 b2bc b5c6 b03d 6431 cc3d
00000280: 503e c9bd c457 f73d 5c52 9abd 548c 093e
00000290: 247a 2dbb d945 413d b1cc aabd b093 a9bd
000002a0: 78bb d1bd d008 38bd 089c 063d 5a74 0f3e
000002b0: e49a e83d 12c4 6abc ccef 6abd 6ce3 123e
000002c0: 22cc 983d 62ad 68bd 7096 933c 0489 a0bd
000002d0: d378 2abd 6c65 aebb b8a0 b1bd 294c 30bd
000002e0: 7060 e1bb ca0a 033e 5be5 643d b187 783d
000002f0: 8031 dfbd 0845 35bd ee3f bf3d b0f2 1abe
00000300: 33fd ffbc 722e 993d 8305 88bd 378e 0e3e
00000310: ad00 1fbe a2e7 e0bc 71d4 ccbd de30 5dbd
00000320: d38f 3e3d ca62 b83c a5f4 d0bd 1bd6 113d
00000330: 1c18 0abe e68c 1e3e 4c86 003e 74b7 1c3d
00000340: 09da 643d b923 9a3b 7404 17be caa0 163e
00000350: 9bee 083e b777 28be 78e5 5b3d 2a78 0abe
00000360: 5031 823d 7228 963d 7619 953d 9834 da3c
00000370: faa8 e9bd d230 2e3d 5cd9 8bbd acd7 003e
00000380: 79bc 0bbe 05c9 8ebd e7c9 3cbd 0319 a73d
00000390: d67d 8ebd cafa 743d 5fbd cc3d 92e8 88bd
000003a0: 2677 9dbc ea5f efbd bafc 19be 2587 5c3d
000003b0: dc0d 483e 68e4 a83a 3072 09be 2d30 aebd
000003c0: fe63 c73c e8a2 46bb 62ad 8cbc 6064 95bd
000003d0: baf6 edbb 4a59 76bd b071 833c cc6d 263b
000003e0: 90cb 3ebd ecb2 2dbe 6d73 893d d850 273d
000003f0: 1a98 4abc 72a8 8f3d 561e 233e 95cf c4bd

RNN.weight_hh_l1 f4 [200, 50]
-0.0018600244 0.0989797 -0.04824572 0.0025869147 -0.031639062 -0.0989306 0.043386318 -0.06274287
-0.038624506 -0.1417287 0.005537604 0.095346615 0.07731925 -0.13564235 -0.034833193 0.06730165
-0.12254284 -0.00059143873 -0.032195497 0.038012747 -0.103121765 -0.13070059 -0.10017797 -0.15718591
0.045577794 0.015245899 -0.038850054 0.04994371 -0.021192988 0.105786934 0.0633768 0.012508754
0.103888765 0.08394599 -0.043124385 0.07833589 -0.038789917 -0.043229975 0.048193604 -0.09115962
0.110557154 0.12792726 0.1361373 0.032280046 -0.09560827 -0.007022811 -0.05178474 -0.16690257
0.07633705 -0.026075162 -0.020230839 -0.14485861 0.01857582 0.10764502 0.05644406 0.08060165
0.15536313 0.06677217 -0.0009922963 -0.066189 -0.04496122 -0.13219231 0.1180347 0.094168976
0.03785103 0.08340995 -0.007479999 -0.11236538 0.0029686722 0.018532082 0.09369745 -0.14540738
-0.13914187 -0.016051382 0.090823345 0.120152 0.101331815 -0.10486937 -0.01965369 -0.13241385
-0.03532031 -0.07187507 -0.031827156 0.15560572 -0.15734081 0.07787751 0.07108962 -0.13086605
-0.09326567 0.024303166 0.12984328 -0.0056959554 0.09084325 -0.14809105 0.051494367 -0.03741838
0.11666465 -0.1524311 0.0028641582 0.14782494 0.036286037 -0.05385563 -0.17060423 -0.16484849
-0.04901845 -0.06267999 -0.12847865 0.02291184 0.068677306 0.023490813 -0.13634247 0.13186589
-0.11614179 -0.066207394 -0.03848065 -0.034016613 -0.06115487 -0.092536986 -0.1886571 -0.044921447
0.017697114 0.067431815 0.17180224 0.080796145 -0.13024433 -0.0017780638 0.028001074 0.071325205
0.10410802 0.11926874 -0.14185092 -0.00822376 -0.052650187 0.026951086 -0.094545946 -0.056366567
0.12075573 0.014503574 0.09773257 0.028268486 0.07472069 0.061044306 0.073034026 0.07312417
0.11667518 0.19211537 -0.10457138 0.061654463 0.040427476 -0.14756247 0.093210354 0.13182922
0.040415995 -0.00090678316 -0.030054351 0.096977234 -0.08146784 0.023866318 -0.043535374 0.065567456
-0.13527918 -0.007640524 0.04297168 -0.037195753 0.056702994 0.17320478 0.16558582 0.07789639
0.041112997 -0.07642643 -0.0728563 0.061156955 0.031137552 0.07765759 -0.08433972 0.088072926
-0.045240276 0.009004672 -0.040709756 0.049839694 -0.0038485667 0.18404037 -0.1654274 -0.030523745
0.016417537 0.1317046 -0.07976252 -0.06728922 0.18855849 -0.087731145 -0.032015752 0.15949838
0.058585197 -0.07756267 -0.023304768 -0.14421743 0.10595023 0.018485973 0.1263982 0.11197162
0.04231883 -0.08547592 -0.13514571 0.065488204 0.036510557 -0.052448235 -0.020823753 0.17288499
-0.059393045 -0.07716275 0.06739299 0.14308822 -0.061937474 -0.04260677 -0.1733376 -0.01576117
-0.0133866165 -0.18712999 -0.051781278 -0.001415235 -0.0384195 -0.029205512 -0.03066938 -0.041030962
-0.025471773 -0.12591323 0.010559619 -0.11223975 0.050607756 0.023902792 -0.07836226 -0.037666712
0.024926955 -0.04497087 -0.16790102 0.0193692 -0.0011107428 0.048907876 -0.114687786 -0.08054992
-0.05691608 0.044383116 0.12373262 -0.028230034 0.08969252 -0.08472845 -0.033639662 -0.15420288
-0.0075848266 0.07839215 0.060368303 0.04425267 0.028724948 -0.10340174 0.21537061 -0.09326057
00000000: 10cc f3ba deb5 ca3d 4e9d 45bd 3a89 293b
00000010: f697 01bd 209c cabd dab5 313d 557f 80bd
00000020: bb34 1ebd 5421 11be ca74 b53b 1645 c33d
00000030: 8e59 9e3d d4e5 0abe 40ad 0ebd 73d5 893d
00000040: bef7 fabd c80a 1bba 6ddf 03bd 41b3 1b3d
00000050: 8131 d3bd 60d6 05be 1c2a cdbd 58f5 20be
00000060: c8af 3a3d efc9 793c 3c21 1fbd c791 4c3d
00000070: eb9c adbc d2a6 d83d b2cb 813d 84f1 4c3c
00000080: a2c3 d43d e0eb ab3d 32a3 30bd 916e a03d
00000090: 2de2 1ebd ea11 31bd a866 453d e5b1 babd
000000a0: ca6b e23d 5dff 023e 9467 0b3e 1538 043d
000000b0: 45ce c3bd 9c1f e6bb 3c1c 54bd 82e8 2abe
000000c0: 9956 9c3d 949b d5bc 25bb a5bc d155 14be
000000d0: 512c 983c fe74 dc3d e331 673d 7a12 a53d
000000e0: 8317 1f3e d9bf 883d f00f 82ba 198e 87bd
000000f0: 4229 38bd 6c5d 07be 2dbc f13d aadb c03d
00000100: ae09 1b3d d6d2 aa3d c81a f5bb d21f e6bd
00000110: 0e8e 423b 98d0 973c 73e4 bf3d ace5 14be
00000120: 357b 0ebe 307e 83bc 9701 ba3d 4012 f63d
00000130: 0e87 cf3d c1c5 d6bd c600 a1bc 7f97 07be
00000140: 08ac 10bd 3d33 93bd 315d 02bd 1b57 1f3e
00000150: f31d 21be 3e7e 9f3d 6f97 913d c001 06be
00000160: 1202 bfbd 6f17 c73c a3f5 043e 23a5 babb
00000170: 070c ba3d 2ea5 17be c2eb 523d 0444 19bd
00000180: e0ed ee3d e616 1cbe 9ab4 3b3b 6c5f 173e
00000190: aba0 143d b997 5cbd e0b2 2ebe 0bce 28be
000001a0: 92c7 48bd 5e5e 80bd e88f 03be 9cb1 bb3c
000001b0: b0a6 8c3d ce6f c03c 5c9d 0bbe da07 073e
000001c0: bfdb edbd be97 87bd e39d 1dbd 0155 0bbd
000001d0: 877d 7abd 0884 bdbd 542f 41be 8dff 37bd
000001e0: 8af9 903c b119 8a3d edec 2f3e 7378 a53d
000001f0: c55e 05be ec0d e9ba 8262 e53c f312 923d
00000200: 9636 d53d 2b43 f43d 5e41 11be f3bc 06bc
00000210: b9a7 57bd 86c8 dc3c 4ea1 c1bd a1e0 66bd
00000220: c84e f73d 66a0 6d3c 0328 c83d 5093 e73c
00000230: 2907 993d 9809 7a3d dd92 953d 20c2 953d
00000240: 66f3 ee3d e4b9 443e 8529 d6bd 6489 7c3d
00000250: 4897 253d 9e1a 17be 12e5 be3d 3dfe 063e
00000260: 3e8b 253d 30b5 6dba 8b34 f6bc 009c c63d
00000270: 9cd8 a6bd 4c83 c33c 2652 32bd 3b48 863d
00000280: a086 0abe 5c5d fabb 1303 303d 935a 18bd
00000290: 6641 683d 985c 313e 548f 293e 2488 9f3d
000002a0: 1a66 283d 7685 9cbd af35 95bd b77f 7a3d
000002b0: 2e14 ff3c f10a 9f3d 4eba acbd 945f b43d
000002c0: de4d 39bd 5588 133c 46bf 26bd b524 4c3d
000002d0: 3c38 7cbb 1475 3c3e cd65 29be ef0c fabc
000002e0: 127e 863c 92dd 063e 885a a3bd eece 89bd
000002f0: 7a15 413e 63ac b3bd f322 03bd 8b53 233e
00000300: 08f7 6f3d 2dd9 9ebd a4e9 bebc bcad 13be
00000310: 6ffc d83d e56f 973c 886e 013e 6051 e53d
00000320: 8256 2d3d 000e afbd a363 0abe ae1e 863d
00000330: 188c 153d f6d3 56bd 9396 aabc c308 313e
00000340: 1f46 73bd 8107 9ebd 5605 8a3d b885 123e
00000350: 26b2 7dbd 7084 2ebd 697f 31be 921d 81bc
00000360: 8a53 5bbc 019f 3fbe 9b18 54bd 687f b9ba
00000370: c45d 1dbd 6640 efbc 5a3e fbbc 1510 28bd
00000380: 2eaa d0bc 66ef 00be 4102 2d3c f4dd e5bd
00000390: 144a 4f3d cacf c33c 647c a0bd 6948 1abd
000003a0: 9d33 cc3c 6033 38bd 3fee 2bbe 28ac 9e3c
000003b0: 5896 91ba a053 483d 6ee1 eabd 5bf7 a4bd
000003c0: d620 69bd 12cb 353d 8767 fd3d ac42 e7bc
000003d0: b6b0 b73d 1c86 adbd bec9 09bd 5ce7 1dbe
000003e0: 238a f8bb 108c a03d c144 773d 4a42 353d
000003f0: 9550 eb3c 4bc4 d3bd 1d8a 5c3e 66ff bebd

RNN.bias_ih_l1 f4 [200]
0.12111312 -0.077112705 -0.14858052 0.06089981 0.03333752 0.08498439 0.04622283 -0.10020763
-0.16480076 0.032135557 -0.09283509 -0.11003796 0.05221733 -0.037257463 0.09279314 -0.047996625
-0.19240886 -0.071207196 0.04752985 -0.07846293 0.10129519 -0.043871928 -0.13178827 0.033411365
0.051446773 -0.052201267 0.07723664 0.0076523405 -0.040949993 0.052556165 -0.062136166 0.011005113
-0.11379308 -0.033850938 0.0359174 0.044045597 0.027242437 -0.13625292 0.04799901 -0.052165493
0.10156009 0.0819105 0.05334898 -0.08211373 -0.10250866 0.043086447 0.09450484 0.014719296
-0.0058556795 -0.087360114 -0.063233994 -0.18625636 0.052737202 0.04354658 -0.019671537 0.03473741
0.026027234 -0.10376506 0.0052018138 -0.071118906 -0.013089938 0.08422114 0.044106964 0.043952692
-0.07945616 -0.17632455 0.004265855 -0.123086475 -0.093875244 -0.073383 -0.047052857 -0.03518564
-0.0022391737 0.06917867 0.04424981 0.07828692 -0.038998537 0.003640341 0.07692348 0.043032665
-0.052310262 0.06846792 0.20117919 0.106624976 -0.056750413 -0.13059656 -0.05406529 0.06871134
-0.071907654 -0.07329173 -0.078291886 -0.054564226 -0.010106212 0.124588564 -0.16065025 -0.08606507
-0.07065399 0.067747556 -0.1255577 0.009796787 -0.078562446 -0.08850002 -0.08845093 -0.09820111
0.04639933 0.0015579564 -0.050441746 0.07783658 0.12633118 0.10702291 0.14747877 0.0038057347
-0.021739861 -0.044497922 -0.11307318 -0.13484332 -0.05080138 0.05530789 -0.0011123444 0.0930405
-0.12575944 -0.06403313 0.04693483 -0.05370833 -0.06317943 -0.012402408 0.06938518 0.12665808
0.016564928 -0.11646355 -0.023039952 -0.0076281293 0.0384484 -0.048305213 -0.19128124 0.0017346551
-0.022420185 -0.0039886 0.032159057 -0.025307775 -0.06481255 -0.15570997 0.05089975 -0.008310527
-0.0956122 0.01033325 0.027620353 0.07632295 0.017532086 0.062190905 0.046252012 0.12277435
-0.07846064 -0.034864083 -0.12262114 0.15333417 -0.07651363 -0.011722138 0.017792203 -0.094733864
-0.055779878 -0.08893284 -0.07733773 -0.102963954 -0.10141825 -0.09866031 -0.09505643 -0.031161103
-0.0723016 0.056990884 0.11383159 -0.15748322 -0.054203317 -0.13440637 0.060482726 -0.055046257
0.09769814 -0.17132851 -0.105516374 -0.0021403285 -0.025749864 -0.08362276 0.12441718 -0.025938978
-0.15776725 0.059579443 -0.136933 -0.08942985 0.023569938 0.002244623 0.04616976 -0.10964677
-0.13066131 0.079382636 0.041468896 -0.051554546 0.088620365 -0.08738245 0.092248365 -0.153354
00000000: 280a f83d 44ed 9dbd 7e25 18be 1472 793d
00000010: ec8c 083d 4c0c ae3d 2654 3d3d a839 cdbd
00000020: 88c1 28be 93a0 033d 5320 bebd 955b e1bd
00000030: d7e1 553d 489b 18bd 540a be3d 1c98 44bd
00000040: d406 45be 14d5 91bd a9ae 423d 2cb1 a0bd
00000050: da73 cf3d 0db3 33bd 81f3 06be 5bda 083d
00000060: dab9 523d ffd0 55bd 3e2e 9e3d 7cc0 fa3b
00000070: 2ebb 27bd 2245 573d 7e82 7ebd ca4e 343c
00000080: 590c e9bd 48a7 0abd 201e 133d 2869 343d
00000090: 882b df3c e385 0bbe 9c9a 443d 7cab 55bd
000000a0: bdfe cf3d b1c0 a73d 7684 5a3d 3e2b a8bd
000000b0: 0ff0 d1bd 6a7b 303d c18b c13d 3429 713c
000000c0: 00e1 bfbb dce9 b2bd d380 81bd fdb9 3ebe
000000d0: f702 583d e65d 323d 3426 a1bc d048 0e3d
000000e0: 1137 d53c c782 d4bd fa73 aa3b caa6 91bd
000000f0: 2e77 56bc 227c ac3d 81a9 343d bd07 343d
00000100: e9b9 a2bd 6c8e 34be 96c8 8b3b c314 fcbd
00000110: aa41 c0bd d449 96bd 7fba 40bd d11e 10bd
00000120: 1abf 12bb 8cad 8d3d 4a3f 353d e554 a03d
00000130: eebc 1fbd ca92 6e3b 0f8a 9d3d 0543 303d
00000140: 4943 56bd e938 8c3d eb01 4e3e 325e da3d
00000150: 1f73 68bd 1bbb 05be 9173 5dbd 88b8 8c3d
00000160: 5244 93bd f919 96bd 7f57 a0bd bd7e 5fbd
00000170: 8794 25bc 4a28 ff3d 8081 24be e242 b0bd
00000180: 0ab3 90bd 3bbf 8a3d 3392 00be b482 203c
00000190: 59e5 a0bd 803f b5bd c325 b5bd aa1d c9bd
000001a0: 390d 3e3d 5834 cc3a 019c 4ebd c968 9f3d
000001b0: f65c 013e d42e db3d ad04 173e a269 793b
000001c0: cb17 b2bc 7443 36bd e992 e7bd 5e14 0abe
000001d0: 1c15 50bd 878a 623d 16cc 91ba 058c be3d
000001e0: 15c7 00be cd23 83bd bc3e 403d 44fd 5bbd
000001f0: 3864 81bd 7833 4bbc d119 8e3d a8b2 013e
00000200: 2cb3 873c 7184 eebd 48be bcbc 63f5 f9bb
00000210: 127c 1d3d b0db 45bd 3bdf 43be 5e5d e33a
00000220: 89aa b7bc cdb2 82bb 37b9 033d 4052 cfbc
00000230: 71bc 84bd 6f72 1fbe 427c 503d e028 08bc
00000240: 54d0 c3bd cb4c 293c 1444 e23c 354f 9c3d
00000250: 739f 8f3c e4bb 7e3d c072 3d3d 1e71 fb3d
00000260: f9af a0bd a4cd 0ebd cb20 fbbd a203 1d3e
00000270: 2eb3 9cbd 360e 40bc f4c0 913c d403 c2bd
00000280: 7179 64bd 6c22 b6bd 3e63 9ebd c4de d2bd
00000290: 5fb4 cfbd 6b0e cabd f2ac c2bd 9245 ffbc
000002a0: dc12 94bd 466f 693d 8920 e93d 4843 21be
000002b0: 4c04 5ebd d3a1 09be bcbc 773d 2f78 61bd
000002c0: f615 c83d be70 2fbe f818 d8bd c144 0cbb
000002d0: 61f1 d2bc 6942 abbd 6fce fe3d fb7d d4bc
000002e0: bd8d 21be 9309 743d 2a38 0cbe ff26 b7bd
000002f0: be15 c13c 861a 133b 811c 3d3d 7c8e e0bd
00000300: 14cc 05be 5d93 a23d 4adb 293d dc2a 53bd
00000310: 987e b53d 92f5 b2bd b6ec bc3d d508 1dbe

RNN.bias_hh_l1 f4 [200]
-0.11096665 0.029274026 -0.101737335 -0.0013484424 0.0569609 0.16438733 -0.16862534 -0.094929695
0.0598878 -0.040237322 -0.017191906 -0.017634664 0.04689103 -0.005252218 -0.022791106 0.077826284
-0.10798191 0.03211423 -0.046543375 -0.06609692 -0.03452533 0.0498343 -0.0984739 -0.13128868
-0.1850378 -0.12803468 0.005652023 -0.049502153 0.063728824 0.039183266 -0.1397277 -0.116737284
0.061243862 0.15319905 -0.15953153 -0.04283981 -0.20120092 -0.13760132 -0.002344294 -0.01949214
-0.12669177 -0.09109069 0.049654894 0.058098476 -0.15258574 -0.1697194 -0.14865737 0.040481918
-0.050953303 0.047545195 0.07859075 -0.14636976 -0.047502566 -0.13173075 0.13651925 -0.06944798
-0.09014957 0.11929589 -0.08431679 -0.0603905 -0.07842525 -0.025161728 0.0695808 0.10290996
0.14785455 0.047371805 -0.042108107 -0.07829862 -0.020030487 -0.04516931 0.047693465 0.09035499
0.118992016 -0.011788195 0.060827196 -0.046186455 0.057476215 -0.013790319 0.17981659 -0.007923318
-0.07490091 -0.08852045 0.004735797 0.18380584 0.016894098 0.01432267 -0.09408181 0.05646009
-0.10239634 0.08882494 0.035890598 0.19331706 0.07944108 -0.10736434 -0.16644356 -0.012256637
0.06214692 -0.16081631 -0.099183224 0.00014096801 -0.075181924 0.057287153 -0.042276256 0.10193923
0.05017816 -0.014542457 -0.04955383 0.082705624 -0.10428111 -0.090215206 -0.08222262 0.14208755
0.03332911 0.013810759 -0.031231169 0.081481576 0.032692015 0.08938497 -0.09855169 -0.06069211
0.10691822 0.062086973 -0.016860086 0.10958863 -0.081739634 0.076774 -0.102716066 -0.099553965
-0.040215027 0.0905207 0.055157453 0.0029959958 0.07722046 -0.08237736 0.05731097 0.06812941
0.034287594 0.12439037 -0.068089604 -0.05536396 -0.091242455 0.03727309 -0.08820177 -0.009970933
0.06848214 -0.059855133 -0.056685187 -0.0026612836 -0.08157114 0.00828944 0.065757014 0.062443446
-0.15834922 -0.16973168 0.061497435 0.08612242 -0.09300934 -0.11277494 0.08698008 0.066483356
-0.10383696 0.10336265 0.020263258 0.040657245 0.027871694 -0.10919324 0.0568827 0.050809063
0.099272706 0.05307444 -0.041766703 -0.016707826 0.09995863 0.09829562 0.0016356902 -0.014247087
0.01053106 -0.06334637 0.019780727 0.07343647 -0.09050358 -0.18502691 0.029761292 0.010531634
0.08782523 -0.1558024 -0.003901849 0.021891356 0.026338872 0.0041278615 -0.04740779 -0.09680938
0.028008156 -0.15042499 -0.1991125 -0.16799533 0.027251936 0.06708136 -0.009016249 -0.12367303
00000000: 7c42 e3bd 15d0 ef3c aa5b d0bd 38be b0ba
00000010: d54f 693d 2755 283e 1fac 2cbe 806a c2bd
00000020: e94c 753d e4cf 24bd 0ad6 8cbc 9276 90bc
00000030: cf10 403d cc1a acbb 6ab4 babc 6363 9f3d
00000040: 9f25 ddbd 368a 033d 44a4 3ebd d25d 87bd
00000050: 6f6a 0dbd 0d1f 4c3d afac c9bd 8a70 06be
00000060: 8d7a 3dbe 861b 03be 9b34 b93b c5c2 4abd
00000070: 4284 823d a27e 203d c714 0fbe f513 efbd
00000080: d8da 7a3d 36e0 1c3e 3c5c 23be cc78 2fbd
00000090: 9d07 4ebe 5ce7 0cbe baa2 19bb fbad 9fbc
000000a0: 7dbb 01be c18d babd ee62 4b3d abf8 6d3d
000000b0: 703f 1cbe ecca 2dbe a339 18be 5ed0 253d
000000c0: 69b4 50bd c0be 423d 30f4 a03d f4e1 15be
000000d0: 0d92 42bd 6de4 06be b4cb 0b3e be3a 8ebd
000000e0: 56a0 b8bd 6751 f43d 48ae acbd 075c 77bd
000000f0: 6b9d a0bd f81f cebc 6180 8e3d 75c2 d23d
00000100: 2f67 173e f008 423d 8d79 2cbd 075b a0bd
00000110: fa16 a4bc 7403 39bd 395a 433d 090c b93d
00000120: 16b2 f33d 4623 41bc f025 793d 022e 3dbd
00000130: 2e6c 6b3d caf0 61bc d721 383e ced0 01bc
00000140: a665 99bd 364a b5bd bf2e 9b3b 9937 3c3e
00000150: 7e65 8a3c a2a9 6a3c f7ad c0bd b242 673d
00000160: 2cb5 d1bd dae9 b53d 0502 133d e8f4 453e
00000170: 01b2 a23d d6e1 dbbd 2e70 2abe 10d0 48bc
00000180: c58d 7e3d 08ad 24be 9320 cbbd d0d0 1339
00000190: fbf8 99bd efa5 6a3d de29 2dbd 84c5 d03d
000001a0: 9d87 4d3d 7c43 6ebc f5f8 4abd 9161 a93d
000001b0: 5691 d5bd c0c2 b8bd 5564 a8bd 667f 113e
000001c0: 1b84 083d 8646 623c 82d8 ffbc d0df a63d
000001d0: 10e8 053d 780f b73d 78d5 c9bd 4a98 78bd
000001e0: f1f7 da3d e94e 7e3d 2a1e 8abc 0170 e03d
000001f0: 1c67 a7bd b03b 9d3d cd5c d2bd f3e2 cbbd
00000200: 83b8 24bd eb62 b93d c8ec 613d 7858 443b
00000210: c325 9e3d 76b5 a8bd e8be 6a3d 6f87 8b3d
00000220: 2671 0c3d 61c0 fe3d 9072 8bbd 52c5 62bd
00000230: 53dd babd abab 183d 21a3 b4bd 205d 23bc
00000240: 5d40 8c3d a82a 75bd ba2e 68bd ee68 2ebb
00000250: c50e a7bd 6ed0 073c 9dab 863d b3c4 7f3d
00000260: 4c26 22be 24ce 2dbe bce4 7b3d f460 b03d
00000270: ae7b bebd 8cf6 e6bd 9d22 b23d 6d28 883d
00000280: 79a8 d4bd ccaf d33d 22ff a53c 3688 263d
00000290: 2e53 e43c b5a0 dfbd d6fd 683d 2a1d 503d
000002a0: 7d4f cb3d 9664 593d 9013 2bbd dade 88bc
000002b0: 1cb7 cc3d 374f c93d a864 d63a 9d6c 69bc
000002c0: 788a 2c3c bebb 81bd 310b a23c dc65 963d
000002d0: f159 b9bd b277 3dbe f4cd f33c e08c 2c3c
000002e0: b7dd b33d aa8a 1fbe 2ab6 7fbb 8055 b33c
000002f0: 9ec4 d73c 0343 873b ac2e 42bd ff43 c6bd
00000300: 5c71 e53c 0209 1abe 26e4 4bbe f806 2cbe
00000310: 743f df3c f461 893d e4b8 13bc 4948 fdbd
